data_converter/MUTAG_Trained_Model.pt (torch, 28119 bytes, 26 tensors)

weight f4 [10, 20]
0	0x3e3bfed4	0.18358928
1	0xbeaa3999	-0.3324707
2	0x3e28c034	0.1647957
3	0xbc9bedc0	-0.019034266
4	0xbe1eada8	-0.15495932
5	0xbe1df332	-0.15424803
6	0xbe2bc8d6	-0.16775832
7	0x3ecef38c	0.40420187
8	0xbebc0f01	-0.36730197
9	0xbe9bf342	-0.30459028
10	0xbe90dd17	-0.28293678
11	0x3eadf806	0.3397829
12	0xbb3b4d80	-0.002858013
13	0xbd379348	-0.044818193
14	0xbec6dd29	-0.38840607
15	0xbe6042fd	-0.21900554
16	0xbed8f169	-0.4237168
17	0x3ed59b5e	0.41720098
18	0xbed6e77d	-0.41973487
19	0x3ea628a2	0.32452875
20	0x3dc317f0	0.0952605
21	0x3e5a2314	0.21302444
22	0x3e95055c	0.2910565
23	0x3ec455e4	0.3834678
24	0xbe2a2b82	-0.1661816
25	0x3dcad2e8	0.099035084
26	0xbdb6cccc	-0.08925781
27	0xbe726820	-0.23672533
28	0x3ed84438	0.42239547
29	0xbeaea508	-0.34110284
30	0x3d8f41b0	0.06994951
31	0xba947800	-0.0011327267
32	0x3eaefbda	0.34176522
33	0xbe86e178	-0.26343894
34	0x3d51da40	0.05123353
35	0x3e891b4a	0.26778632
36	0x3c0b4ca0	0.008502156
37	0xbc0df0c0	-0.008663356
38	0x3e80a654	0.25126898
39	0x3d97a208	0.07403952
40	0x3e5f02dc	0.21778435
41	0xbe2ea7b4	-0.17056161
42	0x3e9da9ea	0.30793697
43	0x3d5c34b0	0.053761184
44	0x3e70d9c8	0.23520577
45	0xbdb8626c	-0.090031475
46	0xbe0576f4	-0.13033658
47	0x3eb3f8e4	0.35150826
48	0x3d8c4e18	0.06850833
49	0xbede69a2	-0.43439966
50	0x3eddcc1a	0.4331978
51	0xbed76e46	-0.4207632
52	0xbea605cf	-0.32426307
53	0xbe33c62e	-0.17556068
54	0xbeca0714	-0.39458525
55	0xbec1824a	-0.37794715
56	0x3eb99fb0	0.36254644
57	0x3e18b934	0.149144
58	0xbdf4920c	-0.11941919
59	0x3db5c3d0	0.08875239
60	0x3d9f6b58	0.07784146
61	0xbd97d314	-0.07413307
62	0xbeb49df2	-0.35276753
63	0xbeceda00	-0.40400696
64	0xbd5cd4c8	-0.05391386
65	0xbd652d80	-0.055951595
66	0xbed1b5f7	-0.4095914
67	0xbe4e816d	-0.2016656
68	0x3e9458e2	0.28974062
69	0x3eb488da	0.3526066
70	0x3edae8b0	0.4275565
71	0x3e89e354	0.2693125
72	0xbed1b26a	-0.40956432
73	0x3d3388c0	0.043831587
74	0x3e7d59b0	0.24741244
75	0xbe19eafc	-0.15031046
76	0xbdc9d874	-0.09855738
77	0xbe87dbf2	-0.26534992
78	0xbdd81528	-0.1055091
79	0xbe46adec	-0.19402283
80	0xbe2851e2	-0.16437486
81	0x3e971caa	0.29514056
82	0xbdae4218	-0.085087
83	0xbe8f3a80	-0.2797432
84	0x3df20438	0.11817211
85	0x3e4e2fa0	0.20135355
86	0xbeab5c54	-0.33468878
87	0xbe3f3b54	-0.18674976
88	0x3e7c1694	0.24617988
89	0x3e9d5a90	0.30733156
90	0xbd95d91c	-0.07316801
91	0x3e6f2198	0.23352659
92	0x3eb26b3c	0.34847438
93	0xbeb2d4ca	-0.3492797
94	0xbc5a1ca0	-0.013312489
95	0xbe871c24	-0.26388657
96	0x3ed33684	0.4125253
97	0xbd5b9a28	-0.05361381
98	0xbd00a608	-0.03140834
99	0xbe81335e	-0.25234503
100	0x3e8706cc	0.26372373
101	0xbd95d410	-0.07315838
102	0x3e878724	0.26470292
103	0xbd04dbe0	-0.03243625
104	0xbebd050b	-0.3691791
105	0xbe148ff4	-0.14508039
106	0xbea13038	-0.314821
107	0x3d888690	0.06666291
108	0x3ec1ccfc	0.37851703
109	0x3e3d47d4	0.18484432
110	0xbe7c248f	-0.24623321
111	0xbc80d670	-0.015727252
112	0xbde00a00	-0.10939407
113	0xbe7414e1	-0.2383609
114	0x3e40ef5c	0.18841308
115	0xbe6a2e97	-0.22869335
116	0xbc0324c0	-0.008004367
117	0xbec4d118	-0.38440776
118	0x3e0fad50	0.14030957
119	0x3d3227d8	0.04349503
120	0x3e8e979c	0.27850044
121	0xbe5c8f98	-0.21539152
122	0x3d960ba8	0.07326442
123	0xbe7dface	-0.24802706
124	0xbce80910	-0.028324634
125	0xbeba1ab4	-0.36348498
126	0xbc4bae60	-0.012431711
127	0x3c8f9560	0.017527282
128	0xbe4fc376	-0.20289406
129	0x3dc30eb0	0.09524286
130	0xbd60c390	-0.054874003
131	0xbece230d	-0.40261117
132	0xbe02e238	-0.12781608
133	0xbd2c3be8	-0.04204932
134	0xbedf6876	-0.43634385
135	0xbb9991c0	-0.004686564
136	0x3eb10842	0.34576613
137	0xbea31f8a	-0.3186
138	0x3d393948	0.045220643
139	0x3e979b4a	0.29610664
140	0xbe7276f1	-0.23678185
141	0xbe3e39ac	-0.18576688
142	0xbe9c8eee	-0.30577797
143	0xbe808aa8	-0.25105786
144	0x3dc81d18	0.09771174
145	0xbebf6825	-0.37384143
146	0x3e16cfa0	0.1472764
147	0xbec731d3	-0.389052
148	0x3cf20280	0.029542208
149	0x3e9c50b6	0.30530328
150	0xbeb2eb8f	-0.34945342
151	0xbd9467f0	-0.07246387
152	0x3dd91170	0.10599029
153	0x3e62cbcc	0.22148055
154	0x3ea8c090	0.32959414
155	0xbe30a0b8	-0.1724881
156	0xbec94d8e	-0.39316982
157	0x3cefbe40	0.029265523
158	0xbed90feb	-0.42394957
159	0xbeaec4d0	-0.3413453
160	0x3ec0aa90	0.3763013
161	0xbe527ebc	-0.20556158
162	0xbed6baa8	-0.41939282
163	0x3ec20c08	0.37899804
164	0x3ede15ea	0.43376094
165	0xbec8c609	-0.3921359
166	0x3e21160c	0.15731066
167	0x3bf35040	0.007425338
168	0xbd2cb968	-0.042169005
169	0x3b7f4c80	0.003895551
170	0xbe9a3072	-0.30115086
171	0x3e10be24	0.14135033
172	0xbe1db772	-0.1540201
173	0xbeab2510	-0.33426714
174	0xbecbf73a	-0.39837056
175	0x3e089d44	0.13341242
176	0xbe86fb7a	-0.26363736
177	0xbe782cf0	-0.24235892
178	0x3cf67df0	0.030089349
179	0xbe096b84	-0.1341992
180	0x3ec1824c	0.3779472
181	0x3e87166e	0.263843
182	0x3e8eb2fa	0.27870923
183	0x3ebfab6a	0.37435466
184	0x3ea6c91a	0.32575303
185	0x3ec2e24a	0.3806327
186	0x3e03196c	0.12802666
187	0x3ec39310	0.38198137
188	0x3e0339b0	0.12814975
189	0x3e1116a4	0.14168793
190	0x3b803e00	0.003913641
191	0x3ca3af90	0.019981176
192	0x3c0465e0	0.0080809295
193	0xbe71d624	-0.23616844
194	0xbeae7018	-0.34069896
195	0x3e036f4c	0.12835425
196	0x3ec8b45a	0.39200097
197	0x3eb68394	0.3564726
198	0x3e7acaa4	0.24491364
199	0x3e497c90	0.19676423

bias f4 [20]
0	0x00000000	0.0
1	0x00000000	0.0
2	0x00000000	0.0
3	0x00000000	0.0
4	0x00000000	0.0
5	0x00000000	0.0
6	0x00000000	0.0
7	0x00000000	0.0
8	0x00000000	0.0
9	0x00000000	0.0
10	0x00000000	0.0
11	0x00000000	0.0
12	0x00000000	0.0
13	0x00000000	0.0
14	0x00000000	0.0
15	0x00000000	0.0
16	0x00000000	0.0
17	0x00000000	0.0
18	0x00000000	0.0
19	0x00000000	0.0

weight f4 [10, 20]
0	0x3db4a9e0	0.088214636
1	0x3eadf86c	0.33978593
2	0xbe079d98	-0.13243711
3	0x3d39bb78	0.0453448
4	0x3d891bf0	0.06694782
5	0xbe9b3e30	-0.30320883
6	0x3e9d7d6a	0.30759746
7	0xbe5d91ce	-0.21637651
8	0x3e69edc8	0.22844613
9	0xbe85eb94	-0.26156294
10	0x3e9b9e92	0.30394417
11	0xbeca8836	-0.39557046
12	0xbe103ff4	-0.14086896
13	0xbd9d99fc	-0.07695386
14	0xbe808f34	-0.25109255
15	0x3e1765cc	0.14784926
16	0x3ede6c8a	0.43442184
17	0x3dd831a0	0.1055634
18	0xbeb17991	-0.3466306
19	0x3e082144	0.1329394
20	0xbc4b9d00	-0.012427568
21	0xbd4c9480	-0.049946308
22	0xbe2e1324	-0.16999489
23	0x3e89cc38	0.2691362
24	0xbe829183	-0.25501642
25	0x3d18ca40	0.037302256
26	0x3b485400	0.0030567646
27	0xbe05f4de	-0.1308169
28	0xbed947be	-0.42437547
29	0x3c3a4460	0.011368841
30	0xbe276694	-0.16347724
31	0xbe8ec7e0	-0.27886868
32	0xbedbf544	-0.4296056
33	0xbe2f9d4e	-0.1714985
34	0x3e03dd08	0.12877285
35	0xbec40f37	-0.38292858
36	0xbe6d4b30	-0.23173213
37	0x3d8538b0	0.06504953
38	0xba8b9c00	-0.001065135
39	0xbd672e10	-0.056440413
40	0x3c5f4900	0.013628244
41	0xbe8802db	-0.2656468
42	0x3e932cce	0.2874512
43	0xbe9c1626	-0.30485648
44	0xbe4eba80	-0.20188332
45	0xbe277132	-0.16351774
46	0x3e8e6af4	0.27815974
47	0xbde72474	-0.1128625
48	0x3d211c18	0.039333433
49	0x3e68c70c	0.2273218
50	0x3e336bb0	0.17521548
51	0x3e20817c	0.15674394
52	0x3e82fa12	0.25581414
53	0xbe294ce4	-0.16533238
54	0x3debd6d0	0.115155816
55	0xbed823e3	-0.4221488
56	0x3e4889d8	0.19583833
57	0xbc9aa090	-0.01887539
58	0x3e94c100	0.29053497
59	0xbe755617	-0.23958622
60	0xbecee8f8	-0.40412116
61	0xbedad8fd	-0.42743674
62	0xbd12cc08	-0.03583911
63	0x3d86e470	0.0658654
64	0x3c2fda80	0.010733247
65	0xbe3ffa38	-0.18747795
66	0xbee4dae0	-0.44698238
67	0xbe54bcee	-0.20775196
68	0x3edfb11a	0.43689805
69	0x3eb04dcc	0.34434354
70	0xbec9b1bb	-0.3939341
71	0x3df669e0	0.12031913
72	0x3c154540	0.009110749
73	0x3ec80d70	0.39072752
74	0xbd8c01fc	-0.06836316
75	0x3d802748	0.06257492
76	0x3e91bf86	0.28466433
77	0x3e870230	0.26368856
78	0xbe909f0c	-0.28246343
79	0xbea6e706	-0.32598132
80	0xbc175420	-0.009236366
81	0x3ecae908	0.39630914
82	0x3eb7beac	0.3588766
83	0x3d4d61f0	0.05014223
84	0x3ec28a7c	0.3799628
85	0x3ea93970	0.33051634
86	0x3eae557a	0.34049588
87	0x3dc68aa0	0.09694409
88	0xbb860640	-0.0040901005
89	0x3ea5d0ae	0.32385772
90	0xbe4f2424	-0.2022863
91	0x3e354184	0.17700773
92	0x3e543acc	0.20725554
93	0x3e59c584	0.21266752
94	0xbdb80a08	-0.08986288
95	0xbece1d35	-0.40256658
96	0x3e077ad8	0.13230455
97	0x3e7b7da0	0.24559641
98	0x3d84bcf8	0.064813554
99	0xbe730aea	-0.23734632
100	0x3deb4d38	0.11489338
101	0xbd298fa8	-0.041396767
102	0x3e964df4	0.2935635
103	0x3e30dfcc	0.17272872
104	0xbec20ba8	-0.37899518
105	0x3e1a8350	0.15089154
106	0xbec3131c	-0.38100517
107	0xbb204f00	-0.002446115
108	0x3d123c60	0.03570211
109	0x3e1ca8f4	0.15298826
110	0x3e0217dc	0.12704414
111	0x3d817ff0	0.0632323
112	0xbe2a4ff8	-0.16632068
113	0x3cbc2240	0.02296555
114	0xbe90ea3f	-0.28303716
115	0x3d674190	0.05645901
116	0xbe8649ea	-0.26228267
117	0x3ec163ae	0.37771362
118	0x3c91fa30	0.017819494
119	0x3e395420	0.18098497
120	0xbe9c433a	-0.3052004
121	0xbe561420	-0.20906115
122	0xbd92a158	-0.0715968
123	0x3e8a9326	0.2706539
124	0x3edeba86	0.4350168
125	0x3c9ed8f0	0.019390553
126	0xbecf959a	-0.40543824
127	0xbd99c8c4	-0.07508996
128	0x3df69998	0.120410144
129	0xbed85201	-0.42250064
130	0x3ecefd5e	0.4042768
131	0xbee25bc7	-0.44210646
132	0xbedf89ae	-0.4365973
133	0x3e50e65c	0.20400375
134	0x3ed5c366	0.4175064
135	0xbe9c8f54	-0.305781
136	0x3eabeb24	0.33577836
137	0xbcf138f0	-0.029446095
138	0x3e8f9a24	0.28047287
139	0x3e135b08	0.14390194
140	0x3e02f4a8	0.12788641
141	0x3e580454	0.21095401
142	0xbdea0380	-0.11426449
143	0x3eb496e8	0.35271382
144	0xbed19bc1	-0.40939143
145	0xbecb3dd9	-0.39695624
146	0xbe68e3d5	-0.22743161
147	0x3e1dc650	0.15407681
148	0xbe9b2091	-0.30298284
149	0xbe3a6798	-0.1820358
150	0x3eca59d4	0.39521658
151	0x3e5359ac	0.20639676
152	0x3dc6dfb0	0.09710634
153	0xbe03ded0	-0.12877965
154	0xbec6e5ce	-0.38847202
155	0x3ecc5cd6	0.39914578
156	0x3e198130	0.14990687
157	0x3da66248	0.081242144
158	0xbde62b68	-0.11238748
159	0x3e118648	0.1421138
160	0xbedf912c	-0.43665445
161	0x3ee3897c	0.4444083
162	0xbded18f4	-0.11577025
163	0xbe8290c0	-0.2550106
164	0xbed28ea7	-0.4112446
165	0x3da8d6d8	0.08244103
166	0xbe49a4d4	-0.19691783
167	0x3e3ccc68	0.1843735
168	0xbe916418	-0.28396678
169	0xbe6b63e8	-0.2298733
170	0x3ed5a3c8	0.41726518
171	0xbed56d29	-0.41684845
172	0xbedbf01f	-0.42956635
173	0x3e5354e0	0.20637846
174	0xbd01ded0	-0.03170663
175	0xbe1d7d0c	-0.15379733
176	0xbedfa0b3	-0.4367729
177	0x3ed68df6	0.41905183
178	0xbe502763	-0.20327525
179	0x3ddfef20	0.10934281
180	0x3da193f0	0.07889545
181	0xbdfb4320	-0.122686625
182	0xbea16f32	-0.31530148
183	0x3e9b4cee	0.3033213
184	0x3eafbfd0	0.3432603
185	0xbec7b88e	-0.39007992
186	0x3e65e148	0.22449219
187	0x3ec580f6	0.38574952
188	0xbd014dd8	-0.03156838
189	0x3dcf65e0	0.10126853
190	0x3d8d4688	0.068982184
191	0xbd73eef0	-0.05955404
192	0x3edbc1aa	0.4292119
193	0xbdd48db4	-0.1037859
194	0x3e565d84	0.20934111
195	0x3ea41558	0.32047534
196	0x3ca94cf0	0.02066657
197	0x3e59c9d8	0.21268404
198	0xbe608120	-0.21924257
199	0xbd9bcb70	-0.07607162

bias f4 [20]
0	0x00000000	0.0
1	0x00000000	0.0
2	0x00000000	0.0
3	0x00000000	0.0
4	0x00000000	0.0
5	0x00000000	0.0
6	0x00000000	0.0
7	0x00000000	0.0
8	0x00000000	0.0
9	0x00000000	0.0
10	0x00000000	0.0
11	0x00000000	0.0
12	0x00000000	0.0
13	0x00000000	0.0
14	0x00000000	0.0
15	0x00000000	0.0
16	0x00000000	0.0
17	0x00000000	0.0
18	0x00000000	0.0
19	0x00000000	0.0

weight f4 [10, 20]
0	0x3e304224	0.1721273
1	0x3e473b74	0.19456273
2	0x3e4b4540	0.19850636
3	0xbcbe05e0	-0.02319616
4	0xbdebd6c8	-0.11515576
5	0x3e37fca0	0.17967463
6	0x3ea53cea	0.32273036
7	0xbc081b80	-0.008307338
8	0x3a50c000	0.00079631805
9	0x3c8a6960	0.01689595
10	0x3ec7bb06	0.39009875
11	0xbeba3784	-0.3637048
12	0x3eb9c668	0.36284184
13	0xbedb2e8e	-0.42808956
14	0x3e031fd8	0.12805116
15	0x3e51af50	0.20477033
16	0x3ee4e4f6	0.44705933
17	0xbec8a450	-0.3918786
18	0x3e832b62	0.25619036
19	0x3e453c78	0.19261348
20	0x3b4f9580	0.0031674802
21	0xbe2610e0	-0.16217375
22	0x3ea2f000	0.3182373
23	0x3dd36d08	0.103235304
24	0xbea3da4d	-0.32002488
25	0xbe205a60	-0.15659475
26	0x3e825b4c	0.2546028
27	0xbd051b90	-0.03249699
28	0x3d851480	0.06498051
29	0xbe2f907a	-0.17144957
30	0xbe1426a2	-0.14467862
31	0x3ed59f0e	0.41722912
32	0x3e771f74	0.24133092
33	0xbd0899f0	-0.03334993
34	0xbe914fc2	-0.28381163
35	0x3bffa700	0.0078018904
36	0xbeb3178a	-0.34978896
37	0x3dc80e50	0.09768355
38	0xbe830d44	-0.25596058
39	0xbe420cc8	-0.18950188
40	0xbea33c4c	-0.3188194
41	0x3e4e877c	0.2016887
42	0xbee16727	-0.44024011
43	0xbeac026b	-0.33595595
44	0x3ee36f32	0.44420773
45	0x3e4a8b04	0.19779593
46	0x3e9daa44	0.30793965
47	0x3e7dc68c	0.24782771
48	0x3ee0790e	0.43842357
49	0x3d8fca08	0.07020956
50	0x3e9f75a6	0.31144446
51	0xbe705e3e	-0.2347345
52	0xbee21e76	-0.44163865
53	0x3e6b71d4	0.2299264
54	0xbeb424c2	-0.35184294
55	0xbd3be5c0	-0.045873404
56	0x3e3cd954	0.18442279
57	0xbdf39c4c	-0.11895046
58	0x3e47fb38	0.19529426
59	0xbe9f13fa	-0.31069928
60	0x3da29f20	0.07940507
61	0x3e9d7b7a	0.30758268
62	0xbdc5a058	-0.09649724
63	0x3e74f844	0.23922831
64	0x3e59ec74	0.21281606
65	0x3de42da8	0.11141521
66	0xbeaba17c	-0.3352164
67	0xbe5d18e7	-0.2159153
68	0xbdd1acfc	-0.10238072
69	0x3ea13466	0.3148529
70	0x3d8e78a0	0.06956601
71	0x3edeac54	0.4349085
72	0x3e80dce2	0.2516852
73	0xbe0e908a	-0.13922325
74	0xbddfe078	-0.10931486
75	0xbed14a20	-0.40876865
76	0xbe650d40	-0.22368336
77	0x3eb13efe	0.34618372
78	0x3ee0252e	0.43778366
79	0xbeb983db	-0.3623341
80	0xbbe9bcc0	-0.0071330965
81	0x3abf7800	0.0014607906
82	0xbe6380a4	-0.22217041
83	0xbd5e63b0	-0.05429429
84	0xbe1c2dca	-0.15251842
85	0x3ed6cd12	0.4195333
86	0xbe5da456	-0.2164472
87	0xbeca65c1	-0.39530757
88	0x3e52e0cc	0.20593566
89	0x3e7e8d48	0.24858582
90	0xbec54d2b	-0.38535437
91	0xbe16ff48	-0.1474582
92	0xbe5c5f5a	-0.21520749
93	0x3dd60818	0.104507625
94	0x3e99c9f8	0.30036902
95	0x3ebdee2e	0.3709578
96	0xbec0be66	-0.37645262
97	0xbe60453d	-0.21901412
98	0xbe3be868	-0.18350375
99	0x3ecb6534	0.3972565
100	0xbe5d76a6	-0.21627292
101	0xbebed79c	-0.37273872
102	0xbd6ebbf0	-0.0582847
103	0xbe8ac092	-0.27100044
104	0x3ed371e0	0.41297817
105	0xbd3ee3b0	-0.04660386
106	0xbc3fb020	-0.011699706
107	0xbdbc49d4	-0.09193769
108	0x3e60da7c	0.21958345
109	0x3de2e018	0.11077899
110	0x3b88d140	0.004175335
111	0xbe68eb28	-0.22745955
112	0x3ed6ea24	0.4197551
113	0x3d931dd8	0.071834266
114	0xbe8efce8	-0.27927327
115	0xbbfefd80	-0.0077816844
116	0x3e8c0614	0.27348387
117	0xbedf925e	-0.43666357
118	0xbea1e438	-0.3161943
119	0x3dfcddd8	0.12347001
120	0xbe7a2370	-0.24427581
121	0xbc892850	-0.016742855
122	0xbe33e002	-0.17565921
123	0xbea4ca6f	-0.32185695
124	0xbd36d250	-0.044634163
125	0x3e86e88c	0.26349294
126	0xbd8aecdc	-0.067834586
127	0xbd8bb7a4	-0.06822136
128	0x3ecc5328	0.39907193
129	0x3eace182	0.337658
130	0x3e3ffa30	0.18747783
131	0xbe81eadb	-0.25374493
132	0x3e0027fc	0.12515253
133	0xbee26dfb	-0.44224533
134	0xbde44bdc	-0.111472815
135	0x3eb6d2f0	0.35707808
136	0x3e4baa18	0.19889104
137	0x3adc0900	0.001678735
138	0x3eb039c8	0.34419084
139	0xbe86af32	-0.26305538
140	0xbe5f0334	-0.21778566
141	0x3e6861f0	0.2269361
142	0xbe4f2065	-0.20227201
143	0xbe422d82	-0.18962672
144	0xbe49fe8e	-0.19726011
145	0xbe8faa8f	-0.28059813
146	0xbecde6e8	-0.4021523
147	0x3c9a40a0	0.018829644
148	0x3eacbcca	0.33737785
149	0xbde91624	-0.11381176
150	0x3de97c30	0.1140064
151	0xbe189be8	-0.14903224
152	0x3e6cd0ac	0.23126477
153	0xbce9cf30	-0.028541178
154	0xbe6ba5b4	-0.2301243
155	0xbed84493	-0.42239818
156	0x3e9291da	0.286269
157	0xbebd1d78	-0.36936545
158	0xbd2dedf0	-0.042463243
159	0x3e2bc6ec	0.16775101
160	0xbe9bc225	-0.30421558
161	0xbe57f8e4	-0.21091038
162	0xbecb1b8e	-0.3966946
163	0x3db98850	0.09059203
164	0x3ec012ac	0.37514246
165	0x3cf77660	0.030207813
166	0x3d0bec68	0.034161
167	0xbed44253	-0.4145685
168	0xbe26fcba	-0.16307345
169	0xbea013ad	-0.3126501
170	0x3dfc37e0	0.12315345
171	0x3ed952a6	0.42445868
172	0xbe6650dd	-0.22491784
173	0x3e66fc54	0.22557193
174	0xbe4fd2b2	-0.20295218
175	0x3e730b4c	0.23734778
176	0x3eb3cde0	0.35118008
177	0x3e320590	0.17384934
178	0xbc8d5cc0	-0.01725614
179	0x3e3b9594	0.18318778
180	0x3e4d57c8	0.20053017
181	0x3e0b2900	0.13589859
182	0x3e464310	0.1936152
183	0x3e559208	0.20856488
184	0xbe9cf4d6	-0.30655545
185	0x3e893eea	0.26805812
186	0x3d95d7d8	0.073165596
187	0x3e81d33a	0.25356466
188	0xbeb95d08	-0.3620379
189	0xbee3532e	-0.443994
190	0xbeb95866	-0.36200255
191	0xbee3f43d	-0.44522277
192	0xbea19bb9	-0.3156412
193	0xbed2a6ae	-0.41142792
194	0xbe5f9f61	-0.21838142
195	0x3e5f1cfc	0.217884
196	0xbe74f418	-0.2392124
197	0xbed17d97	-0.4091613
198	0xbe199fc0	-0.15002346
199	0x3e81efb0	0.2537818

bias f4 [20]
0	0x00000000	0.0
1	0x00000000	0.0
2	0x00000000	0.0
3	0x00000000	0.0
4	0x00000000	0.0
5	0x00000000	0.0
6	0x00000000	0.0
7	0x00000000	0.0
8	0x00000000	0.0
9	0x00000000	0.0
10	0x00000000	0.0
11	0x00000000	0.0
12	0x00000000	0.0
13	0x00000000	0.0
14	0x00000000	0.0
15	0x00000000	0.0
16	0x00000000	0.0
17	0x00000000	0.0
18	0x00000000	0.0
19	0x00000000	0.0

weight f4 [10, 20]
0	0xbbcb5c40	-0.0062060654
1	0xbe953d4c	-0.29148328
2	0xbebb2b0a	-0.36556274
3	0xbedc6106	-0.43042773
4	0xbe000be8	-0.12504542
5	0xbe01fbc0	-0.12693691
6	0xbe9028c7	-0.2815611
7	0x3d8e80c8	0.06958157
8	0x3d8abcd8	0.067743
9	0xbeafc2b1	-0.34328225
10	0x3e0593e4	0.13044697
11	0x3e1cd29c	0.15314716
12	0x3e587d08	0.21141446
13	0x3dffe988	0.124957144
14	0xbec4637c	-0.3835715
15	0xbe80e632	-0.25175625
16	0x3e71d14c	0.23614997
17	0xbbbb6ac0	-0.0057195127
18	0x3c09b940	0.008405983
19	0xbe324fd8	-0.1741327
20	0xbeb5ee79	-0.35533503
21	0x3eaa2220	0.3322916
22	0x3e24adf8	0.16081989
23	0x3ea3eed2	0.32018143
24	0x3e69ed3c	0.22844404
25	0x3d877388	0.06613833
26	0xbe90e3d2	-0.28298813
27	0xbcc175c0	-0.023615718
28	0x3e501f6c	0.20324486
29	0xbe685a1b	-0.22690623
30	0xbe6aa007	-0.22912608
31	0xbe8fa317	-0.28054115
32	0x3eaded1c	0.33969963
33	0xbb47dc00	-0.003049612
34	0x3dd64b40	0.104635715
35	0x3ce3e1b0	0.027817577
36	0xbe15b19c	-0.14618534
37	0xbed13d46	-0.4086706
38	0x3d8127b0	0.06306398
39	0xbe330c88	-0.17485249
40	0x3e5bb2b8	0.21454895
41	0xbe9889ca	-0.29792625
42	0x3ea74d42	0.3267613
43	0x3ed90708	0.42388177
44	0x3e07a4ec	0.13246506
45	0xbedc3906	-0.43012255
46	0x3e48af10	0.19598031
47	0xbea1386a	-0.31488353
48	0x3df94050	0.1217047
49	0x3e0e0c34	0.13871843
50	0xbdeab2c0	-0.11459875
51	0x3edbb7b0	0.4291358
52	0xbed05003	-0.40686044
53	0xbd999448	-0.074989855
54	0xbea0e7bf	-0.31426808
55	0xbdf932e0	-0.12167907
56	0x3e9a05d4	0.30082572
57	0xbddd69a4	-0.10811165
58	0xbd753d68	-0.059873015
59	0x3ec299d6	0.38007993
60	0x3d2c98e0	0.04213798
61	0xbcfec6c0	-0.03110063
62	0xbe58ef07	-0.21184932
63	0x3e335578	0.17513072
64	0x3d7b8de0	0.0614146
65	0xbe3e4612	-0.18581417
66	0xbe3b31f8	-0.1828078
67	0xbe2fd9f6	-0.17172989
68	0x3e9ff750	0.31243372
69	0x3e85ef7e	0.2615928
70	0x3e22585c	0.15854019
71	0xbe9e70c9	-0.30945423
72	0x3e06918c	0.13141459
73	0xbe9f0010	-0.31054735
74	0xbe8c444c	-0.27395856
75	0x3e6d4f84	0.23174864
76	0x3e75bb98	0.23997343
77	0xbece43a2	-0.40285975
78	0x3d2a5d10	0.041592658
79	0xbe2475a4	-0.16060501
80	0xbe03ceda	-0.12871876
81	0xbea9d6c3	-0.33171663
82	0x3e9634ba	0.29337102
83	0xbee4c719	-0.4468315
84	0xbecdffe3	-0.4023429
85	0x3ee247e0	0.4419546
86	0x3ec70ca2	0.38876826
87	0xbe057594	-0.13033134
88	0x3e40fdbc	0.18846792
89	0x3ee29764	0.44256127
90	0x3e1ab60c	0.15108508
91	0x3ebc0afc	0.3672713
92	0x3ebd8e5a	0.37022668
93	0xbd9ff52c	-0.07810435
94	0xbe396122	-0.1810346
95	0x3eacb55a	0.3373211
96	0x3bf12480	0.0073590875
97	0xbee45d89	-0.44602612
98	0xbdfa7e8c	-0.12231168
99	0x3d566ec0	0.052351713
100	0xbe7d9d88	-0.24767125
101	0xbe0f2090	-0.13977265
102	0xbe549a9f	-0.20762108
103	0xbdb2b3b8	-0.08725685
104	0x3eb2cbae	0.3492102
105	0x3ed0370c	0.40666997
106	0xbed0781f	-0.40716645
107	0xbecb3d41	-0.3969517
108	0xbe83a6de	-0.25713247
109	0xbdb032f8	-0.086034715
110	0xbe529b7c	-0.20567125
111	0x3ecb7f42	0.39745528
112	0x3e9b4440	0.30325508
113	0xbe607b21	-0.2192197
114	0xbee26265	-0.44215694
115	0xbeb1e6f4	-0.34746516
116	0x3ea8058a	0.32816726
117	0x3e03f6b8	0.12887084
118	0xba843000	-0.0010085106
119	0xbd223850	-0.039604485
120	0x3ee3d9a0	0.44501972
121	0xbe8991e6	-0.26869124
122	0xbec07320	-0.37587833
123	0xbed92e6f	-0.4241824
124	0x3e1717d4	0.14755183
125	0x3e888daa	0.2667058
126	0x3ebcfe68	0.36912847
127	0xbdde1540	-0.10843897
128	0x3ecb9ff0	0.3977046
129	0x3df0cdb0	0.11757982
130	0xbde5b010	-0.11215222
131	0x3ecba9d6	0.39778012
132	0x3cf1ab30	0.029500574
133	0xbe7138ce	-0.23556826
134	0xbe9a8b16	-0.3018424
135	0x3e51fbec	0.20506257
136	0xbec6d322	-0.38832957
137	0x3e1f1b44	0.15537745
138	0x3e6bd3bc	0.23029989
139	0xbdb76864	-0.08955458
140	0xbebb1716	-0.3654105
141	0xbe9df5be	-0.3085155
142	0x3e0fe180	0.14050865
143	0x3d839f10	0.06426823
144	0x3eb6310e	0.355843
145	0x3ebae8f8	0.36505866
146	0xbe224808	-0.1584779
147	0x3d8fe0f0	0.07025325
148	0x3e551464	0.2080856
149	0xbeb1fef3	-0.34764823
150	0xbe609ded	-0.21935244
151	0xbe9f6cfc	-0.31137836
152	0xbe9c6fba	-0.3055399
153	0x3e7833b0	0.24238467
154	0x3ed4f95c	0.41596496
155	0xbe0a7370	-0.13520598
156	0xbdcdc8c8	-0.100480616
157	0xbea7dd05	-0.32785812
158	0xbd826870	-0.06367576
159	0x3dfd0410	0.123542905
160	0x3e56905c	0.20953506
161	0x3e418848	0.18899643
162	0x3e3fd2fc	0.18732828
163	0x3ea622f2	0.32448536
164	0xbeae90e8	-0.3409493
165	0xbe0c15e0	-0.1368022
166	0xbece5618	-0.4030006
167	0xbe0f4620	-0.13991594
168	0xbe88a814	-0.26690733
169	0xbe5fced7	-0.21856247
170	0x3d0f2248	0.034944803
171	0xbebaa450	-0.36453485
172	0xbe9de891	-0.30841497
173	0x3e846f48	0.2586615
174	0x3d28d970	0.04122299
175	0xbd7316d8	-0.059347957
176	0x3ece9160	0.40345287
177	0x3b748100	0.0037308335
178	0xbe42d25a	-0.19025555
179	0xbe124f0c	-0.14287966
180	0xbdb44f98	-0.08804244
181	0x3e8f2efe	0.2796554
182	0x3e862a40	0.2620411
183	0xbeb7fd9c	-0.35935676
184	0xbd93129c	-0.07181284
185	0xbd4c0558	-0.049809784
186	0xbd3faa28	-0.046793133
187	0xbcd21b30	-0.02564773
188	0xbeb25fc2	-0.34838682
189	0x3e907296	0.28212422
190	0x3eadb722	0.33928782
191	0x3d99be48	0.075069964
192	0x3dc3f850	0.09568846
193	0xbe9f871e	-0.31157774
194	0x3eb7b298	0.35878444
195	0x3eb355b0	0.35026312
196	0xbeca5846	-0.39520472
197	0xbd790978	-0.060800046
198	0xbc771540	-0.01508075
199	0xbe0e3606	-0.13887796

bias f4 [20]
0	0x00000000	0.0
1	0x00000000	0.0
2	0x00000000	0.0
3	0x00000000	0.0
4	0x00000000	0.0
5	0x00000000	0.0
6	0x00000000	0.0
7	0x00000000	0.0
8	0x00000000	0.0
9	0x00000000	0.0
10	0x00000000	0.0
11	0x00000000	0.0
12	0x00000000	0.0
13	0x00000000	0.0
14	0x00000000	0.0
15	0x00000000	0.0
16	0x00000000	0.0
17	0x00000000	0.0
18	0x00000000	0.0
19	0x00000000	0.0

weight f4 [20, 20]
0	0xbe89e574	-0.2693287
1	0x3e57cf18	0.21075094
2	0x3eb4f018	0.35339427
3	0xbde48b70	-0.11159408
4	0xbe0e795a	-0.1391348
5	0xbd8d39dc	-0.068958014
6	0xbe54fc30	-0.20799327
7	0xbeb560c5	-0.35425392
8	0xbe88fbb9	-0.2675455
9	0x3e8b8046	0.27246302
10	0xbc9507a0	-0.018192112
11	0x3ea7c7fa	0.32769758
12	0xbeaabc10	-0.33346605
13	0xbeb711ef	-0.3575587
14	0x3ddb5504	0.10709575
15	0xbeac93ac	-0.33706415
16	0xbe960f4a	-0.2930854
17	0xbce21880	-0.027599573
18	0x3ec62abe	0.38704485
19	0xbe77a70b	-0.24184816
20	0xbe81a89b	-0.25323948
21	0xbd3ed028	-0.046585232
22	0x3de03b24	0.1094878
23	0xbe41c75a	-0.18923703
24	0x3d362b38	0.04447481
25	0xbdfceccc	-0.12349853
26	0xbea55162	-0.32288653
27	0xbe9aed45	-0.30259147
28	0x3eb3b0b6	0.35095757
29	0xbdf168fc	-0.11787602
30	0xbcd86b80	-0.026418447
31	0xbd4a3630	-0.049368083
32	0x3cacd340	0.021096826
33	0x3ebaeaee	0.36507362
34	0x3e904d48	0.2818396
35	0xbe08faf0	-0.13376975
36	0x3d6b83d8	0.057498783
37	0xbe2f5a9d	-0.1712441
38	0xbe291217	-0.16510807
39	0x3ec37afe	0.38179773
40	0xbe76aba1	-0.24088909
41	0x3ea1b79c	0.31585395
42	0x3d0d08e8	0.03443232
43	0x3ebab1c0	0.36463737
44	0x3e500d00	0.20317459
45	0xbe13e1fd	-0.14441676
46	0x3ebee1c4	0.3728162
47	0xbd6ba3c0	-0.05752921
48	0xbe226574	-0.15859014
49	0x3e465770	0.19369292
50	0xbd956bd4	-0.07295957
51	0x3e2e42f4	0.17017728
52	0x3d1fb720	0.038993
53	0x3df3bba8	0.11901027
54	0x3ead0c56	0.33798474
55	0xbe128a78	-0.14310634
56	0xbdd71224	-0.10501507
57	0xbda092d4	-0.07840505
58	0x3eb926c0	0.36162376
59	0x3e1589c4	0.14603335
60	0x3e91ff30	0.28515005
61	0x3e850408	0.25979638
62	0x3e3d4d70	0.18486571
63	0x3c59e9a0	0.013300329
64	0x3e6ad07c	0.22931093
65	0xbdd58f40	-0.104277134
66	0xbe429a45	-0.19004162
67	0x3e963f28	0.2934506
68	0xbe6e25bc	-0.23256582
69	0x3e9fcbdc	0.3121022
70	0x3e56ea3c	0.20987791
71	0xbeb2e043	-0.34936723
72	0x3eb21c3e	0.34787172
73	0x3e814468	0.25247502
74	0x3e376e90	0.1791327
75	0xbe4d9c3b	-0.20079128
76	0x3ebc1302	0.36733252
77	0xbdcc7590	-0.09983361
78	0xbe2383f5	-0.15968306
79	0x3debe2f0	0.11517894
80	0xbec46c7b	-0.38364014
81	0xbde1d91c	-0.110277385
82	0x3ec3508c	0.3814739
83	0xbd7746f0	-0.060370386
84	0x3e8f544a	0.27993995
85	0x3ea1db2a	0.3161252
86	0x3ebdb82a	0.3705457
87	0x3e8e7d7e	0.27830118
88	0xbdbfcc1c	-0.09365103
89	0x3eb22748	0.34795594
90	0x3ceb30d0	0.028709799
91	0xbd97a1cc	-0.07403907
92	0x3e736690	0.23769593
93	0x3ec18306	0.37795275
94	0xbd3a3378	-0.04545924
95	0x3ec4387a	0.38324338
96	0xbea12800	-0.3147583
97	0x3dbab72c	0.091169685
98	0x3e8f1e7c	0.27952945
99	0xbe6d2eee	-0.23162434
100	0x3e798a64	0.24369198
101	0x3e7b8bc0	0.24565029
102	0xbe9e81cc	-0.30958402
103	0xbeae0028	-0.33984494
104	0x3ec3feb2	0.38280255
105	0xbe96deee	-0.29466957
106	0x3e34fc34	0.17674333
107	0x3dc94ba4	0.098288804
108	0xbe98385b	-0.29730496
109	0x3e4819f0	0.19541144
110	0x3e208f90	0.15679765
111	0x3ea27e5c	0.3173703
112	0x3e572980	0.21011925
113	0xbe80fd9a	-0.25193483
114	0x3e912dac	0.28355157
115	0xbe381e8c	-0.17980403
116	0xbe89f45b	-0.2694424
117	0x3d0bb570	0.03410858
118	0x3eab4e38	0.33458114
119	0xbe346808	-0.1761781
120	0xbd752a38	-0.059854716
121	0x3ca61da0	0.020277798
122	0x3d9582c4	0.07300332
123	0x3e576120	0.21033144
124	0xbe6c0009	-0.23046888
125	0xbe8a7cae	-0.27048248
126	0xbeacc2cd	-0.3374237
127	0x3ea2d9ce	0.31806797
128	0xbd39b758	-0.045340866
129	0x3ea8ebec	0.32992494
130	0x3dceb7cc	0.1009365
131	0x3d2700e8	0.04077235
132	0xbe24d168	-0.16095507
133	0xbe8200cd	-0.25391236
134	0x3ec0be2e	0.37645096
135	0x3c796a00	0.015223026
136	0x3d41a340	0.047274828
137	0xbd5db788	-0.054130107
138	0xbbf69300	-0.007524848
139	0x3ec2fa80	0.3808174
140	0x3c7384e0	0.014863223
141	0xbe3afd09	-0.18260588
142	0xbddd142c	-0.10794863
143	0x3da53bd4	0.08068052
144	0xbeae8783	-0.34087762
145	0xbdda1668	-0.10648805
146	0x3d375e98	0.044767946
147	0x3d4b8bc0	0.049693823
148	0x3e16f778	0.1474284
149	0x3e712b84	0.23551756
150	0xbd578b80	-0.052623272
151	0x3eaf6102	0.342537
152	0xbe2dbd96	-0.16966853
153	0xbe883a44	-0.26606953
154	0xbd4ce648	-0.0500243
155	0x3ad6bd00	0.0016383231
156	0x3dc5d9c8	0.09660679
157	0xbdd42dcc	-0.103602976
158	0x3e279034	0.16363603
159	0x3e352c24	0.1769262
160	0xbea40e8e	-0.32042354
161	0xbe36ec2f	-0.17863534
162	0x3e38a350	0.18031049
163	0x3e7c8b9c	0.24662632
164	0xbebec7e5	-0.37261882
165	0xbe5fda90	-0.21860719
166	0xbeb8c535	-0.36087957
167	0xbd618ba8	-0.055064827
168	0xbeb3a4ba	-0.35086614
169	0x3e9ea248	0.30983186
170	0xbdb480f4	-0.08813658
171	0xbea8343c	-0.32852352
172	0x3d284728	0.041083485
173	0xbe0b3726	-0.13595256
174	0xbcc194b0	-0.02363047
175	0x3da4576c	0.08024487
176	0x3e545be8	0.20738184
177	0xbe437455	-0.19087346
178	0xbb32dc00	-0.0027291775
179	0xbce41310	-0.027841121
180	0xbddf219c	-0.10895082
181	0x3bfeeb00	0.007779479
182	0x3d516380	0.05112028
183	0xbea3e8df	-0.32013604
184	0xbebd4f49	-0.36974552
185	0xbe9e85f2	-0.30961567
186	0xbe17f15e	-0.14838168
187	0xbd9df1c8	-0.07712132
188	0x3e91eaf8	0.2849958
189	0x3ec5bea2	0.38622004
190	0xbea74c98	-0.32675624
191	0x3e07e034	0.1326912
192	0x3c85c2a0	0.016328156
193	0xbe4dcce2	-0.20097688
194	0xbe2a788f	-0.16647552
195	0x3e7bc038	0.24585044
196	0xbe689610	-0.22713494
197	0xbbfbfc00	-0.007689953
198	0x3e80bf7a	0.25146085
199	0x3e42369c	0.18966144
200	0x3e1aeb80	0.15128899
201	0xbeaf213f	-0.34205052
202	0xbeb79ef3	-0.35863456
203	0x3e0593a0	0.13044596
204	0xbe9b7364	-0.30361474
205	0xbd86d6d8	-0.06583947
206	0xbe5d9f6e	-0.21642849
207	0xbeb949d8	-0.3618915
208	0x3e94c030	0.29052877
209	0xbe9d381b	-0.30706868
210	0xbea68ea5	-0.32530704
211	0x3e9c53ae	0.30532593
212	0xbe12f22b	-0.14350192
213	0xbe998943	-0.29987535
214	0xbdd08c60	-0.101830244
215	0xbd0a2cf0	-0.033734262
216	0xbe04fc06	-0.12986764
217	0xbe853c5b	-0.2602261
218	0xbe93d777	-0.28875324
219	0x3eb58342	0.35451704
220	0xbe8708b5	-0.2637383
221	0xbec4a8c4	-0.38410008
222	0xbe460f14	-0.1934169
223	0xbea7f4b5	-0.32803884
224	0xbd0840a8	-0.033264786
225	0xbe4e18de	-0.20126674
226	0x3e9e8312	0.30959374
227	0x3e42bf14	0.19018203
228	0x3ec39674	0.38200724
229	0xbe8148f2	-0.25250965
230	0x3e9b580a	0.30340606
231	0x3d9e8ff8	0.077423036
232	0x3e6c1f70	0.23058867
233	0x3a376600	0.0006996095
234	0x3d7bf080	0.061508656
235	0xbd4ef6e8	-0.050528437
236	0x3dd4673c	0.10371253
237	0x3e7388cc	0.23782653
238	0xbe6a4d29	-0.22880997
239	0x3eb20f1e	0.34777158
240	0x3e3faa4c	0.18717307
241	0xbe028690	-0.12746644
242	0x3e218b2c	0.15775746
243	0xbe910d36	-0.28330392
244	0x3de338e4	0.110948354
245	0xbe1f3975	-0.15549262
246	0x3af09100	0.001835376
247	0xbc035a40	-0.008017123
248	0x3d42d8f0	0.04757017
249	0xbd08a0f8	-0.033356637
250	0x3e01021c	0.12598461
251	0xbdb5a084	-0.088685066
252	0xbe32a980	-0.17447472
253	0xbcce6a60	-0.025197208
254	0x3dc879f8	0.09788889
255	0x3e409730	0.18807673

bias f4 [20]
0	0x00000000	0.0
1	0x00000000	0.0
2	0x00000000	0.0
3	0x00000000	0.0
4	0x00000000	0.0
5	0x00000000	0.0
6	0x00000000	0.0
7	0x00000000	0.0
8	0x00000000	0.0
9	0x00000000	0.0
10	0x00000000	0.0
11	0x00000000	0.0
12	0x00000000	0.0
13	0x00000000	0.0
14	0x00000000	0.0
15	0x00000000	0.0
16	0x00000000	0.0
17	0x00000000	0.0
18	0x00000000	0.0
19	0x00000000	0.0

weight f4 [20, 20]
0	0x3e9c6374	0.30544627
1	0xbcfb2160	-0.030655563
2	0xbdc4f4ac	-0.0961698
3	0x3e46a95c	0.19400543
4	0xbe99844c	-0.29983747
5	0x3ddfd834	0.10929909
6	0xbe6cd8d4	-0.23129588
7	0xbd17a8b8	-0.037026137
8	0x3d9e5324	0.077307016
9	0xbe711dc8	-0.23546517
10	0xbe449c7f	-0.19200324
11	0xbebbb43a	-0.3666094
12	0xbebca4cd	-0.36844483
13	0x3e5a4838	0.21316612
14	0x3dde9010	0.108673215
15	0x3e509498	0.20369184
16	0x3ec46566	0.3835861
17	0xbdc3d384	-0.09561828
18	0xbdff0cac	-0.12453589
19	0x3dc1714c	0.09445438
20	0xbea74c18	-0.32675242
21	0xbe975fda	-0.29565316
22	0x3e66e68c	0.22548884
23	0x3dc4a45c	0.096016616
24	0xbd11c5e0	-0.0355891
25	0xbe87453f	-0.26420018
26	0x3e2cbe38	0.16869438
27	0x3eb047d0	0.3442979
28	0x3e877a0e	0.26460308
29	0x3c7c7380	0.015408397
30	0x3e660018	0.22460973
31	0xbe1f5fc6	-0.15563878
32	0xbe4e5027	-0.20147763
33	0x3b35c300	0.0027734637
34	0x3b955140	0.004556805
35	0x3e07c788	0.13259709
36	0x3ca9aa10	0.020710975
37	0xbe43cf7b	-0.19122116
38	0xbeb63553	-0.35587558
39	0x3e9ac3f2	0.3022762
40	0x3eb0e472	0.3454929
41	0x3eac81a0	0.33692646
42	0xbcf843b0	-0.030305713
43	0x3d59d1f8	0.053178757
44	0xbd787ed0	-0.060667813
45	0x3e88c002	0.2670899
46	0xbe465c3c	-0.19371122
47	0xbeb21b52	-0.3478647
48	0xbea13115	-0.3148276
49	0x3e65e410	0.2245028
50	0xbc2a0f60	-0.010379642
51	0x3ea0f32c	0.31435525
52	0x3ce3a540	0.027788758
53	0x3ddc4e58	0.107571304
54	0xbeb3fff8	-0.35156226
55	0xbe0cce2f	-0.13750528
56	0x3ebe2b82	0.3714257
57	0x3ec5f8d2	0.38666397
58	0x3e8005b4	0.2500435
59	0xbcfb8d30	-0.030706972
60	0x3dafd824	0.085861474
61	0xbea78aa6	-0.32722968
62	0xbeaba000	-0.33520508
63	0xbea76954	-0.32697546
64	0x3dd0bb10	0.10191929
65	0x3df55c78	0.11980528
66	0x3e800026	0.25000113
67	0xbdfcf32c	-0.12351069
68	0xbd979e7c	-0.07403275
69	0x3e3fd974	0.18735296
70	0x3b9e6e00	0.0048348904
71	0x3e9ffd9a	0.3124817
72	0x3eb25bba	0.34835607
73	0xbe6ddd74	-0.23229009
74	0xbe4846d5	-0.1955827
75	0x3eac8c00	0.33700562
76	0xbd4b6990	-0.04966122
77	0xbeb11164	-0.3458358
78	0x3e156f10	0.14593148
79	0xbddf4184	-0.10901168
80	0x3e627bc8	0.22117531
81	0xbe455995	-0.19272454
82	0x3e307674	0.17232686
83	0xbc8a7db0	-0.016905636
84	0xbd6d96f0	-0.058005273
85	0xbe9ba8e9	-0.30402306
86	0x3c753b80	0.014967799
87	0xbd159160	-0.036515594
88	0xbdfa46a0	-0.12220502
89	0xbd337270	-0.043810308
90	0x3e0f8620	0.14016008
91	0xbcf484b0	-0.029848427
92	0x3e270e38	0.16314018
93	0xbda1718c	-0.078829855
94	0x3eaa6f08	0.33287835
95	0xbe761343	-0.24030785
96	0xbe4f0948	-0.20218384
97	0xbe34fbfe	-0.17674252
98	0xbe9432e6	-0.28945082
99	0xbdf20ffc	-0.11819455
100	0x3d0d60a8	0.034516007
101	0xbcb02790	-0.02150324
102	0x3ec52f4a	0.3851264
103	0xbe5e7734	-0.2172516
104	0x3da33660	0.079693556
105	0x3e9c69c8	0.30549455
106	0x3e7ccb84	0.2468701
107	0x3d7389b0	0.05945748
108	0x3e6fc76c	0.23415917
109	0x3e23e468	0.16005099
110	0x3e2067c0	0.15664577
111	0xbdcbf1d4	-0.099582344
112	0x3e1ee540	0.1551714
113	0x3d034920	0.03205216
114	0xbe783905	-0.24240501
115	0x3e8180d8	0.25293612
116	0x3e7fad6c	0.24968499
117	0xbdc9560c	-0.09830865
118	0x3e9b2c96	0.30307454
119	0x3e6d3858	0.23166025
120	0x3e86ae96	0.26305073
121	0xbdd1127c	-0.10208604
122	0x3e4db5e0	0.20088911
123	0x3e097d08	0.13426602
124	0x3ec37a60	0.38179302
125	0x3d590758	0.05298552
126	0x3e31d6c8	0.17367089
127	0xbeb24c2b	-0.34823737
128	0x3ea9ab58	0.33138537
129	0xbc4fea00	-0.012690067
130	0xbeb33044	-0.3499776
131	0xbdadce7c	-0.084866494
132	0x3d274788	0.040839702
133	0x3de41734	0.11137238
134	0xbe6bc02e	-0.2302253
135	0xbea68423	-0.32522687
136	0xbe661d09	-0.22472014
137	0xbe66540e	-0.22493002
138	0x3dc510bc	0.096223325
139	0x3cb56bf0	0.022146195
140	0x3e6a4464	0.22877651
141	0xbdba966c	-0.09110722
142	0x3ea21586	0.31657046
143	0x3d8cd988	0.06877428
144	0x3d134d98	0.03596267
145	0xbe959877	-0.29217884
146	0xbe7396aa	-0.23787943
147	0x3eb69f78	0.3566854
148	0x3e91870e	0.2842335
149	0x3cdbf490	0.026850015
150	0xbe66f44d	-0.22554131
151	0x3e864d80	0.26231003
152	0xbe50336e	-0.20332119
153	0xbe8a01a8	-0.2695439
154	0xbe277797	-0.16354214
155	0x3e9f560a	0.3112033
156	0xbdef51e0	-0.11685538
157	0xbe7bdf67	-0.2459694
158	0x3ebbbe40	0.36668587
159	0x3e1a951c	0.15095943
160	0x3e0c62ac	0.13709515
161	0x3e5e82d0	0.21729589
162	0x3ddc0360	0.10742831
163	0x3ec2129c	0.37904823
164	0x3d1c2e10	0.038129866
165	0x3dd486f4	0.10377303
166	0xbc6bd320	-0.014393598
167	0x3e5a0ec8	0.21294701
168	0xbe3c2905	-0.18375023
169	0x3e8a7f02	0.27050024
170	0x3ea6dac4	0.3258878
171	0xbea43108	-0.32068658
172	0x3e59d0d0	0.21271062
173	0xbd6a5188	-0.05720666
174	0x3d9906f8	0.07472032
175	0x3eb28360	0.34865856
176	0xbd9d99ac	-0.07695326
177	0xbdf4d17c	-0.119540185
178	0x3dce3858	0.100693405
179	0xbda7b578	-0.08188909
180	0xbcceed80	-0.025259733
181	0x3e8230d6	0.25427884
182	0xbd97e1a8	-0.074160874
183	0x3e8cb632	0.27482754
184	0xbc890c50	-0.016729504
185	0x3db969fc	0.09053418
186	0x3e947388	0.28994393
187	0x3d9b3278	0.075779855
188	0x3c966d90	0.01836279
189	0x3d9c09d4	0.07619062
190	0xbe986ad4	-0.29769003
191	0xbe5fc847	-0.21853743
192	0x3ea37d6e	0.31931633
193	0x3da11450	0.078652024
194	0x3e06d030	0.13165355
195	0xbe3b5bd3	-0.18296747
196	0xbdaa8a04	-0.08327106
197	0x3eaf069c	0.3418473
198	0x3e0ac714	0.13552505
199	0x3d110bc8	0.035411626
200	0xbd205880	-0.0391469
201	0x3da44fcc	0.080230325
202	0x3d369888	0.04457906
203	0x3dced1f4	0.10098639
204	0xbdddb2e0	-0.10825133
205	0x3eaf57f4	0.3424679
206	0xbe1d81a1	-0.15381481
207	0xbeb20758	-0.34771228
208	0xbe32219f	-0.17395638
209	0xbe8ec6fe	-0.27886194
210	0xbe9b802e	-0.3037123
211	0xbd75b988	-0.05999139
212	0x3e707fb4	0.23486215
213	0xbe46ecb3	-0.19426231
214	0x3d7a1f68	0.061065108
215	0xbe52d962	-0.20590737
216	0xbd2a6890	-0.041603625
217	0xbea96c99	-0.33090666
218	0xbeb7cb85	-0.3589746
219	0x3acbe300	0.0015555322
220	0xbeb5e6a3	-0.35527524
221	0xbe8eff42	-0.2792912
222	0x3cdab7a0	0.026698887
223	0xbd9fef40	-0.07809305
224	0xbea97bba	-0.33102208
225	0xbea99052	-0.3311792
226	0xbaf32b00	-0.0018552244
227	0x3d189b60	0.037257552
228	0xbdcc996c	-0.099902004
229	0xbeb0ffba	-0.34570104
230	0xbdde41f8	-0.10852426
231	0x3ea1ebfc	0.31625354
232	0xbea99158	-0.331187
233	0x3e8c4c1e	0.27401823
234	0xbeb6fdce	-0.35740513
235	0x3e410030	0.18847728
236	0xbe2e9ff3	-0.17053203
237	0xbe29bcaf	-0.16575883
238	0x3d70ce48	0.058790475
239	0x3e3d8b7c	0.1851024
240	0xbe3bc33c	-0.18336195
241	0xbe4002d4	-0.18751079
242	0xbdbd13a8	-0.09232265
243	0xbe82bc34	-0.25534213
244	0x3e7f3b14	0.2492488
245	0xbe7e334f	-0.2482426
246	0xbe672fe8	-0.22576869
247	0x3d5a2d20	0.05326569
248	0xbead177b	-0.33806977
249	0xbe8d1146	-0.2755224
250	0x3dbd60d4	0.09246984
251	0xbe5f29e2	-0.21793321
252	0xbe1f22b4	-0.15540582
253	0xbcaff270	-0.021477908
254	0xbd4b6510	-0.049656928
255	0xbe122812	-0.14273098

bias f4 [20]
0	0x00000000	0.0
1	0x00000000	0.0
2	0x00000000	0.0
3	0x00000000	0.0
4	0x00000000	0.0
5	0x00000000	0.0
6	0x00000000	0.0
7	0x00000000	0.0
8	0x00000000	0.0
9	0x00000000	0.0
10	0x00000000	0.0
11	0x00000000	0.0
12	0x00000000	0.0
13	0x00000000	0.0
14	0x00000000	0.0
15	0x00000000	0.0
16	0x00000000	0.0
17	0x00000000	0.0
18	0x00000000	0.0
19	0x00000000	0.0

weight f4 [20, 20]
0	0x3e7aa454	0.24476749
1	0xbd7ae880	-0.061256886
2	0x3ea110d0	0.3145814
3	0x3e8e1702	0.2775193
4	0x3e806062	0.25073534
5	0x3e806e20	0.2508402
6	0xbd0a06b0	-0.033697784
7	0x3da313f4	0.0796279
8	0x3da298b8	0.07939285
9	0xbd3ee788	-0.046607524
10	0x3da89e3c	0.08233306
11	0xbe861c12	-0.2619329
12	0x3e08fd6c	0.13377923
13	0x3e1f3fc4	0.15551668
14	0xbe155139	-0.14581765
15	0x3e934542	0.28763777
16	0x3db93060	0.0904243
17	0xbe8e71f8	-0.27821326
18	0xbe81ecfe	-0.25376123
19	0xbeb1c138	-0.34717727
20	0x3e4cc380	0.19996452
21	0xbe1d190c	-0.15341586
22	0xbd69b410	-0.057056487
23	0xbe9c8839	-0.3057268
24	0x3e10a9d4	0.14127284
25	0x3ec4860c	0.3838352
26	0x3eabd5be	0.3356151
27	0x3e3ab8e0	0.18234587
28	0xbe0bbaea	-0.13645521
29	0x3ec27cfe	0.37985986
30	0x3bd8bc40	0.006614238
31	0x3d2c43e8	0.042056948
32	0x3eb98dbc	0.36240947
33	0x3e6ca9b0	0.23111606
34	0xbeaa89c7	-0.3330824
35	0xbeb79306	-0.35854357
36	0xbd6914b0	-0.056904495
37	0x3eb2da76	0.34932297
38	0xbdae3ba0	-0.08507466
39	0x3d912d9c	0.070887774
40	0x3e137d44	0.14403254
41	0x3cc7c6c0	0.024386764
42	0x3ea5d88a	0.3239177
43	0xbd9c1a64	-0.07622221
44	0x3de1c15c	0.110232085
45	0x3ea3e6ce	0.32012028
46	0x3e7a6618	0.24453008
47	0xbe944514	-0.28958952
48	0xbe3a0113	-0.18164472
49	0x3e929c10	0.2863469
50	0x3eb64204	0.3559724
51	0xbe33ed17	-0.17570911
52	0x3e790398	0.24317777
53	0x3da96280	0.082707405
54	0x3d2f5388	0.04280427
55	0x3ea37ae0	0.31929684
56	0xbd8a3c64	-0.067498
57	0xbe2ad3de	-0.16682383
58	0xbe3a70e5	-0.18207128
59	0x3e96096e	0.2930407
60	0xbead176c	-0.33806932
61	0xbae5fa00	-0.0017545819
62	0x3e19516c	0.14972466
63	0xbad3c400	-0.0016156435
64	0x3d1989c0	0.037484884
65	0x3d1a3360	0.03764665
66	0x3eaf2a58	0.34211993
67	0xbdba4d14	-0.09096733
68	0xbe9f03f6	-0.3105771
69	0x3e00426c	0.12525338
70	0x3e2256d8	0.15853441
71	0xbe456261	-0.1927581
72	0x3ec063be	0.37576097
73	0x3e8ed676	0.27897996
74	0x3da7c70c	0.08192262
75	0xbe95cfa5	-0.29259983
76	0xbe1edf25	-0.1551481
77	0xbe26722a	-0.16254488
78	0x3d74ebe0	0.05979526
79	0x3eaf81ba	0.3427866
80	0x3e8c905a	0.27453882
81	0x3dda20f0	0.106508136
82	0x3e90cf5a	0.28283197
83	0x3e1dc850	0.15408444
84	0xbe8cc034	-0.2749039
85	0xbe9c22c3	-0.3049527
86	0xbe8ce26f	-0.27516505
87	0xbe89f711	-0.2694631
88	0x3c9f1aa0	0.019421875
89	0x3c6866a0	0.014184624
90	0xbcae79f0	-0.021298379
91	0xbd2932b0	-0.041308105
92	0x3e763fe4	0.2404781
93	0x3e5626ac	0.2091319
94	0xbc3d8540	-0.011567414
95	0xbe48c55c	-0.19606537
96	0xbd93a5b4	-0.0720934
97	0x3e0eca30	0.13944316
98	0xbe992c75	-0.2991673
99	0x3e8ab9fc	0.2709502
100	0xbe4a8caa	-0.19780222
101	0xbc2ba180	-0.010475516
102	0x3e956f0e	0.2918629
103	0xbec0640f	-0.3757634
104	0x3eb64f6a	0.35607463
105	0x3b321000	0.0027170181
106	0xbe924306	-0.2856676
107	0xbe1cad1d	-0.15300412
108	0x3cefc9a0	0.029270947
109	0x3e9e36c8	0.3090117
110	0xbe81fed8	-0.25389743
111	0xbc05eb20	-0.008173734
112	0x3eb8513a	0.3599947
113	0xbe282096	-0.1641868
114	0xbe561842	-0.20907691
115	0x3e7f4d10	0.24931741
116	0x3e549724	0.2076078
117	0xbb88c000	-0.004173279
118	0xbe89d026	-0.26916617
119	0x3ea4880c	0.32135046
120	0x3dd1233c	0.102117985
121	0x3e43b094	0.19110328
122	0x3c13e5c0	0.009026945
123	0x3eb489d0	0.35261393
124	0xbe86625d	-0.2624692
125	0xbe41d188	-0.18927586
126	0xbe5cb32b	-0.21552722
127	0x3e7d71fc	0.24750513
128	0xbbdf6540	-0.00681749
129	0xbe68ea18	-0.2274555
130	0x3eb4b9e2	0.35298067
131	0x3c28f100	0.010311365
132	0x3eb937a6	0.3617527
133	0xbea5b9fe	-0.32368463
134	0xbdc840dc	-0.09777996
135	0x3eaa7dbe	0.3329906
136	0xbc91bfa0	-0.01779157
137	0xba139000	-0.00056290627
138	0xbe7e434c	-0.24830359
139	0x3ea6ad7a	0.32554227
140	0xbdd8b924	-0.10582188
141	0x3eac50bc	0.33655345
142	0x3e6865a4	0.22695023
143	0x3ea724e8	0.32645345
144	0xbe48cc3c	-0.19609159
145	0xbd87d7c8	-0.06632954
146	0xbe3e081f	-0.18557785
147	0xbe68765d	-0.22701402
148	0x3e80e2b0	0.2517295
149	0xbec4efaf	-0.38464114
150	0xbcf8e270	-0.030381411
151	0x3e982a08	0.29719567
152	0x3e1dbb10	0.1540339
153	0x3e9cfc26	0.30661124
154	0x3e0a3370	0.13496184
155	0x3e469ed8	0.19396532
156	0xbe461b44	-0.19346339
157	0x3e19341c	0.14961284
158	0xbe534ca7	-0.2063471
159	0x3eb9ed90	0.36314058
160	0x3e24c16c	0.1608941
161	0xbe963992	-0.29340798
162	0x3e8dfc34	0.27731478
163	0xbeb1a184	-0.3469354
164	0xbddf6d54	-0.109095246
165	0x3e82fa92	0.25581795
166	0xbebad619	-0.3649147
167	0xbe884338	-0.26613784
168	0xbc9a46f0	-0.018832654
169	0x3cfd63f0	0.030931443
170	0x3e77d2e8	0.24201548
171	0xbe1e2a0f	-0.15445732
172	0x3df53460	0.1197288
173	0xbe0d84a6	-0.13820133
174	0x3e2e80d8	0.17041337
175	0x3e340b70	0.17582488
176	0x3e434694	0.19069892
177	0xbe54f977	-0.20798288
178	0xbe9671e0	-0.29383755
179	0x3ea974c2	0.33096892
180	0xbe8f03ff	-0.27932736
181	0xbdf19234	-0.11795464
182	0xbcf0bb60	-0.029386222
183	0xbddb7be8	-0.107169926
184	0x3c17e7a0	0.009271532
185	0xbeb95226	-0.36195487
186	0xbe8eed2a	-0.27915317
187	0xbd900ad8	-0.07033318
188	0x3e4398d4	0.19101268
189	0xbe49410d	-0.19653721
190	0xbda9c4c8	-0.08289486
191	0xbd5f6d88	-0.054547817
192	0x3e4c687c	0.19961733
193	0x3e7f0c2c	0.24906987
194	0x3d0ca548	0.034337312
195	0xbdef15f8	-0.11674112
196	0x3df25060	0.118317366
197	0xbe2f9446	-0.17146406
198	0x3d4aad28	0.04948154
199	0xbe9cb2ca	-0.30605155
200	0xbeb6d356	-0.35708112
201	0x3df651a0	0.120272875
202	0xbe0e5df9	-0.13903035
203	0xbe6aa68e	-0.22915098
204	0x3e4f1acc	0.20225066
205	0x3ebf4548	0.37357545
206	0x3dd46c14	0.10372177
207	0xbe8507da	-0.25982553
208	0x3e8a9852	0.27069336
209	0x3e5996d4	0.21248943
210	0x3e9018a2	0.28143793
211	0x3ebb7d5e	0.36619085
212	0x3d8933e0	0.066993475
213	0x3e2c1200	0.16803741
214	0xbe72ab93	-0.23698263
215	0xbe27ec44	-0.16398722
216	0x3e8bf9d6	0.27339047
217	0x3e6752a0	0.22590113
218	0xbea72fcc	-0.32653654
219	0xbe38102b	-0.17974918
220	0x3e341454	0.1758588
221	0xbe3849d4	-0.17996913
222	0xbe76e8a4	-0.24112183
223	0xbe08a700	-0.13344955
224	0x3ea035a2	0.3129092
225	0xbe4d88da	-0.20071736
226	0xbe35879a	-0.17727509
227	0x3e1eefa8	0.15521109
228	0x3c107560	0.008817047
229	0xbe88e79c	-0.26739204
230	0x3eb7ec62	0.35922533
231	0xbeb3de74	-0.35130656
232	0xbea4e973	-0.32209358
233	0xbe5738f7	-0.21017824
234	0x3e33f620	0.17574358
235	0xbd344978	-0.044015378
236	0x3ea4485e	0.32086462
237	0xbe3ca953	-0.18423967
238	0x3e78dcb8	0.24302948
239	0xbe90ca0c	-0.2827915
240	0xbeb2c170	-0.34913206
241	0xbcbb6fa0	-0.022880375
242	0xbe54f81c	-0.20797771
243	0xbd1630d8	-0.036667675
244	0xbe94a263	-0.2903014
245	0xbea33dfe	-0.31883234
246	0xbe95dc87	-0.29269812
247	0x3e7dd754	0.24789172
248	0x3e6e58d4	0.23276073
249	0xbebaa0f3	-0.3645092
250	0x3e8441a4	0.2583133
251	0x3dfa9940	0.12236261
252	0x3e95c010	0.29248095
253	0xbd16cdc0	-0.036817312
254	0xbe573094	-0.21014625
255	0x3df49eb8	0.11944336

bias f4 [20]
0	0x00000000	0.0
1	0x00000000	0.0
2	0x00000000	0.0
3	0x00000000	0.0
4	0x00000000	0.0
5	0x00000000	0.0
6	0x00000000	0.0
7	0x00000000	0.0
8	0x00000000	0.0
9	0x00000000	0.0
10	0x00000000	0.0
11	0x00000000	0.0
12	0x00000000	0.0
13	0x00000000	0.0
14	0x00000000	0.0
15	0x00000000	0.0
16	0x00000000	0.0
17	0x00000000	0.0
18	0x00000000	0.0
19	0x00000000	0.0

weight f4 [20, 20]
0	0xbe73252d	-0.2374465
1	0x3ec313bc	0.38100994
2	0xbec1b8b6	-0.37836236
3	0xbeaf6910	-0.34259844
4	0x3ec571b2	0.38563305
5	0xbea8b9ca	-0.32954246
6	0xbe6e428d	-0.23267575
7	0x3dc62c5c	0.0967643
8	0x3e3cff68	0.18456805
9	0xbd9433f0	-0.07236469
10	0xbe6fb494	-0.23408729
11	0xbb0c5a80	-0.0021416247
12	0xbc3a94c0	-0.011388004
13	0xbe29efe1	-0.16595413
14	0xbebd1f26	-0.36937827
15	0x3e2a3728	0.16622603
16	0xbd9d0bec	-0.076682895
17	0x3d9c4cbc	0.076318234
18	0xbec58072	-0.38574558
19	0xbc4a0a20	-0.012331516
20	0x3e9085b8	0.2822702
21	0xbebc34b5	-0.36758962
22	0x3cc90bd0	0.024541765
23	0x3e9a7068	0.30163884
24	0xbe1c54cc	-0.15266722
25	0x3ec3dd40	0.38254738
26	0x3dc04f00	0.09390068
27	0x3eaf304e	0.3421654
28	0xbe1e457c	-0.15456194
29	0xbe4e3325	-0.20136698
30	0xbe772a05	-0.24137123
31	0x3e8387ba	0.2568949
32	0xbdce481c	-0.100723475
33	0x3e3f325c	0.18671554
34	0xbe3e259b	-0.18569033
35	0x3e4f032c	0.20216054
36	0x3df2a7b0	0.1184839
37	0x3eb039fa	0.34419233
38	0xbe786608	-0.24257672
39	0xbb8e68c0	-0.0043459833
40	0xbebb6933	-0.36603698
41	0xbdca1fe0	-0.09869361
42	0xbec0e23d	-0.37672606
43	0xbc926900	-0.017872334
44	0x3e07a274	0.13245565
45	0xbd9b735c	-0.075903624
46	0x3ebd51fe	0.36976618
47	0xbe8e2cfe	-0.277687
48	0xbe1b0970	-0.15140319
49	0x3e89bcb6	0.26901788
50	0xbe0c0464	-0.1367355
51	0xbe902830	-0.2815566
52	0xbd205628	-0.039144665
53	0xbec02986	-0.3753168
54	0x3df9d780	0.121993065
55	0xbeaabe35	-0.3334824
56	0xbe5ffd0f	-0.21873878
57	0xbd615088	-0.05500844
58	0xbe7416ae	-0.23836777
59	0x3afa1100	0.0019078553
60	0xbd8fa130	-0.07013166
61	0x3eab8a94	0.33504164
62	0xbe8a10f0	-0.26966047
63	0xbebe4ccd	-0.3716797
64	0xbe44da1c	-0.19223827
65	0x3eae19de	0.3400411
66	0x3d61fcf8	0.05517289
67	0x3e6e4a80	0.23270607
68	0xbe73c467	-0.2380539
69	0x3e627824	0.22116143
70	0xbea44383	-0.32082757
71	0x3da47dfc	0.08031842
72	0x3ddd6d9c	0.10811922
73	0xbe3f4722	-0.18679479
74	0x3e4a2c70	0.19743514
75	0xbe7f02af	-0.24903367
76	0x3e8ef692	0.27922493
77	0xbd90ef60	-0.07076907
78	0xbe8f203f	-0.2795429
79	0x3ec4c322	0.38430125
80	0x3e811abc	0.2521571
81	0xbe3540c3	-0.17700486
82	0x3eab0f18	0.33409953
83	0xbe89dadc	-0.2692479
84	0x3d9e0408	0.07715613
85	0xbe48f743	-0.19625573
86	0xbeb8b4ea	-0.36075526
87	0xbdef79b8	-0.11693138
88	0x3e542134	0.20715791
89	0x3dd75268	0.105137646
90	0xbe104399	-0.14088286
91	0xbda12af8	-0.07869524
92	0xbe2e2ac1	-0.17008497
93	0xbe349221	-0.17633869
94	0xbebcad01	-0.36850742
95	0xbebbd436	-0.36685342
96	0xbeb102e3	-0.34572515
97	0xbe3ce049	-0.18444933
98	0x3e13ac20	0.14421129
99	0x3e7a70c8	0.24457085
100	0x3e2a097c	0.1660518
101	0x3e1fe930	0.15616298
102	0xbc5d1e80	-0.013496041
103	0x3d3c3008	0.045944244
104	0x3d16ba10	0.036798537
105	0x3ea97eae	0.3310446
106	0x3cbd90c0	0.023140311
107	0x3ddd3bcc	0.10802421
108	0xbeb5a9b5	-0.3548104
109	0x3e0f5208	0.13996136
110	0xbe893bfa	-0.2680357
111	0xbeae83e3	-0.34084997
112	0x3d97d784	0.07414153
113	0x3ec5221e	0.38502592
114	0xbcf79990	-0.030224591
115	0x3d27e068	0.040985495
116	0xbd324e38	-0.043531626
117	0xbcd484b0	-0.025942177
118	0x3e91bd72	0.28464848
119	0xbe5e5715	-0.21712907
120	0x3e6f3464	0.23359829
121	0xbea4c68c	-0.3218273
122	0x3df4b2e8	0.11948186
123	0xbe9277e2	-0.28607088
124	0xbd812b68	-0.06307107
125	0x3e6de898	0.23233259
126	0x3c2c1860	0.010503858
127	0x3e08df70	0.13366485
128	0xbe750377	-0.23927103
129	0x3db9fec0	0.09081793
130	0xbe124426	-0.14283809
131	0x3ead0496	0.3379256
132	0xbb862b40	-0.0040945113
133	0x3e3c78c8	0.1840545
134	0x3e7a65fc	0.24452966
135	0x3e5a6ae8	0.21329844
136	0xbb52b180	-0.0032149255
137	0x3e2f9dac	0.17149991
138	0x3e7cb118	0.24676931
139	0xbea3f104	-0.32019818
140	0xbe60530d	-0.21906681
141	0xbe32a2ee	-0.17444965
142	0xbd115398	-0.03548011
143	0x3ec4d940	0.38447
144	0xbe72c469	-0.23707737
145	0xbe1e1d1b	-0.1544079
146	0x3d7e85e8	0.06213942
147	0xbc86f440	-0.01647389
148	0xbdebfd44	-0.11522916
149	0x3d39bd70	0.045346677
150	0xbea61f69	-0.3244584
151	0xbe7c512c	-0.2464034
152	0xbd5d43b0	-0.05401963
153	0x3e9fbb90	0.31197786
154	0x3e4b2054	0.19836551
155	0x3dd5ac14	0.10433212
156	0x3d18f1d8	0.037340015
157	0xbe558405	-0.20851143
158	0xbd261520	-0.04054749
159	0x3e9dd7f6	0.30828828
160	0xbea97528	-0.33097196
161	0x3d99c828	0.0750888
162	0xbeb25183	-0.34827814
163	0x3d57ce10	0.05268675
164	0xbebfea6f	-0.37483546
165	0xbe6e661c	-0.23281139
166	0xbeb0e60f	-0.3455052
167	0xbe373e25	-0.178948
168	0x3e9ff620	0.31242466
169	0xbbd0b880	-0.0063696504
170	0x3de58614	0.11207214
171	0xbeb7e681	-0.35918048
172	0x3e4bc614	0.1989978
173	0x3e6d50d0	0.23175359
174	0xbe8e7ead	-0.2783102
175	0xbe2c2cc7	-0.16813956
176	0xbec1f26d	-0.3788027
177	0xbe49046e	-0.19630596
178	0x3e94e4ca	0.29080802
179	0x3e1079a0	0.14108896
180	0xbdc2aa7c	-0.095051736
181	0x3de55f00	0.111997604
182	0xbce938c0	-0.028469443
183	0x3ea089e4	0.31355202
184	0xbdaba39c	-0.083808154
185	0xbe3f1602	-0.18660739
186	0x3daef414	0.08542648
187	0xbe5967d0	-0.21231008
188	0x3d7eaae8	0.062174708
189	0xbdb66134	-0.08905259
190	0x3d223ab0	0.03960675
191	0xbd96cf84	-0.07363799
192	0x3c05eb20	0.008173734
193	0x3e78181c	0.24227947
194	0x3e94e42c	0.2908033
195	0xbde1318c	-0.109957784
196	0xbe43390d	-0.19064732
197	0x3e69ccf0	0.22832084
198	0x3e5e9eec	0.21740311
199	0x3eac0c50	0.33603144
200	0xbdb2924c	-0.0871931
201	0xbeac5904	-0.33661664
202	0x3e803c94	0.25046217
203	0xbe9654bb	-0.2936152
204	0xbe6ce3c8	-0.23133767
205	0xbd803c5c	-0.06261513
206	0xbeba587e	-0.3639564
207	0x3e66ff78	0.22558391
208	0xbe812fc4	-0.25231755
209	0xbec3aa04	-0.3821565
210	0x3eb3c37c	0.3511008
211	0x3db95314	0.09049049
212	0xbe7247f7	-0.23660265
213	0x3e82c42a	0.25540286
214	0xbd0fc698	-0.035101503
215	0x3e4cec04	0.20011908
216	0x3d288348	0.041140825
217	0x3dcedb1c	0.101003855
218	0xbe8ab91c	-0.27094352
219	0x3d3c0aa0	0.04590857
220	0x3e291150	0.1651051
221	0x3e9b88a2	0.3037768
222	0x3e6c66b0	0.23086047
223	0xbdf70068	-0.12060624
224	0x3e6a556c	0.22884148
225	0x3e71cf48	0.23614228
226	0x3e456f44	0.19280726
227	0x3d9ab940	0.07554865
228	0x3e22fae0	0.15916014
229	0x3eb70baa	0.35751086
230	0xbeb0376c	-0.34417284
231	0xbc294820	-0.010332137
232	0x3e472438	0.1944741
233	0x3e42ba50	0.19016385
234	0x3d9fb6cc	0.077985376
235	0xbe42f0e8	-0.19037211
236	0xbe910f74	-0.28332102
237	0x3e8f3a42	0.27974135
238	0xbeab833d	-0.33498564
239	0x3e118874	0.14212209
240	0xbebe14d6	-0.37125272
241	0xbec18c2e	-0.3780226
242	0xbe70695a	-0.23477688
243	0xb945e800	-0.00018873811
244	0x3e59eee8	0.21282542
245	0x3eaf7396	0.34267873
246	0xbda54d0c	-0.08071336
247	0x3da4ccc4	0.080468684
248	0xbd7575b8	-0.05992672
249	0x3e371b58	0.17881525
250	0xbeb50d07	-0.35361502
251	0x3eb83512	0.3597799
252	0x3e76aad4	0.24088603
253	0x3ec1713c	0.37781703
254	0x3e4a770c	0.19771975
255	0xbe5c8378	-0.21534526
