data_converter/MUTAG_Trained_Model.pt (torch, 63551 bytes, 34 tensors)

weight f4 [10, 30]
00000000: 3c34 f0bd b6f2 8e3e d68e bc3e 26c5 94be
00000010: ba55 bfbe 34b8 9c3e 2011 b0bd 9802 9e3d
00000020: 85c3 c5be ae51 62be 2c19 833e 48ab 8fbd
00000030: 342e a13d 8041 f5bc c241 96be fe60 ae3e
00000040: 6a54 9abe 3c4b b33d 3039 653e 2060 4f3e
00000050: 807b a43e e099 723e 5dd6 56be 9ea6 0cbe
00000060: 186e 16bd 7812 ba3e f001 273e e438 073e
00000070: 0014 9bbc 32d5 35be 201d 97bd a0a9 623c
00000080: 30da 403e 2009 86be 90fe f53d c8af 463e
00000090: 0008 7bba f408 dfbd 63b5 b5be 9cd4 ba3e
000000a0: e424 9f3e 78cd 6bbd 23c0 13be a15f 6dbe
000000b0: 7ba2 60be e077 f9bd 8803 7ebd 5c51 823e
000000c0: 8c6e 973e 905c 143e c414 453e 0008 28b9
000000d0: 2020 883e ec23 013e 2b17 a3be 90eb 27be
000000e0: d8f7 943e 2382 84be fc96 523e 00b8 543e
000000f0: de78 b63e 3c94 95be 20a7 e23d d0e4 f13c
00000100: 50d3 e9bc 800f e7bc bc62 9ebe d0df 253d
00000110: f137 5bbe c0c2 283d e293 5abe 203b 6d3e
00000120: 0891 87be e0b7 213e 1cad 7a3e ec83 0a3e
00000130: d8d0 e73d ac98 ccbd caea 8d3e caf7 82be
00000140: a06a 07bd fc64 6bbe 2814 3d3e 0a6b bcbe
00000150: 6c76 9fbe f0ea f23d 3c85 85bd 0ccc 9abd
00000160: dc72 88be 7016 a0bd 6057 11be 98d4 263e
00000170: 87bb 36be f2ae 09be 8098 243e 147f fcbd
00000180: 30ac 35be d893 2e3e 0055 733b 7ae9 943e
00000190: a014 a0bc acb7 8abe c0a3 613e 8bf6 47be
000001a0: 163b 63be 1084 173d 4cf8 ba3e f5ff 41be
000001b0: c4ac 713e e883 c33e 9080 833e 8091 b63d
000001c0: a05e e1bd 88bc 9d3d 02a4 c5be a07d 673c
000001d0: e850 663e 3410 863e 9824 b93e 70b7 dfbc
000001e0: 5a66 bc3e c07d 34bd 4c92 3dbe 5767 39be
000001f0: 08d5 99bd 24e6 873e 28f5 a0bd 2804 73bd
00000200: e064 4e3e d4fc 2a3e b0be a03d 68e5 25be
00000210: 2740 bfbe 0ee7 89be 98c8 06be 7a35 9c3e
00000220: 10ae 2d3e 65d4 a5be eac7 c33e 406b 82bd
00000230: 0462 c03d 087e 9fbd 4054 aabd 0049 64bd
00000240: 10c1 d0bc fcd0 963e 1c6f c03d e347 65be
00000250: 48ef 7a3e 00d6 333d ee19 c13e 44d9 a9bd
00000260: d017 d23c 2ae7 89be 4021 223c 4081 183e
00000270: 66ea c53e 5432 f4bd 90a4 68be 9890 8b3e
00000280: 0040 f1bd 1b52 c5be 8374 12be 1946 8fbe
00000290: 104f c23c 56a1 b1be dc43 febd 0eac 96be
000002a0: 2887 d43d 9007 98be 40cb fe3d 608c f73d
000002b0: 93ab 83be a0de d23c bcd9 333e 597c a0be
000002c0: 7158 59be c4bc 073e e407 bfbe f0ec 86bd
000002d0: 28aa 4d3e 2c13 b73d e195 8abe b09f d03d
000002e0: 9686 8cbe fdf3 b0be d027 a93c c070 8d3e
000002f0: 5ce1 ba3d e0f6 64bc 8474 0f3e 4032 233e
00000300: 3fb5 babe a492 63be 99a7 abbe 34bb e9bd
00000310: c0d9 063e 3079 6c3e 20bb 8cbd 6c3a b33e
00000320: 9074 be3e a646 03be 1adf c5be 5c2d b13e
00000330: 349e e53d 0c47 623e 7402 adbe ec20 293e
00000340: c17e a9be 7890 793e 9c42 9c3e 3085 123e
00000350: c0ab e9bd 1585 0fbe c72c 1dbe a6a9 c43e
00000360: c033 d6bb 6db3 40be d335 78be 08f4 093e
00000370: f899 993e 0833 5cbd 3875 0dbe 9801 e4bd
00000380: 7479 69be 348b a93e 796c 9ebe 8c74 dabd
00000390: 12c2 b23e b0b4 183d 32b7 b13e f094 8b3e
000003a0: 6703 6cbe 10b5 693e 6465 c0bd 004a efba
000003b0: 8a5b afbe 42b4 8cbe 1896 abbe 2c40 b6be
000003c0: 5c0d 233e c83a 2cbe 7402 673e 0cae a4be
000003d0: 98ae 6ebd 309d 8a3e 84a1 b7bd c88b 7e3e
000003e0: 9601 8a3e 940c 99be 5f15 0fbe 5d35 55be
000003f0: 70e4 ae3d 6c3c 6dbe 888e d63d 1a34 8cbe
-0.11728713 0.2791955 0.36827725 -0.29056662 -0.37370092 0.30609286 -0.08597016 0.077153385
-0.38625732 -0.22101471 0.25605142 -0.07015091 0.07870141 -0.02993846 -0.29347044 0.34058374
-0.30142528 0.08754584 0.22385097 0.20251513 0.32125473 0.23691511 -0.2098021 -0.13735434
-0.036726087 0.36342216 0.16309333 0.13205296 -0.018930435 -0.17757109 -0.07378602 0.013834387
0.18833232 -0.26178837 0.120114446 0.19402993 -0.0009576082 -0.108903795 -0.3548995 0.36490333
0.31082833 -0.057568997 -0.14428763 -0.23181011 -0.21936981 -0.121810675 -0.062015086 0.25452697
0.29576528 0.14488435 0.19246203 -0.00016024709 0.2658701 0.1261136 -0.31853613 -0.16398454
0.2909534 -0.25880536 0.20565408 0.20773315 0.3563909 -0.29214656 0.11067033 0.029528052
-0.028543144 -0.028205633 -0.30934703 0.040496647 -0.21408059 0.041201353 -0.21345475 0.23167086
-0.26477838 0.15792799 0.24480098 0.13526887 0.11319131 -0.09990057 0.27718192 -0.25579673
-0.03306067 -0.22987741 0.1846472 -0.36800414 -0.31145036 0.11861217 -0.06519553 -0.0755845
-0.2665013 -0.078167796 -0.14193487 0.16292036 -0.17844974 -0.13445643 0.16073799 -0.12328926
-0.17741466 0.17048585 0.0037129521 0.29084378 -0.019541085 -0.27093256 0.22035122 -0.19527642
-0.22190508 0.03699118 0.3651756 -0.18945296 0.23601061 0.38186574 0.25684023 0.08914471
-0.110043764 0.07701975 -0.3860169 0.014129072 0.22491801 0.26184237 0.3616073 -0.02730915
0.36796838 -0.044065237 -0.18512839 -0.18105827 -0.075113356 0.2654277 -0.0785926 -0.059330136
0.20155668 0.16698009 0.07848871 -0.16200793 -0.37353632 -0.26934093 -0.13162458 0.3050955
0.16960931 -0.32388607 0.3823846 -0.063681126 0.09393695 -0.077877104 -0.08316851 -0.05573368
-0.025482684 0.29456317 0.093961924 -0.22390704 0.24505341 0.04390526 0.37715095 -0.08293393
0.02564612 -0.26934177 0.009895623 0.14893055 0.38655394 -0.11923662 -0.22719026 0.27258754
-0.11779785 -0.38539204 -0.14302258 -0.27983168 0.02371934 -0.34693402 -0.12415287 -0.29428142
0.103773415 -0.2969327 0.124411106 0.12087321 -0.25716838 0.025740921 0.17563528 -0.3134487
-0.21225144 0.13255602 -0.37310708 -0.06588161 0.2008444 0.089392036 -0.27067474 0.10186708
-0.2744643 -0.34561148 0.020648867 0.27625084 0.09125015 -0.013974875 0.14009291 0.15937138
-0.36466405 -0.22223908 -0.33526304 -0.11412659 0.13169003 0.23093104 -0.06871629 0.3500551
0.37198305 -0.12819919 -0.38646775 0.3460492 0.112118155 0.22097415 -0.33790934 0.16516465
-0.33104518 0.24371517 0.3051957 0.1430862 -0.11409712 -0.1401561 -0.15349112 0.3841068
-0.006536931 -0.18818446 -0.24239282 0.13471997 0.3000028 -0.053759605 -0.13814247 -0.111331165
-0.22800237 0.33114016 -0.30942133 -0.10666761 0.3491369 0.037281692 0.3471008 0.27262068
-0.23048173 0.22822976 -0.09394339 -0.0018256307 -0.34249526 -0.27481276 -0.3351295 -0.35595834
0.15923065 -0.16819298 0.2255953 -0.32164037 -0.058271974 0.2707305 -0.089663535 0.2485801
0.26954335 -0.2989241 -0.13972996 -0.20821138 0.08539665 -0.2316758 0.104764044 -0.273835

bias f4 [30]
00000000: 4696 ecbe 471c 0ec0 3085 fbbe d93f ffbf
00000010: 6f9c e23f d322 923f ce43 8b3d 38c2 ffbf
00000020: 5806 02c0 c229 fcbf 1feb ba3e d6c4 093d
00000030: abe5 dcbf 2ff9 01c0 f131 e9bf cab3 8340
00000040: 2e51 ddbe 6dc9 37c0 8dae e2bf 4a3a 2340
00000050: 50d6 e9bf befc e2bf 3a96 973e 6db9 03c0
00000060: 95c8 58be 3f1d 54be 11b4 31bf a90e fcbf
00000070: ff3b 2dc0 2d5a 5e3f
-0.462084 -2.220476 -0.49125051 -1.994136 1.770399 1.1416878 0.06800042 -1.9981146
-2.0316372 -1.9700243 0.36507508 0.033634983 -1.7257589 -2.030834 -1.8218366 4.115697
-0.43225998 -2.871669 -1.7709519 2.5504327 -1.8268528 -1.7733381 0.296068 -2.0581925
-0.21170266 -0.20714281 -0.69415385 -1.9691974 -2.7067869 0.8685635

weight f4 [10, 30]
00000000: aec0 63be 1b4c b1be d43c 843d f4e4 9f3e
00000010: 380c f93d f48d 093e bc39 893e 4c6c 9b3d
00000020: f082 a9bd 19c0 a5be f0b7 af3e ac28 383e
00000030: e6a6 5abe 841d 9abe ed00 68be 2ca8 b2be
00000040: a484 3e3e 843e bc3d 9f48 b3be dc8f 193e
00000050: 54be 223e 486b 8c3e 461d 803e 34b2 fbbd
00000060: 328c 94be 5284 ba3e 9b0a 98be 8cd4 2ebe
00000070: 5e76 823e 5a01 9abe a599 34be 5c7f 2fbe
00000080: 8472 2c3e c0d9 e0bb 4fe0 bdbe 6920 8abe
00000090: aa1d 2fbe d475 563e 470c 36be c4d4 b53d
000000a0: c8ae 823e d0c4 dc3c 7892 35bd f263 8f3e
000000b0: 11f2 6abe 180a 103d edd0 8cbe e004 783c
000000c0: a80f c63e 0fc2 abbe 54c4 d7bd b5ae 2abe
000000d0: a62f aebe e048 05be 1cd5 133e ac4b e7bd
000000e0: d4f2 8bbe 580a c63e bc75 c93d bfbb a5be
000000f0: ac42 973e c84f 99bd 6895 c33e 3d78 5fbe
00000100: e07b 503e c1ba 99be dcdc 953e d0b1 a93e
00000110: a096 c3be 9aeb a3be e634 80be 6c40 473e
00000120: e0e1 993c 6c69 ba3d 20a1 b5bd d02d 943e
00000130: b49f 8d3e 8048 373e cb7f aabe c0e9 9c3e
00000140: 71ed 85be 40a2 b7be 8e78 a2be f0ff 233e
00000150: 9093 3abd 79d4 afbe 28c8 a4bd 6c71 903e
00000160: 6290 08be 8093 2d3d 4073 243e 42a1 913e
00000170: 3864 923e 247a 20be f70c 67be 2a7d af3e
00000180: 488d 5e3e c63f b83e a0ff d83d a8ed 8c3d
00000190: 18dc fd3d f988 1fbe 20c8 903e e460 203e
000001a0: febf 893e 902b a63c b814 3c3e 80ee 1a3c
000001b0: 1b98 1dbe 0038 963b 409e 4d3e 0659 79be
000001c0: 1920 97be c4fc a33d f46b a63e 48c4 0a3e
000001d0: b995 8fbe 0fdc 93be 8059 853d 421b 963e
000001e0: cc71 da3d 10a7 8bbe f831 253e 7c4b a33d
000001f0: 98c9 803d bc2d b43d a697 8a3e d68e 8bbe
00000200: 7223 c43e 5d9f c4be d87f 8dbe 408d 84bb
00000210: 8a0c c5be 74f2 85bd 32f6 9b3e 1a77 a7be
00000220: 2974 20be 9f00 92be a156 a4be 7cc1 67be
00000230: bad0 b5be 103d c03c 6dfe c4be 518d 4fbe
00000240: 38be 003e 7e3c b1be b45c bd3e 18aa 333d
00000250: c81f 083e a8cd fb3d 1aa3 a13e 10cd a23c
00000260: 36e2 b2be b0c6 b63c 40fc ed3d 12bf 823e
00000270: 186c 913e 588e 823e a093 a43d 80a8 16be
00000280: 20ad a83d 780d f83d 604d 173c e02d 673c
00000290: 288f 683e 845b 653e 6e8a 9a3e c8bc 7e3e
000002a0: 2045 72bc 3615 923e c07e b7bc 8d1a b3be
000002b0: 34ac 133e 7cca c43d 7cd9 b13e 1003 f43c
000002c0: 7070 203e a814 1f3d 5637 a53e 831c 51be
000002d0: 888c 7cbd 6091 f1bc 6edc 93be 946b 9b3d
000002e0: 783e 093e ceca 96be e8c1 413e 4643 9ebe
000002f0: 72ea a3be bd7c 19be 40b1 763d a8c9 663e
00000300: 0a3f 9abe 0ade 823e 8e9e c13e 649f e03d
00000310: 0821 0c3e e491 c03e 98fc 243d 523f 6bbe
00000320: 28c6 093d 7403 c63d 0c5b c03d ccee b93e
00000330: 72e7 21be 3c9f a8be 186d 15be 48c6 f5bd
00000340: 4549 35be 7a4f 9dbe 96c7 bbbe fa0a a0be
00000350: ee74 bdbe 88ed 88bd 9039 bf3c ac92 473e
00000360: d19e 6cbe a040 713e 2aff a83e 28e4 67bd
00000370: c050 9bbd a07f 14bc 8889 913e 32de 8e3e
00000380: 302f 4cbd 7bc7 bdbe c084 6abe c06e 96be
00000390: e8e8 273e db95 3abe c71a 79be 4086 98bd
000003a0: f49d 81be 7a9c bf3e 7007 9bbd d743 b6be
000003b0: 80f2 bd3d e43d c5be ec01 91be 041d 843d
000003c0: 95e6 70be 5460 373e 65b6 5bbe 7439 a73e
000003d0: 802d 2a3b 83fe 62be 928e 8a3e 00f7 cebd
000003e0: ee4d ba3e b04a 8f3e a4f2 febd 64a8 bc3e
000003f0: 8494 463e aab7 32be 02e9 c33e 2853 793d
-0.2224147 -0.34628376 0.064569145 0.31229365 0.12160534 0.13433057 0.2680186 0.07589015
-0.082769275 -0.3237312 0.3432002 0.17984265 -0.21352729 -0.30100644 -0.22656603 -0.3489393
0.18605286 0.091916114 -0.35016343 0.14996284 0.15892917 0.274256 0.25022334 -0.12289849
-0.2901321 0.36429077 -0.2969559 -0.17073268 0.25480932 -0.30079156 -0.17636736 -0.17138427
0.16840559 -0.0068618953 -0.37085196 -0.26977852 -0.1710116 0.20943385 -0.17778121 0.088784724
0.25523973 0.026949316 -0.044329137 0.2800594 -0.22943904 0.035165876 -0.27503148 0.015137881
0.3868382 -0.33546492 -0.105354935 -0.16668208 -0.34020728 -0.13016081 0.14436764 -0.1129373
-0.273337 0.38679767 0.09836909 -0.323698 0.29543054 -0.0748592 0.38199925 -0.21823211
0.20359755 -0.30025294 0.29270065 0.33143473 -0.38200855 -0.32015687 -0.25040358 0.19458169
0.018784463 0.09102139 -0.08868623 0.28941202 0.27660906 0.1789875 -0.33300623 0.30647087
-0.26157716 -0.35865974 -0.317326 0.16015601 -0.045550883 -0.3434179 -0.08045989 0.28211534
-0.13336328 0.042376995 0.1605959 0.28443342 0.28592086 -0.15671593 -0.2256354 0.3427518
0.21733582 0.35986155 0.105956316 0.06881267 0.12395495 -0.15579595 0.28277683 0.15661961
0.2690429 0.020284444 0.18367279 0.009456277 -0.15390055 0.0045843124 0.20079899 -0.24350366
-0.29516676 0.080071956 0.32504237 0.13551438 -0.28043917 -0.2887883 0.065112114 0.2931767
0.10666236 -0.27275896 0.16132343 0.07973382 0.06288451 0.08797786 0.27068824 -0.27257413
0.38308293 -0.38402835 -0.276366 -0.0040451586 -0.3848613 -0.06540385 0.3046127 -0.32708055
-0.15669312 -0.285161 -0.32097343 -0.22632402 -0.35510808 0.023466617 -0.3847536 -0.20268752
0.12572563 -0.34616464 0.3698479 0.043863386 0.13293374 0.12295085 0.3156975 0.019873172
-0.3493821 0.022311538 0.116203785 0.255364 0.2840278 0.25499225 0.0803597 -0.14712715
0.08236146 0.12111944 0.009234756 0.014110059 0.2271086 0.22398192 0.30183738 0.24876702
-0.0147869885 0.28531808 -0.022399306 -0.34981194 0.14421159 0.09608933 0.3473624 0.029786617
0.15667892 0.03883806 0.3226878 -0.20421033 -0.06165746 -0.029488266 -0.28879112 0.07588878
0.13402736 -0.29451603 0.18921626 -0.309107 -0.32014805 -0.1498899 0.060227633 0.22537863
-0.3012622 0.25560027 0.3781628 0.10967901 0.13684475 0.37611306 0.040279955 -0.22973374
0.033636242 0.096686274 0.09392366 0.36315 -0.15810946 -0.32933986 -0.14592397 -0.1200071
-0.17703731 -0.30724698 -0.3667571 -0.31258374 -0.37003273 -0.066859305 0.023342878 0.19489545
-0.23107459 0.23559809 0.33007175 -0.05661407 -0.07583761 -0.009063631 0.2842524 0.27903897
-0.04984969 -0.37066254 -0.22902203 -0.2938137 0.1639744 -0.18221228 -0.24326621 -0.07447481
-0.2531582 0.3742407 -0.07569778 -0.35598633 0.09274769 -0.3852378 -0.2832178 0.06450847
-0.2352546 0.1790784 -0.21456297 0.3266102 0.0025967062 -0.22167401 0.27061898 -0.10105705
0.3638758 0.2798667 -0.12448624 0.36847222 0.19392592 -0.17452875 0.38263708 0.06087032

bias f4 [30]
00000000: 64bb ddbf 4bf5 68c0 a596 f7bf 5ef0 54c0
00000010: 2d39 63bf fb0a d0bf 2a14 59bf cb12 6dc0
00000020: b9d2 62c0 4077 6bc0 0d83 a5bf e16b bfbf
00000030: d5ea b4bf 0a05 5bc0 e34f 75c0 522c 2d3e
00000040: 23e0 ecbf 5e3b 86be fc18 7ec0 918f 8abf
00000050: 55f3 72c0 f8ca 6dc0 501b d2bf 04d0 5dc0
00000060: 02b4 edbf ab27 04c0 005a 36c0 7d43 6cc0
00000070: a983 f4be 3a69 d7bf
-1.7322812 -3.6399715 -1.9342848 -3.3271708 -0.8875912 -1.6253351 -0.8479639 -3.704272
-3.5441115 -3.6791534 -1.2930619 -1.4954797 -1.4134165 -3.4221826 -3.833001 0.16911438
-1.8505901 -0.2621717 -3.970275 -1.0825063 -3.7961018 -3.7155132 -1.6414585 -3.4658213
-1.8570559 -2.0649211 -2.8492432 -3.6916192 -0.477567 -1.6828988

weight f4 [10, 30]
00000000: 3082 683e de60 ae3e e0e5 e3bd 8a40 c13e
00000010: 9428 863d c8ec 3a3e aa59 70be 6829 313d
00000020: 323e 833e 0c12 c5bd 5397 38be 40b4 1bbd
00000030: 507e 0c3d d52f 4cbe f527 79be 2a08 9ebe
00000040: f8dc 923d 4cba a83e 1088 6fbd c039 7dbd
00000050: b256 8a3e 68b6 c1bd cb7a aebe 7180 a8be
00000060: 847e a13e 83de a5be c805 813e faf0 06be
00000070: 18d8 babd 4cf2 b23d 602e 8a3c ca96 c53e
00000080: 648b 04be 2078 6f3e 707f fbbc 866a a33e
00000090: 2c25 d4bd 206c 3abc b084 4f3d 6846 c93d
000000a0: 0b48 aabe d066 2f3e e41c 83be 6038 7fbd
000000b0: 0287 0abe b0d4 463d fa49 6dbe c0d7 4b3e
000000c0: 6fc7 10be 1c3b 963d 76a8 833e 1094 9d3e
000000d0: 38f7 b0be 7bce 6cbe 2475 ba3d 8424 c0bd
000000e0: 60b7 3ebc 8836 7cbe 7093 febc b0f8 383e
000000f0: e9ba 5ebe 5af9 a6be ff17 adbe b41f 293e
00000100: f0bd debd e7f7 54be 29e5 bdbe 0821 acbe
00000110: 8cb6 863e 96f1 b63e 5803 153e bc7e 113e
00000120: dc3d 8c3d e0c1 46be 6cf4 fbbd 8002 a43d
00000130: 3377 1abe 6c72 2fbe 2806 e93d dc73 1bbe
00000140: 4609 a7be 9b52 9dbe a061 ec3c 1818 a83e
00000150: 4039 ef3d 1caa ffbd 8a97 953e 2872 423e
00000160: d071 553e f882 363e ab45 aabe a8fb 8d3e
00000170: d44a b3bd f038 fd3c 809e 633d b0a0 803c
00000180: e821 023d 2b23 c6be a8b7 fe3d a7cc 92be
00000190: ce20 b13e 989c 35bd 4029 533e 86fa 5ebe
000001a0: 005b b33e 9a6c ac3e a45b 03be 000f 8a3e
000001b0: 84fa 753e dadb b1be 8f8c 76be c42a 9a3e
000001c0: 2f8c 8abe 92c7 973e 173c c6be 10e8 423e
000001d0: 02b4 a83e 64c9 bdbe 74ae 96be bc22 ae3d
000001e0: 372c 67be 10c5 6a3d b8c6 9bbe 50b2 b8be
000001f0: 56f9 9e3e 7880 333e f02f 543d 0cf0 91be
00000200: dc9f b03e 01d5 8cbe 0099 bb3a 8cfd a03d
00000210: b672 7dbe 0788 4fbe 5951 c0be c0c0 9fbc
00000220: 20a0 f63d d85f a63e 298f aebe a0ba 94be
00000230: a506 a8be a982 b3be 6815 113e b82a 833e
00000240: a980 91be 2889 f73d f3a8 a9be 30ef 103e
00000250: 3ecb 57be 2ab9 bf3e 3849 0cbe 6852 15bd
00000260: d32d 99be d411 07be 4ad4 abbe 74b0 e43d
00000270: 052f bfbe 1810 a3be 4804 87be f44b c2bd
00000280: cc85 f0bd 9416 95bd c8ec 623e 30c6 323d
00000290: 6c20 ca3d 080f bebe ecb0 c03e 3abe c33e
000002a0: 0a12 48be d7c7 abbe f4c2 673e 3295 bb3e
000002b0: c447 443e 7c18 043e d19e c5be b0f1 53bd
000002c0: 70d6 3dbe b6b1 7ebe 70c6 c23e f2fd aa3e
000002d0: 4885 68bd 7051 26be f098 a83c b021 22bd
000002e0: 0ee3 96be 305a 343d c0a0 b93d d046 1dbd
000002f0: 24b7 1a3e 74c4 c23e 0823 c43d 4cff 1e3e
00000300: 78a9 213e bc3f a83d 1a06 913e 7bb7 12be
00000310: e814 563e 81ea 90be 3a23 a4be 0083 fe3c
00000320: cbc6 8dbe 40c8 c13e 20c9 1c3e 1118 9bbe
00000330: 8055 5ebc 0854 57bd 27f0 a9be 0aae 873e
00000340: fcb5 a6be 4051 563d 8816 7a3d f23c c63e
00000350: baea 993e e4d7 1c3e 27f7 96be d9c0 b5be
00000360: 7e94 35be d45a c2be 6a06 943e f4eb f1bd
00000370: 8c97 7e3e f0ca 013e 0d4d 6dbe 8891 633e
00000380: 5316 a8be 507d b43e 5e39 acbe 581a 263e
00000390: c896 c23e e0ad 493d 70a3 a03e fc03 ce3d
000003a0: 9e2e 6ebe 40dd b83d c09e 1abe b45c 86be
000003b0: aa09 62be 5613 b53e 6076 913d 9ea9 81be
000003c0: 6ca6 693e 0467 90be 5840 533e 1da3 38be
000003d0: fccf 983d 78d1 4c3e 64a9 843e c9a7 93be
000003e0: e01a 9cbd a04d 873e fb4d c2be c4dd 30be
000003f0: 803f 523e 19a2 a3be 6463 893d 3047 873e
0.22705913 0.3405828 -0.111278296 0.37744552 0.065507084 0.18254387 -0.23471704 0.04325238
0.2563339 -0.09622583 -0.18026476 -0.038013697 0.03430015 -0.19940121 -0.24331649 -0.30865604
0.07171053 0.32954633 -0.05847937 -0.061822653 0.27019268 -0.09458619 -0.3407806 -0.32910493
0.31541836 -0.32396325 0.25199723 -0.13177863 -0.09123248 0.08737621 0.016867816 0.38591605
-0.12943798 0.23385668 -0.030700415 0.31917208 -0.103586525 -0.011378318 0.05066365 0.09827882
-0.3325809 0.17129064 -0.2560798 -0.062309623 -0.13528064 0.04854268 -0.23172751 0.19906521
-0.14138578 0.07335493 0.25714463 0.30777025 -0.34563613 -0.23125641 0.09104374 -0.09381965
-0.0116404 -0.24630177 -0.031076163 0.18063617 -0.21750988 -0.32612115 -0.3380737 0.16516
-0.108760715 -0.20797692 -0.37088898 -0.3361895 0.26311147 0.3573119 0.14552057 0.14208502
0.06847736 -0.19409895 -0.12302479 0.08008289 -0.15084533 -0.17133492 0.11378127 -0.15180916
-0.32624263 -0.30727085 0.028855145 0.32830882 0.116808414 -0.12483618 0.29217178 0.1898886
0.20844197 0.17823398 -0.33256277 0.2773106 -0.08754507 0.030910939 0.05557108 0.015701622
0.031770617 -0.38698706 0.124373734 -0.28671762 0.3459534 -0.044338793 0.20621204 -0.21775255
0.35030365 0.33676606 -0.12827927 0.2696457 0.24021345 -0.34738046 -0.24077056 0.30110753
-0.27060077 0.29644448 -0.3871772 0.19033837 0.32949835 -0.3706771 -0.29429972 0.08502719
-0.2257546 0.05731684 -0.30425048 -0.36073542 0.31049603 0.17529476 0.05180353 -0.28503454
0.34496963 -0.2750626 0.0014312565 0.0786086 -0.2475079 -0.20266734 -0.37562063 -0.01950109
0.1204226 0.32494998 -0.34093598 -0.29048634 -0.3281757 -0.35060623 0.14168322 0.2561853
-0.28418472 0.12086707 -0.3313671 0.14153743 -0.21073624 0.37445956 -0.13699806 -0.03645554
-0.29917774 -0.13190395 -0.335604 0.11166468 -0.3734056 -0.31848216 -0.26370454 -0.09487143
-0.1174427 -0.07279697 0.22160637 0.043646038 0.09869465 -0.37120843 0.3763498 0.3823107
-0.19538131 -0.33550903 0.22632962 0.36637264 0.19168001 0.12899965 -0.3859773 -0.051744163
-0.18538833 -0.24872479 0.3804202 0.3339687 -0.056767732 -0.16242003 0.020580739 -0.03958291
-0.29470104 0.044031322 0.09063864 -0.03839761 0.15108925 0.38040507 0.09576994 0.15527076
0.15787303 0.08215281 0.28324968 -0.14327805 0.20906413 -0.28303912 -0.32058126 0.031068325
-0.2769073 0.3784809 0.15311098 -0.302918 -0.0135701895 -0.052570373 -0.33191034 0.2649997
-0.32560718 0.05232358 0.061056644 0.38718373 0.30061895 0.1531673 -0.29485437 -0.35498694
-0.17732427 -0.3795992 0.28911144 -0.118125826 0.24862498 0.12675071 -0.23173924 0.22223485
-0.32829532 0.35251856 -0.33637518 0.16220987 0.38005662 0.049238086 0.31374693 0.10059354
-0.2325997 0.09026575 -0.15099621 -0.26242602 -0.22073999 0.35366315 0.07102656 -0.2532472
0.22817391 -0.28203595 0.20630014 -0.18030973 0.07461545 0.20001781 0.25910485 -0.28838947
-0.076223135 0.2642641 -0.3795012 -0.17272097 0.20532036 -0.31959608 0.067084104 0.264215

bias f4 [30]
00000000: f843 c6bd 4661 733d f561 e13d 2bce 12be
00000010: aa27 523d 67a5 2dbe e759 ebbc f492 f4bd
00000020: a45e cc3d 7db5 06be 42ca 1b3f bba5 1abe
00000030: 02ff 0a3e da47 5d3d 70f5 22bd 35f6 e2be
00000040: b95c 053e 0f9e 993d 45bd 64bd fac9 1b3d
00000050: 4b16 ffbd 6e15 9ebd 8772 fc3d bdbe 76bd
00000060: 3eeb f73d 3b6d 38be 063e 9c3d 1142 ad3d
00000070: f79f b43d bdc9 053e
-0.09680933 0.05941894 0.11005012 -0.1433646 0.051307358 -0.16957627 -0.028729392 -0.119420916
0.09978989 -0.1315517 0.60855496 -0.15102284 0.1357384 0.0540236 -0.03978485 -0.44328466
0.13023652 0.075008504 -0.055844564 0.038034417 -0.12455424 -0.07718931 0.12326532 -0.060240496
0.12105416 -0.18010418 0.076290175 0.08459867 0.088195734 0.13065238

weight f4 [10, 30]
00000000: 666b 31be c063 273e 0060 5139 34d6 903d
00000010: f913 16be ff69 85be 8ce0 9bbe 7cb9 84be
00000020: 8b6d aebe 5ebc aabe 6021 fa3c 9b82 a6be
00000030: 5d82 69be dcf5 c3be 3012 823e 7e50 68be
00000040: 5054 543e b433 723e 9cb7 803e 801d 8c3e
00000050: 44ed debd a2e1 8f3e 9856 563d 2eed 1abe
00000060: b82d 503d 7a27 74be 3022 72bd 0287 863e
00000070: a812 b6bd d08d 8e3e 1ad8 9e3e 3e2c 31be
00000080: 1ea4 aebe f15a 2cbe fc7c 2cbe ea2c 923e
00000090: f0b7 6a3d c559 75be 6420 863e 44bb 65be
000000a0: 371b 4ebe 8a19 2abe 867c 8a3e b556 4fbe
000000b0: eea9 c53e 00ce b9bb 809b e9bc dd1a 96be
000000c0: 69eb 8dbe bc81 5c3e ccbf b6bd 10fd 6f3e
000000d0: 3e5c 883e 586f c83d 786a bbbd 60ee 34bd
000000e0: 60b1 83bd 6467 0a3e e07f 153e 8056 56bc
000000f0: b0dd b23e 106c f43d 2c5f 3e3e 2cfa 993e
00000100: a77d 71be cf4d 26be 11b6 abbe 4275 9fbe
00000110: 889a a63d dc78 a53d 9285 61be 19d6 b7be
00000120: 42fd 3ebe 1c8b a5be 6e71 24be d88c 983d
00000130: fd92 29be ee83 c23e 1146 22be 2c7b c23e
00000140: dcfd 15be d06a 90bc c514 30be 8f25 0ebe
00000150: 1a00 bf3e 8c34 84be b08f 673d 3668 25be
00000160: a873 ebbd b86b 61be 2c38 bbbe c45c 86be
00000170: e4de 0d3e 6865 613d a82e afbe d87a 6bbe
00000180: 885e fdbd 34b6 3c3e b200 59be 904a 3e3e
00000190: f86a 4e3e b8f1 133e d608 ac3e 5769 79be
000001a0: 4cf9 b93e 1c8f b9be 2c54 ccbd e03d 1abd
000001b0: 9201 c13e 5e1a 92be bc1e 2f3e 0c82 793e
000001c0: 0c06 3a3e 6493 a0be 001f ff3b 9fac 4ebe
000001d0: b049 373d f33a 54be e015 a5bd 5ed0 2abe
000001e0: af2e 96be 1ede 943e c49b 8fbd 8c3c b23e
000001f0: 88cf ea3d 6c1c c33e fc4e 073e f46a 513e
00000200: 73f9 14be 0892 b2bd c222 9b3e ce47 9b3e
00000210: 58e3 b2be 2a9f 01be 066e bc3e fe91 973e
00000220: 2ce6 a03e d4f0 843d 0022 bc3d 04ea 873d
00000230: 8c0c 813e 2542 99be 8091 04be 74cd 19be
00000240: d058 8ebc 4089 483e 106a 1c3d 2c19 12be
00000250: 1e2c c03e f0b2 953e c0c3 983e 2e88 babe
00000260: b056 213e 00e7 9dbe c88d 4c3e a8bd dfbd
00000270: 0cad 263e 806c 84bb f43d b63e 854b a0be
00000280: 78a6 573e 4c69 cf3d 28d9 f8bd 0c7b 65be
00000290: ec8c 9ebd f9dd afbe a75c 16be d2fe b23e
000002a0: e8ff 433e d88b f93d 4044 ef3d 8fd4 22be
000002b0: 20aa 633e e639 b33e 187e 063d 4ea4 34be
000002c0: a756 a7be 48e5 683e ec2e 0b3e 7175 2ebe
000002d0: 2fdc acbe d070 563e 98db 9c3e e206 84be
000002e0: 88a8 80be f02c 623e 8038 19be 3863 c2bd
000002f0: c091 323e b2d2 53be 10be 50bd bc4d b93d
00000300: 1b35 71be 998f a3be 90ea 22be 00ad 9a3e
00000310: aecd c2be 7a24 983e eac2 81be 0c1b 7e3e
00000320: 1166 8dbe c147 a3be 221d 813e 5c44 b93e
00000330: 2a2f 32be ac88 92bd c840 c93d 54b3 a63e
00000340: 6f19 48be 6077 943e 344c 95be 28ca ba3d
00000350: 40ee 613e 4871 443e 7c51 87be 88ca bbbe
00000360: 6861 7e3e d0a3 2cbe 24a2 a6be fc1e b43e
00000370: a613 14be 65fa 3abe 08ef 0c3d c68c 07be
00000380: e064 9f3c 206e 96bc 6a31 c63e 7c80 333e
00000390: 34e1 023e 5e82 a8be 2c98 863d 2043 dbbc
000003a0: 2589 2ebe 9e85 bbbe 14f9 37be 4220 7ebe
000003b0: 5c57 1e3e f884 063e 7515 32be 7b78 70be
000003c0: 5208 81be ce0c c43e be28 8fbe 84d3 203e
000003d0: 5838 a1be 46f2 48be 80aa 823b 7ceb 773e
000003e0: be0c 9e3e 5aaf a3be 1899 debd 3038 8dbd
000003f0: 16d8 963e 243b b9bd c20d 3dbe 5e7e a0be
-0.17326126 0.16346645 0.00019967556 0.07072106 -0.14656056 -0.2605743 -0.30444753 -0.25922763
-0.3406795 -0.33346838 0.030533493 -0.3252152 -0.22803636 -0.38273513 0.254045 -0.22686955
0.20735288 0.23652536 0.25140083 0.27366257 -0.108850986 0.28101832 0.052328676 -0.1512954
0.05082485 -0.23843184 -0.059114635 0.26274878 -0.08890277 0.2784257 0.31024247 -0.17302033
-0.34109586 -0.16831566 -0.16844553 0.28549892 0.057304323 -0.23960026 0.26196587 -0.22434717
-0.20127569 -0.16611305 0.2704813 -0.2024792 0.3860621 -0.005670309 -0.028516531 -0.2931737
-0.27718666 0.21533865 -0.08923301 0.2343638 0.26632875 0.09786862 -0.09151167 -0.044172645
-0.06430316 0.13516003 0.14599562 -0.013082147 0.3493476 0.11934674 0.18590993 0.30073678
-0.23583089 -0.16240619 -0.33537343 -0.31144148 0.08134943 0.08079693 -0.2202361 -0.3590553
-0.18651298 -0.32332695 -0.16058895 0.07448739 -0.16559978 0.3799128 -0.1584704 0.37984598
-0.14647621 -0.017629057 -0.17195423 -0.13881515 0.37304765 -0.2582134 0.056533515 -0.16153035
-0.11496669 -0.22013748 -0.36566293 -0.2624265 0.13854557 0.05502835 -0.34215283 -0.2299608
-0.12371546 0.1842888 -0.21191671 0.18583131 0.20157993 0.14447677 0.3360049 -0.2435659
0.3632301 -0.36241996 -0.09976992 -0.037656665 0.3769651 -0.28535742 0.17101568 0.24366015
0.18166369 -0.3136245 0.007785678 -0.20183037 0.04474801 -0.20725612 -0.08060813 -0.16681048
-0.29332492 0.29075712 -0.07012132 0.3481182 0.11465365 0.38107622 0.13213724 0.20450956
-0.14548282 -0.087192595 0.30299956 0.3032822 -0.34939075 -0.12658373 0.3680269 0.2960357
0.31425607 0.06491247 0.091861725 0.06636432 0.25204885 -0.29933277 -0.12946129 -0.1501978
-0.017376333 0.19583607 0.038187087 -0.14267415 0.3753366 0.2923808 0.29836845 -0.36432022
0.15755725 -0.30840302 0.1997596 -0.10924846 0.1627695 -0.0040412545 0.3559414 -0.31307617
0.21059597 0.10127506 -0.12150794 -0.2241022 -0.077417225 -0.3434904 -0.14683782 0.34960037
0.19140589 0.12184876 0.116829395 -0.15901397 0.22232866 0.3500511 0.032835096 -0.17640802
-0.32683298 0.22743714 0.13592118 -0.17036988 -0.33761737 0.20941472 0.30636287 -0.257865
-0.2512858 0.22087455 -0.1496296 -0.09491581 0.17438412 -0.20685843 -0.050962508 0.0904803
-0.23555414 -0.31945494 -0.15909791 0.30210114 -0.38047546 0.2971533 -0.2534402 0.24815005
-0.27616933 -0.3189068 0.2521754 0.36184967 -0.17400804 -0.07154974 0.09826809 0.32558692
-0.19540952 0.28997326 -0.291597 0.091205895 0.22063541 0.19183838 -0.26429355 -0.36677957
0.24841845 -0.16859365 -0.32545578 0.3517989 -0.1446062 -0.1825958 0.034407645 -0.13237295
0.01945728 -0.018363059 0.38709575 0.17529482 0.1278122 -0.32911962 0.06571993 -0.026765406
-0.17044504 -0.3662538 -0.1796611 -0.24816993 0.15463012 0.13136661 -0.17390998 -0.2348346
-0.2520166 0.3829102 -0.2796077 0.15705687 -0.314883 -0.1962367 0.0039876103 0.24210924
0.30869097 -0.3196972 -0.10869044 -0.068954825 0.29461735 -0.09044483 -0.1846228 -0.3134641

bias f4 [30]
00000000: 5af8 dabf 9e56 1abf 0432 363e 737a 3dbf
00000010: c66d f9bf 5f24 e83d 3ba1 eabf 76f5 a5bf
00000020: 0189 6bbe cd48 e1bf becb 16c0 3e09 a7be
00000030: eb12 2140 49e9 f5be 1500 f5bf ff5e 8abf
00000040: bbbf 253f eeac 2b40 99c2 b9bf 8808 87bf
00000050: c377 20c0 e9c4 00c0 a7a6 d2bf d4ab 82bf
00000060: 0aad 433f ef76 85bf cd80 b1bf 1c52 f2be
00000070: 02d0 3c40 36f3 66bf
-1.7107041 -0.6028842 0.17792517 -0.7401497 -1.9486625 0.11335062 -1.8330454 -1.2965534
-0.23001482 -1.7600342 -2.3561854 -0.3262424 2.5167797 -0.48029545 -1.914065 -1.081024
0.6474568 2.6824298 -1.4512511 -1.0549479 -2.5073097 -2.0120184 -1.6457108 -1.0208688
0.7643591 -1.0426921 -1.3867432 -0.4732827 2.9501958 -0.9021486

weight f4 [30, 30]
00000000: 6c0a 04c0 ee17 4bbe 8c5d 6bbe a72b ad3f
00000010: e8a4 113f 7df5 00be 0ea5 9d3b fd7f 8e3d
00000020: 5cf8 323f a694 87be 65e3 21bd 15eb 243d
00000030: 47a1 f6be c6ef 5b3f a14e 0dbf c254 0340
00000040: bcf4 053e 8c24 6b3f a432 513f 91ae c33e
00000050: 0331 b33d 410d cd3f 6a5a c0be a899 cb3e
00000060: a7d5 9dbf 762c 94bd 5e2c 9cbf a6fa 863f
00000070: 9f76 dc3f 1dca c43f 4b7d c9bf 966f ac3f
00000080: ad29 8cbf 3d4d 543f 8a24 9dbf 84be 6ebf
00000090: ab31 3d3f 9b69 cfbf aaa1 e83f 32c5 e93e
000000a0: 79e0 f6be c9ed 373c 9c00 f2bd 6983 253e
000000b0: ef22 9ebf b63c 1b40 b73a a03e 9129 203e
000000c0: a418 973f 7619 8c3f e1b6 92bf 5a80 c13f
000000d0: bd42 bbbf d5cc e53e 23e5 9abf b1f8 443f
000000e0: 9f46 92bf 6bef 9c3f 772a 0640 4b99 713f
000000f0: e913 b7bf 71be 293f 71d8 f5be abb8 1d3f
00000100: 06e4 50bf 6d69 7dbf 2c28 a13e c625 d0bf
00000110: b45e 643f 5e10 2d3e 9baa 62bf c6a6 e13e
00000120: 1b5b 10bf 75c9 cf3e 2cc7 4dbf 4c00 d93f
00000130: 9c8c 7cbe 6e8d 1c3f ca9c cc3f 48fa 9d3f
00000140: 6add a0bf 06f2 0040 11f3 e3bf f08e 763f
00000150: d576 b6bf 6055 b13f 0c84 d3be 283f a33f
00000160: 4339 dc3f b1ea f43e ca8d 98bf 53cc 813f
00000170: 507f 00bf c6a9 953f 8440 64bc bf01 8bbf
00000180: 8cde 273f 984c b3bf 6c8c e13f 8c12 5e3e
00000190: 52c8 06bf 4a93 a73f a6d5 50be 557c 723f
000001a0: 56ce 82bf 78b5 f53f 05b1 54be 0e7d b6bd
000001b0: 8a7c c93f c30a 763f 526b babf caec 1d40
000001c0: e01b f0bf 2796 183f 77a9 aebf 27a3 2b3f
000001d0: 3b2c b7bf 071d 0840 7fc3 1740 b84b ca3e
000001e0: 98b9 17bd aba5 7040 8a18 75be 9319 3ebf
000001f0: 7c4a 0b40 ade0 8840 a9ef a13f 1c1d d440
00000200: b877 f4bf b732 433d a871 6e40 0baa d33e
00000210: c746 b03f 16c6 02c0 6302 6d40 4271 e1bf
00000220: f504 7540 bb05 e93f 77bf 293d 4604 adbe
00000230: f865 df3f 305d 2b3f 6d63 7a40 eb49 09bd
00000240: 390d 6540 4950 47bf f946 5a3e d9b8 d53e
00000250: b262 7e3f 9ca0 7b40 ff48 0f3f 917b f03e
00000260: 21ea 473f 79bc b53e 3a1e ad3f f716 a0bf
00000270: e7bc 10be 93ef b93f 6f74 78bf 7808 333f
00000280: 51ce 52bf 23c6 173f cb3a 94bf cc50 b8be
00000290: a4ab c3bf e0f0 eebd 0bcc 07bf d926 9a3f
000002a0: b735 8f3f c495 9c3f ec4d e8be 2feb 2a40
000002b0: 029a a4bf 88e3 4d3f 1c62 b6bf 35f1 e43f
000002c0: 1fbc dabf 770b c73f 1189 3740 6a19 c0be
000002d0: b814 3cc0 fccc aebf 4f17 d63f a1ae aabe
000002e0: 69f3 e03e 5234 2140 3254 afbe 2137 7540
000002f0: 9464 16c0 1aef b0be d559 543f abd9 3ebf
00000300: 9b42 1540 bdff 843f d6b6 c23f 448e d7be
00000310: 595b cabe f755 1840 2b65 96bf 5672 b7bf
00000320: e41d 883f 0798 97be 0c94 1b40 9eaf c9bf
00000330: 7bfd d63f 1e65 15be 170b a13f 39bb bf3e
00000340: 5336 b7be 674b e53f feab a7bf 289f d33f
00000350: 262d 39bf bfde 6d3f e1e1 cf3e d062 24bf
00000360: 8c12 3f3f 41d2 c5bf 795e f03f c2ab 4a3d
00000370: de97 f8be 12f7 e83f 8898 84be 0320 7d3f
00000380: aa95 82bf 7dea 0d40 f0b4 7abe 92f9 263d
00000390: d8e0 0140 1ebf bf3f 22f4 8cbf 8cca 1b40
000003a0: df45 afbf 1faf 8f3f 44f4 a7bf 92e1 283f
000003b0: 4e4b a2bf a44d 0040 d1ae fa3f d4ea 4b3f
000003c0: 7e20 ccbf da96 7b3f 4917 24be 83ca a83f
000003d0: af85 2bbf aa17 c1bf 205b 433f f1d4 a0bf
000003e0: c2dd d93f 9612 1e3f be2e 06bf f0f1 e13f
000003f0: 1d2d 11bf db3a 5e3f b790 b3bf 3b29 bf3f
-2.063136 -0.19833347 -0.22984904 1.3528947 0.5689225 -0.12593646 0.004810936 0.069580056
0.69910216 -0.26480597 -0.0395235 0.040263254 -0.4816992 0.8591274 -0.55198103 2.0520482
0.1308164 0.9185264 0.81717896 0.3821912 0.087495826 1.601967 -0.3756898 0.39765668
-1.2330827 -0.07235043 -1.220104 1.0545242 1.72237 1.537418 -1.5741361 1.3471553
-1.0950218 0.82930356 -1.2276776 -0.93259454 0.7390391 -1.6204103 1.8174336 0.4565826
-0.48218134 0.011226126 -0.118165225 0.1616341 -1.2354411 2.4255805 0.31294796 0.15640856
1.1804395 1.094527 -1.146206 1.5117295 -1.4629742 0.44882837 -1.2101177 0.7694197
-1.1427802 1.2260565 2.0963418 0.9437453 -1.4302951 0.66306216 -0.48016694 0.61609906
-0.81597936 -0.9898899 0.3147596 -1.6261528 0.89207006 0.16900775 -0.88541573 0.4407255
-0.56389016 0.40583387 -0.8038204 1.6953216 -0.24663013 0.61153305 1.5985348 1.2342005
-1.256757 2.014772 -1.7808553 0.96311855 -1.4255015 1.3854179 -0.4131168 1.2753649
1.7204975 0.47835305 -1.191827 1.014048 -0.50194263 1.1692436 -0.013931397 -1.0859908
0.65573955 -1.400775 1.7620978 0.21686763 -0.52649415 1.3091824 -0.20394 0.94720966
-1.0219219 1.9196005 -0.20770653 -0.08910571 1.5741131 0.9611017 -1.4564002 2.4675775
-1.8758507 0.59604114 -1.3645467 0.67045826 -1.4310373 2.1267717 2.3713071 0.39510894
-0.03704223 3.7601116 -0.23935142 -0.74257773 2.1764212 4.2774262 1.2651263 6.6285534
-1.9099035 0.047655787 3.725687 0.4134067 1.37716 -2.0433402 3.7032707 -1.7612689
3.8284276 1.8204874 0.04144236 -0.33792323 1.7452993 0.6693907 3.9123185 -0.03351776
3.578932 -0.7785688 0.21316136 0.4174259 0.9936935 3.9316778 0.5597076 0.46969274
0.7809163 0.35495356 1.352485 -1.2507008 -0.1413456 1.4526237 -0.97052664 0.699348
-0.82346064 0.5928671 -1.1580442 -0.35999143 -1.5286756 -0.11667037 -0.5304572 1.2043105
1.1188267 1.2233205 -0.4537195 2.6706045 -1.28595 0.8042531 -1.4248691 1.788611
-1.708866 1.5550374 2.8677409 -0.3751939 -2.9387646 -1.3656306 1.6725863 -0.33336356
0.43935707 2.5188184 -0.34243923 3.8314898 -2.3498888 -0.3455742 0.8294957 -0.74550885
2.3321903 1.0390545 1.5212047 -0.42100728 -0.39522818 2.3802469 -1.1749624 -1.4331768
1.0634122 -0.29608175 2.430911 -1.5756719 1.6796106 -0.14589354 1.2581509 0.37447527
-0.35783634 1.7913636 -1.3099363 1.6532946 -0.72334516 0.9291801 0.4060202 -0.64213276
0.74637675 -1.5454789 1.8778831 0.049480207 -0.48553365 1.82004 -0.25897622 0.9887697
-1.0201924 2.217437 -0.24483085 0.040765353 2.0293484 1.4980199 -1.1012003 2.4342375
-1.3693198 1.1225318 -1.3121419 0.65969193 -1.2679231 2.0047388 1.95846 0.79655194
-1.5947416 0.98277056 -0.16024508 1.3186802 -0.6700086 -1.5085347 0.7631092 -1.2564985
1.70208 0.6174711 -0.5241507 1.7651958 -0.5670946 0.86808556 -1.4028538 1.4934458

bias f4 [30]
00000000: 5048 94be 991f fbbe c18d 71bf e02a aec0
00000010: a422 1ac0 b3f3 a3bf ffca 60c0 0605 7dbf
00000020: 58a3 97c0 31b0 c9bf 596d 80bf 0454 62c0
00000030: ea36 92bf 4409 0ec0 39c4 12bf 1f25 b7c0
00000040: c6d7 fe3f 75d0 83bf 0103 6bc0 17ba 5cc0
00000050: e1d4 1b3e 05ca 2ec0 4dc4 fe3d 27b9 1fc0
00000060: aa17 1abf 0289 0dbd 4315 4bbf a100 25c0
00000070: cd92 2dc0 3cff c73f
-0.2896142 -0.49047545 -0.94356924 -5.442734 -2.4083643 -1.2808746 -3.51239 -0.9883579
-4.7386894 -1.5756894 -1.003337 -3.536378 -1.1423008 -2.2193155 -0.5733066 -5.7232814
1.9909599 -1.0297991 -3.6720583 -3.448858 0.15217926 -2.7310803 0.12439785 -2.4956758
-0.6019236 -0.03455449 -0.7932932 -2.5781634 -2.712085 1.5624766

weight f4 [30, 30]
00000000: 0b9f 5540 3383 a73f 655c 4740 29aa a53e
00000010: bf3a 5d40 324c cebe e4a7 3f40 7f94 0640
00000020: 024c 653d 630c 8340 5372 6fbf 54cc b940
00000030: 05e3 b73f af81 ecbf b3af e93e 539c 13bf
00000040: 3f3c 5cbf e773 cebe 3ba3 b540 ff73 d640
00000050: 42ed cd3f 7965 b83f fb32 323f 0c9f 9840
00000060: c69f 0140 2c12 8c40 4032 6b3f c471 3bbe
00000070: 730a 293f e765 35c0 fca5 7e40 f53b b13f
00000080: 1829 5240 0855 ebbe 331f 5c40 8d52 fb3e
00000090: da17 8740 bc1e 7d3f 397a b1bd c1b7 5840
000000a0: 0b30 80bf d237 9b40 d550 a03f 726f a4bf
000000b0: d6a3 993f a857 b7bf 5ede a4bf 24d5 05be
000000c0: 7d54 ab40 bb43 c640 cbbf cb3e daf9 c33f
000000d0: b0cc 283f 8125 6840 20f0 a73f 1102 3540
000000e0: 4a88 243e 204c 82bf 9d1d 1c3f ca9f 4ac0
000000f0: 1914 8140 d15f 6a3f e4ed 4540 f303 bcbf
00000100: 07fb 2f40 eae9 1d3f 0562 4d40 0bc0 973e
00000110: 7f9d b13e 36cf 1740 21e5 02c0 729a 7640
00000120: 845f 833f 3db2 73bf 8335 48be a678 08c0
00000130: ee04 9bbf a4ce 11bc 59af a040 b05d c440
00000140: f314 7fbe 7039 913f 80ba 103f 542c 7140
00000150: dbba 453f 0b64 7f40 099f 1b3e 258c 23bf
00000160: c3d6 723f a729 46c0 2595 8140 7221 e63f
00000170: 09e7 6c40 eead b9be ff1e 6d40 1c9c 0f3f
00000180: 5b64 7d40 f578 8f3f 98ed 203e b029 6740
00000190: b5df 5ebe 2f99 b640 386c fb3f ba68 d2bf
000001a0: 35eb a83f ddcf 5bbf a2c6 2fbf f8c2 6fbe
000001b0: fde6 a140 89e9 b940 ea98 f63e f7e2 e53f
000001c0: c1a9 923f 7b8b 5740 60ff d23f c06b 6340
000001d0: d92c 4b3e 385c 1cbf 2182 273f 6c76 20c0
000001e0: bc62 0cbf b491 c3bf c028 96bf 2a77 da3f
000001f0: 72f8 0dbe c37b 4dc0 8dd1 c23e a7ec 2fc0
00000200: addd d33e 42bd 5cbf dac9 48c0 8d79 a53f
00000210: b6af a63f 571b 1dbe 2901 41c0 11b6 a33f
00000220: 8c68 64bf 38f0 ffbf e7c4 1240 af80 2040
00000230: 9206 7d3c 01fc 153f b5af 00c0 deef 37be
00000240: c00a a2be 1f4e ca3f 53a8 b6bf 8d0c 1cc0
00000250: 2260 453e ea78 b139 5a69 2440 9b17 c5bd
00000260: 3e68 0bbe 7192 80bf 9199 1740 7933 5abf
00000270: 2c0a 673f 8233 30bf 102d b83e 32f4 423f
00000280: a1d7 e5bf 441f 4940 94e4 a83f 5bec 43be
00000290: c9ba 90bf ef98 a8bf de9a 94bf d17c 8d3d
000002a0: e15b 7940 03cb 7640 87af a2bf e3dc 4fbe
000002b0: 85b6 54bf 4548 2040 83db b93f 62f1 1240
000002c0: a116 e1bf 5ccc 09c0 3206 94be 548f bbbf
000002d0: 6e94 f53f 9cf4 36bf e9cd 1d40 8821 dc3d
000002e0: 8007 2440 3f27 70bf 2f52 7ebe 2ea3 bf3f
000002f0: d995 c5bf fe07 11be 1792 1ac0 e634 5c40
00000300: 9614 d03f a5a7 e8bf 1f60 94bf f0c9 43be
00000310: 22be b5bf fae2 32c0 43ea 4240 f5f6 7540
00000320: 233e 2b3f 7aa5 df3f bfac c3be 5c22 2640
00000330: 26a8 773f 6faf 2a40 6545 94bd 8fde b4be
00000340: fc84 de3e 1c70 f8bf aaf2 8440 fc9e 0440
00000350: 01a7 6c40 f0c7 cabe 1c3c 7040 b703 393f
00000360: e01a 8340 7515 c33f 3c9e e83e 236b 7040
00000370: f3e0 41bf ebf4 cf40 2cfb ef3f 4841 d7bf
00000380: 321e a93f b4c0 83bf b96a 1bbf 475f 063e
00000390: 99af a540 cc5f cf40 fc1a 1b3f af9d ae3f
000003a0: 6b14 b23f acc4 7a40 c88a 0740 8263 6340
000003b0: afee 233f de18 0ebf d23f 3a3f 8ca0 37c0
000003c0: a7d1 7840 bba3 0040 284c 5340 130b fcbe
000003d0: 63b3 5740 eb76 053f ecb7 6d40 9bd0 6f3f
000003e0: e91a 4a3d 08c7 5040 f0f0 a8bf 2829 aa40
000003f0: 07e6 f23f 239c 05c0 e434 323f a832 fdbf
3.3378322 1.3086914 3.1150143 0.32356384 3.4567106 -0.40292507 2.9946222 2.1028135
0.05598069 4.095262 -0.9353382 5.8061924 1.4366156 -1.8477076 0.4564186 -0.57660407
-0.8602943 -0.403228 5.6761756 6.7016597 1.608803 1.4405967 0.6960904 4.769415
2.0253768 4.3772182 0.9187355 -0.18305117 0.6603157 -2.8343446 3.978881 1.3846422
3.2837582 -0.4596331 3.4394042 0.4908642 4.2216616 0.9887502 -0.0866589 3.3862154
-1.0014662 4.850564 1.2524668 -1.284651 1.2003124 -1.4323626 -1.2880361 -0.13069588
5.3540635 6.195768 0.39794764 1.5310624 0.6593733 3.627289 1.3120155 2.8282511
0.16067615 -1.0179482 0.60982686 -3.1660028 4.0337033 0.91552454 3.0926447 -1.4688705
2.7496965 0.6168505 3.2091076 0.29638705 0.34690472 2.3720222 -2.045235 3.8531766
1.0263524 -0.95193845 -0.19551663 -2.1323638 -1.211088 -0.008899365 5.0214047 6.1364365
-0.24910335 1.1345654 0.56534576 3.7683306 0.77238244 3.9904811 0.15197386 -0.6388572
0.9485895 -3.0962923 4.049456 1.7978957 3.7016013 -0.3626551 3.7050169 0.5609758
3.9592502 1.1208788 0.15715635 3.6119194 -0.21765025 5.706199 1.9642401 -1.643821
1.319678 -0.8586405 -0.68662465 -0.23414218 5.059447 5.8097577 0.4816354 1.7959889
1.1458055 3.3678882 1.6484184 3.5534515 0.19841327 -0.61078215 0.65432936 -2.507228
-0.54838157 -1.527884 -1.1731186 1.7067616 -0.13864306 -3.2106788 0.380505 -2.748819
0.41380063 -0.86226285 -3.13732 1.2927719 1.3022373 -0.1534246 -3.0156958 1.2789937
-0.89222026 -1.9995184 2.293268 2.5078542 0.015443461 0.5858765 -2.0107243 -0.17962596
-0.31648827 1.5805091 -1.4270118 -2.438266 0.19274953 0.0003385016 2.5689301 -0.09623643
-0.13613984 -1.004469 2.368748 -0.8523479 0.90249896 -0.68828595 0.3597188 0.7615386
-1.795643 3.1425333 1.3194757 -0.19133131 -1.1307002 -1.3171672 -1.1609762 0.069085725
3.8962328 3.8561409 -1.2709817 -0.20299105 -0.83091 2.504411 1.4520115 2.2959828
-1.7585031 -2.153098 -0.28910977 -1.4653115 1.9185922 -0.71466994 2.4656928 0.10748583
2.5629578 -0.93809885 -0.24836038 1.4971673 -1.5436355 -0.14163205 -2.4151666 3.4407287
1.6256282 -1.8176161 -1.1591834 -0.19120002 -1.4198649 -2.7951035 3.0455482 3.843198
0.6689169 1.7472374 -0.38217732 2.5958471 0.9674095 2.6669576 -0.072397985 -0.3532605
0.43460834 -1.9409213 4.154622 2.0722036 3.697693 -0.39605665 3.7536688 0.72271293
4.0970306 1.5240923 0.45433223 3.756539 -0.7573387 6.498647 1.8748527 -1.6816797
1.321234 -1.0293183 -0.6070972 0.13122283 5.1776853 6.480444 0.6058805 1.3641871
1.3912481 3.918254 2.1178455 3.5529485 0.6403608 -0.55506694 0.7275363 -2.869174
3.8877962 2.0099933 3.3015232 -0.492272 3.370324 0.5213458 3.7143507 0.9367768
0.04934207 3.262148 -1.3198528 5.317524 1.8976449 -2.0876548 0.69611955 -1.9781084

bias f4 [30]
00000000: d54e 4cbf 80fd 20bf 8504 37bf f190 a93f
00000010: b3fe d4bc 0dfb cc3b a188 a63e 4355 36bf
00000020: 625c c7bd 4c92 fabd 0f4a ccbe 46ea f23e
00000030: 145f 4fbb 19c9 1d40 86ca 80bd 79b7 b23f
00000040: 4e42 9cbf 86db 14bf a53a bebe 3029 343f
00000050: 83f9 8cbf 5a96 053e d7bf e8be 8b0d 4d3e
00000060: 5c0a a7be 1b66 d3be b323 003e 131f 133f
00000070: 9709 cf3c 0eb7 96bf
-0.7980779 -0.6288681 -0.7149127 1.3247358 -0.026000356 0.0062555135 0.32526115 -0.7122385
-0.097344175 -0.12234935 -0.39900252 0.4744436 -0.0031642364 2.465399 -0.06288628 1.3962241
-1.2207735 -0.58147466 -0.37154117 0.7037535 -1.1013645 0.13045636 -0.45458862 0.20024697
-0.3262509 -0.41288838 0.12513618 0.5746929 0.025273127 -1.1774614

weight f4 [30, 30]
00000000: c4eb 933c 7929 a0be ea40 963e a967 cd3b
00000010: 93bb 223e d393 3fbd d3da de3d 2946 293e
00000020: 585b 5d3e 5a89 44be dc1a f2bd 0753 613d
00000030: 6d8d e8bc 12d5 ce3d 6c53 98bd 81b3 89bd
00000040: 53bb 063e a79f 34be e661 d1bd 6870 953e
00000050: 21cd 56bd 2b7c c93b 6aa3 8bbe f112 46be
00000060: 3c3d 933e d771 bbbd 21d3 5fbd bef3 573c
00000070: d3d3 4dbe 7c4d 863e 8e9b f73d a27b 54be
00000080: 3a7c 7bbe c8a6 9c3e 9c5b bcbc c594 2fbe
00000090: f0ac a8bc 0fca 723e 9ba5 713e 71e5 ec3d
000000a0: 53d8 703e ea1f 9fbd c28a 73bb 626d 98bc
000000b0: 4e86 4fbe 6e4f 213e 2e68 9ebe c185 0e3e
000000c0: 232c 09be ff0a 92be 0ac2 3b3d d115 f9bd
000000d0: e0d9 873e d67d 71be 8212 8ebc 87cf dfbd
000000e0: 0eda 5dbe b97a 443e 5530 60be 65e5 8d3e
000000f0: 1b3a 723e baf8 753e 183a 0bbe 8e77 303e
00000100: 9e6a 4cbe 3f68 0fbd 56e5 47be 95ad 1dbe
00000110: 2143 32be 060d 433e ed83 35be c880 db3d
00000120: b8cf 0bbe 82b6 823e 2b63 773e 9475 023e
00000130: 4149 70be 7b47 a33e 0161 2a3e fc80 2f3e
00000140: 29f6 8cbe f3eb 55be 5449 66be 168f aabd
00000150: 564e 123d 56c7 823e 4d4d 143e e54d 003e
00000160: 5c6e a03d d1b9 623e 2e88 a3bd 5424 4e3e
00000170: 24ba 11be 89aa d73d 6643 82bd cf61 ac3b
00000180: 3d6a 013d 5816 103e 9158 ddbb 4f79 6f3e
00000190: eb61 94be 1b06 923e c825 233e 1fb9 973e
000001a0: a1c2 2fbe 0594 95bd a5cd 6cbe f9e3 1abe
000001b0: 7445 873d 7173 41bb 9545 81bd 006b 85be
000001c0: 2ae4 6ebe 583b 843c 007a 663d 5b7d 803e
000001d0: cd1f a0be a91a 9f3e f35f 0dbe 0c95 8ebe
000001e0: 4755 3c3e f8bd 99bc ee50 6abe 9e8c 84be
000001f0: a671 99be 2d87 8f3e 8e6b 513e fbe8 4b3d
00000200: a70b 5bbe cb8f 94bc 8219 db3d 447c 90be
00000210: 925f 63be 9f08 57be be40 293e 1044 f0bd
00000220: 1d7d 803e b317 9e3d 89b6 34be 9f30 963e
00000230: c9e5 1a3d aa71 41be 0247 833e eed5 de3d
00000240: 5a57 63be bd17 8dbe c9b0 b5bd bbfa 383e
00000250: 1c31 843e 2c28 033e d49a e23c faad 98be
00000260: 7f7b a53d 2566 c73c cfe5 773e 2b13 30bd
00000270: f5c1 7ebe 9279 de3d c0ba e63d 2838 ce3c
00000280: 6790 3d3e f8aa 1ebe 2ed3 143d a94e 6d3e
00000290: 2ef5 2fbe 127e 42be 84a7 fd3c b9af 01be
000002a0: 6444 023e 2d3f 833e 63bd febd 70ca 763e
000002b0: fae6 e2bc 75b8 3cbe 429a b8bd 744a 8fbe
000002c0: 5b09 8d3e 5019 98be 213f a13e 4c72 953e
000002d0: 1736 9d3e 1280 64be 5e6f 5cbe 06c7 4bbe
000002e0: 9b6f 0c3e 1eec 6dbd 4a58 723e 7321 17be
000002f0: 48d9 80be f9c1 1a3e 4a42 86be a8bc 273e
00000300: fe76 863d 5cca 143e 83ef 513e 8123 483e
00000310: a4e0 70be b235 a43e dbf1 a0be f272 993e
00000320: 25dd 883e e4bc 9dbe e0cb adbd 0284 0fbe
00000330: e8c5 c83d 3410 2ebd 809d ddbd 51da d8bd
00000340: a792 32bd 1d27 303b 93cb 6f3e 89a1 6abd
00000350: c0ec b33b 6512 f6bd 9d60 833d 655e 3f3e
00000360: 1287 993e 3146 d13c 251a 8f3d b1ff 05be
00000370: 49b7 fa3d b0b0 c33d 5a84 923e b2e2 a5bb
00000380: 3694 cbbd 81f2 8ebe ff27 6cbd 6ed4 10be
00000390: 2592 a4bd fd1a 0e3e 536f c83d 4a23 443e
000003a0: 6395 20be 9e7b 52bd ec8c 6b3e 94c5 12be
000003b0: 8cf7 bc3d 2e3e 5d3d 6b49 003e db48 9f3e
000003c0: ea09 82be 1b55 febd 50ca dcbd 3997 273e
000003d0: 3bae 293e 9315 9ebe 47cb 863d efb2 15bd
000003e0: fd10 973e f41a 903e 5fa1 833d d97e 143e
000003f0: b871 3d3e e953 9cbe d701 0fbd 3416 b13c
0.018056758 -0.3128164 0.293464 0.006268461 0.15891866 -0.046771836 0.10881581 0.1653067
0.21616876 -0.1919302 -0.11821529 0.05501082 -0.02838775 0.10099234 -0.074377865 -0.06723691
0.13157396 -0.17639028 -0.10223751 0.29187322 -0.05244172 0.006148835 -0.27273113 -0.19343163
0.28757656 -0.091525726 -0.054644708 0.013180671 -0.20100336 0.2623099 0.120902166 -0.20750287
-0.24559107 0.30595994 -0.022992902 -0.17146595 -0.020590276 0.23709892 0.2359833 0.115672
0.23520021 -0.07769759 -0.0037161564 -0.018606845 -0.20266077 0.15752956 -0.30938858 0.1391821
-0.13395743 -0.28524014 0.045839347 -0.12162364 0.26533413 -0.23583159 -0.01734281 -0.109282546
-0.21665213 0.1918744 -0.21893437 0.27714077 0.23654978 0.24020663 -0.1359638 0.17233106
-0.19962546 -0.035011526 -0.19521078 -0.15398248 -0.1740842 0.19047937 -0.17726107 0.107179224
-0.13653457 0.25529867 0.24158923 0.12740165 -0.23465444 0.31890473 0.16638567 0.17139047
-0.27531555 -0.20890789 -0.2248891 -0.08328073 0.03571924 0.25542706 0.14482613 0.12529714
0.078335494 0.22141196 -0.079849586 0.20131046 -0.14231163 0.10530574 -0.063605115 0.005260683
0.031595457 0.14071023 -0.0067549427 0.2338612 -0.28980955 0.28520283 0.15932381 0.29633424
-0.17164089 -0.07303623 -0.23125322 -0.15126027 0.06605044 -0.0029518271 -0.063121 -0.26058197
-0.23329225 0.016141579 0.056268692 0.2509564 -0.31274262 0.31075028 -0.13806133 -0.2784809
0.18391906 -0.018767342 -0.22882435 -0.25888532 -0.2996952 0.28032818 0.20451185 0.049782734
-0.21391164 -0.018134972 0.106982246 -0.28219807 -0.22204426 -0.20999382 0.16528603 -0.11731732
0.25095454 0.07719364 -0.17647757 0.2933397 0.037816796 -0.18891016 0.25640112 0.108806476
-0.2220129 -0.27557173 -0.0887161 0.18064396 0.25818717 0.12808293 0.027661718 -0.29820234
0.08080196 0.024340698 0.24208759 -0.04298703 -0.24878676 0.108630314 0.112660885 0.025173262
0.18512116 -0.15494907 0.03633421 0.23174538 -0.17183372 -0.18993405 0.030963667 -0.12664689
0.12721401 0.25634137 -0.124384664 0.24100661 -0.027698029 -0.1842974 -0.09013797 -0.2798649
0.275462 -0.29706812 0.31493476 0.29188764 0.3070533 -0.2231448 -0.21526858 -0.1990014
0.13714449 -0.058086507 0.23666492 -0.14758854 -0.25165772 0.15113057 -0.2622245 0.1638056
0.06565665 0.14530319 0.20501523 0.19544794 -0.23523194 0.32072216 -0.3143452 0.2997051
0.2673122 -0.30808175 -0.08486152 -0.140152 0.098033726 -0.04249592 -0.10821056 -0.105885155
-0.04359689 0.0026878782 0.23417501 -0.05728296 0.0054908693 -0.12015227 0.06414912 0.18688352
0.29985863 0.025546165 0.069874085 -0.1308582 0.1224199 0.09555185 0.286166 -0.0050624246
-0.09940378 -0.2791939 -0.05765533 -0.14143535 -0.08035687 0.13877483 0.097868584 0.19154087
-0.15681987 -0.05138742 0.23002976 -0.14333183 0.09226903 0.054014377 0.12528007 0.31110272
-0.2539819 -0.12418576 -0.107807755 0.1636628 0.1657037 -0.30875835 0.06581741 -0.036547597
0.2950515 0.28145564 0.064272635 0.14501514 0.18500412 -0.30532768 -0.034913864 0.021617033

bias f4 [30]
00000000: d23e b43e 6779 19bd 9abd 9b3e a24b 8dbe
00000010: c44b e1be 357b 293e ea35 e6be 5ba2 983e
00000020: 7349 ecbe 5299 4d3e 10a9 0fbe f7a7 143e
00000030: 284e 023c 4ad3 4fbf 1b1c 943d 0c5f 76be
00000040: 549e 843e 4ea6 8f3e 7b29 bdbe 6d18 413e
00000050: dddf 953e 4745 3fbf f3b5 953e ddfe a23e
00000060: e6e4 963e 5612 a33e 8b54 953e 7de8 82bd
00000070: 7dc3 10bd 1f96 833e
0.35204178 -0.037469294 0.30418092 -0.27596766 -0.44003117 0.16550906 -0.44963008 0.29811367
-0.46149787 0.20078018 -0.14029336 0.14517199 0.007953204 -0.81181777 0.07231923 -0.24059695
0.25902045 0.28056568 -0.3694571 0.18856974 0.29272357 -0.74715084 0.2924038 0.3183507
0.2947151 0.31849927 0.29166064 -0.06392 -0.035342682 0.2570047
