Explainer_Notebooks/AM_Trained_Model.pt (torch, 154305 bytes, 192 tensors)

weight f4 [10, 20]
0	0x3dbc10d8	0.091829
1	0xbeca3f61	-0.3950148
2	0x3c27ebc0	0.010249078
3	0xbdafc7e4	-0.08583048
4	0xbea4ffe4	-0.3222648
5	0xbd8537c8	-0.0650478
6	0x3e9690b6	0.2940728
7	0xbd0f5f38	-0.035002917
8	0x3c9027f0	0.017597169
9	0xbed896e7	-0.4230263
10	0xbe814b12	-0.25252587
11	0x3ea9c096	0.33154744
12	0xbe878b54	-0.26473486
13	0xbe61b129	-0.22040237
14	0xbe2b4e00	-0.16728973
15	0xbe600297	-0.21875988
16	0x3ed67dd2	0.41892868
17	0xbe3aebec	-0.1825406
18	0xbe039bf0	-0.12852454
19	0x3ee3931c	0.44448173
20	0x3e8c0bea	0.2735284
21	0x3e49a488	0.1969167
22	0xbeadd6d5	-0.33952966
23	0xbede3dad	-0.4340643
24	0xbeda5c4d	-0.42648545
25	0xbed8bf7d	-0.42333594
26	0xbb25ef00	-0.0025319457
27	0xbec98094	-0.3935591
28	0xbd28ed58	-0.041241974
29	0xbeb44780	-0.352108
30	0xbe3ab3e2	-0.18232682
31	0x3eae3ddc	0.3403157
32	0x3d49d010	0.04927069
33	0x3e1b9390	0.1519301
34	0x3dcf6df0	0.10128391
35	0x3eb66f54	0.35631812
36	0xbe6efcb8	-0.23338592
37	0xbedf465b	-0.43608364
38	0x3eaa43e8	0.33254933
39	0x3e1edfdc	0.15515083
40	0xbe99bd76	-0.3002736
41	0xbea98d40	-0.33115578
42	0x3d344fc8	0.044021398
43	0x3d643dc0	0.055722952
44	0xbe82879e	-0.25494093
45	0x3da368f0	0.079789996
46	0xbe70f60f	-0.23531364
47	0xbe891d57	-0.26780197
48	0x3ed3e2ba	0.41383916
49	0x3ed03e28	0.4067242
50	0x3edfb1ee	0.43690437
51	0xbed1ac68	-0.40951848
52	0xbd09e9b8	-0.033670157
53	0x3eae3720	0.34026432
54	0x3e3193f0	0.1734159
55	0xbe7450d2	-0.23858956
56	0x3da6f958	0.08153027
57	0xbe648ebb	-0.22320072
58	0xbe89af50	-0.26891565
59	0x3eb9a7a2	0.36260706
60	0x3e80b89c	0.25140846
61	0x3e7013a0	0.23444986
62	0xbe60459a	-0.21901551
63	0xbd50b790	-0.05095631
64	0x3da3da50	0.08000624
65	0xbe6c9293	-0.23102789
66	0x3e05dec8	0.13073266
67	0x3e02e8e4	0.12784153
68	0x3e2caf2c	0.16863698
69	0x3e90e602	0.28300482
70	0xbe9f242a	-0.31082278
71	0x3e8dd59e	0.2770204
72	0x3e279bd8	0.16368043
73	0x3e596d3c	0.21233076
74	0xbe9b0c85	-0.3028299
75	0xbd2f5528	-0.04280582
76	0x3ec90a1e	0.3926553
77	0x3dbfdcb0	0.09368265
78	0x3e265f80	0.16247368
79	0x3ec32fca	0.38122398
80	0xbdcd82f0	-0.1003474
81	0xbe92926c	-0.28627336
82	0xbecf5266	-0.40492553
83	0xbccb06d0	-0.024783522
84	0x3e8b32b6	0.27187127
85	0xbeb5be86	-0.3549692
86	0x3cd89790	0.026439458
87	0x3ede5630	0.4342513
88	0x3e28619c	0.16443485
89	0xbd028008	-0.03186038
90	0x3e97b188	0.29627633
91	0xbdbd80d4	-0.09253088
92	0xbd6d12e8	-0.05787936
93	0x3e062a3c	0.13102049
94	0x3eadef18	0.33971477
95	0x3d5559e0	0.052087665
96	0xbea57227	-0.32313654
97	0x3ec548d6	0.38532132
98	0xbdaa2900	-0.083086014
99	0xbc6e2420	-0.01453498
100	0xbd09d1c0	-0.0336473
101	0xbe8aa43a	-0.2707842
102	0x3dde9540	0.10868311
103	0xbe88768a	-0.26652938
104	0xbe95a3ce	-0.29226536
105	0xbdfe4164	-0.12414816
106	0xbe2a9782	-0.16659358
107	0xbecd344f	-0.4007897
108	0xbe06f050	-0.1317761
109	0xbea1fff4	-0.3164059
110	0xbd694948	-0.056954652
111	0xbe16d580	-0.14729881
112	0x3e0c6210	0.13709283
113	0xbe3bf554	-0.18355304
114	0x3d691980	0.056909084
115	0x3ea2ed4a	0.31821662
116	0x3d118610	0.035528243
117	0xbece9391	-0.4034696
118	0x3e69e5dc	0.2284159
119	0xbe681c79	-0.22667111
120	0x3e3b1200	0.18268585
121	0x3e912c38	0.2835405
122	0xbe123e40	-0.14281559
123	0x3ed1b0ce	0.40955204
124	0x3e6f9e38	0.234002
125	0x3ea9a84a	0.33136207
126	0xbe634789	-0.22195257
127	0x3ed4a102	0.4152909
128	0xbeca16ae	-0.39470428
129	0xbe898408	-0.26858544
130	0x3e5ed1c8	0.21759713
131	0xbe708535	-0.23488314
132	0xbd087860	-0.033317924
133	0xbeb5bf8b	-0.35497698
134	0xbd28e428	-0.04123321
135	0xbe306fd8	-0.17230165
136	0x3d641f70	0.055694044
137	0x3eadd3bc	0.33950603
138	0x3e620f60	0.22076178
139	0xbeab0da2	-0.3340884
140	0x3e0ab968	0.1354729
141	0x3ee2b844	0.4428121
142	0x3e8cf0c6	0.27527446
143	0x3cd2b320	0.02572018
144	0x3de15788	0.110030234
145	0x3dd2c510	0.10291493
146	0x3e8cbe3c	0.27488887
147	0x3e1b4ba8	0.1516558
148	0x3e87b47c	0.26504886
149	0x3d5dd010	0.054153502
150	0x3ec9935e	0.39370245
151	0x3ed9847a	0.42483884
152	0xbee313c0	-0.44351006
153	0xbd8e883c	-0.069595784
154	0x3e79d9c0	0.24399471
155	0x3ed5b532	0.41739804
156	0x3d80f8c8	0.06297451
157	0xbe46309a	-0.19354478
158	0x3ed8a48c	0.4231304
159	0x3c2845e0	0.010270566
160	0xbda7e660	-0.081982374
161	0x3ec14b0e	0.37752575
162	0x3e4def10	0.20110726
163	0xbe651329	-0.2237059
164	0x3e5e8d54	0.217336
165	0x3e279c90	0.16368318
166	0xbe9ad940	-0.30243874
167	0x3e9e3770	0.3090167
168	0xbea82446	-0.32840174
169	0xbe20007a	-0.15625182
170	0xbd90999c	-0.07060549
171	0xbe88b9df	-0.26704308
172	0xbe18d44c	-0.14924735
173	0x3e2a1734	0.16610414
174	0x3d462a20	0.048380017
175	0xbdf03e20	-0.117305994
176	0xbedcfcbe	-0.43161577
177	0xbc8ad550	-0.016947418
178	0xbe5eba93	-0.2175086
179	0xb9591000	-0.00020700693
180	0x3dd6e060	0.10492015
181	0x3e577384	0.2104016
182	0x3de467c8	0.11152607
183	0x3ed66328	0.41872525
184	0xbd1912d0	-0.037371457
185	0x3ebd8b10	0.3702016
186	0x3d2087b0	0.0391919
187	0x3e57faac	0.21091717
188	0x3e562104	0.20911032
189	0x3e982dd2	0.29722458
190	0x3e758300	0.23975754
191	0x3cdc76d0	0.026912123
192	0x3ec8cb04	0.3921739
193	0x3dd76560	0.105173826
194	0x3e8da57e	0.27665323
195	0xbedc9942	-0.43085676
196	0x3e3aebd8	0.1825403
197	0x3e828cfe	0.25498194
198	0x3ebcf28c	0.369038
199	0xbd264a50	-0.040598214

bias f4 [20]
0	0x00000000	0.0
1	0x00000000	0.0
2	0x00000000	0.0
3	0x00000000	0.0
4	0x00000000	0.0
5	0x00000000	0.0
6	0x00000000	0.0
7	0x00000000	0.0
8	0x00000000	0.0
9	0x00000000	0.0
10	0x00000000	0.0
11	0x00000000	0.0
12	0x00000000	0.0
13	0x00000000	0.0
14	0x00000000	0.0
15	0x00000000	0.0
16	0x00000000	0.0
17	0x00000000	0.0
18	0x00000000	0.0
19	0x00000000	0.0

weight f4 [10, 20]
0	0xbea39cb4	-0.31955492
1	0xbe9ee3e6	-0.31033248
2	0x3eb16f84	0.34655392
3	0xbee10c77	-0.43954822
4	0xbd328858	-0.04358706
5	0xbecd4566	-0.4009201
6	0xbe219050	-0.15777707
7	0xbec84ea8	-0.3912251
8	0xbb74d180	-0.0037356317
9	0x3e4e13b8	0.2012471
10	0xbd2e1d28	-0.042508274
11	0xbed72176	-0.42017716
12	0x3d91bda8	0.07116252
13	0x3e8d97f8	0.27655005
14	0x3ea5cc44	0.32382405
15	0xbeadb4f1	-0.3392711
16	0xbde06168	-0.10956079
17	0xbecd0bab	-0.40047964
18	0xbebec63c	-0.37260616
19	0x3e16b758	0.14718378
20	0xbe791a73	-0.24326496
21	0xbee16474	-0.44021952
22	0x3e1b62c0	0.15174389
23	0x3ec8eb8e	0.39242214
24	0x3d91f700	0.0712719
25	0x3d9bd0a8	0.076081574
26	0xbd09f4b0	-0.033680618
27	0xbe9aa1d8	-0.30201602
28	0x3c072ac0	0.0082499385
29	0x3d924dd0	0.07143748
30	0x3e829430	0.25503683
31	0x3e2e9da8	0.17052329
32	0x3eca0d00	0.39463043
33	0x3e3d07e0	0.18460035
34	0x3e127bdc	0.14305061
35	0x3b08f100	0.00208956
36	0xbe824300	-0.25441742
37	0xbde1f300	-0.11032677
38	0x3e4d41d4	0.20044643
39	0xbea9797c	-0.33100498
40	0x3e04e73c	0.12978834
41	0x3cdc8550	0.026919037
42	0xbe685c82	-0.22691539
43	0x3eafe406	0.34353656
44	0xbe9f44ca	-0.3110717
45	0x3cf45fd0	0.029830843
46	0xbda46be8	-0.08028394
47	0xbecf3e14	-0.4047705
48	0xbe21a36a	-0.15784994
49	0x3de75e50	0.112972856
50	0xbe964bf4	-0.29354823
51	0x3e7d1d68	0.24718249
52	0x3e772e34	0.24138719
53	0x3e70415c	0.23462433
54	0xbee3ee11	-0.44517568
55	0x3e0cad4c	0.13737983
56	0xbe950caa	-0.29111224
57	0xbd3c4cf0	-0.04597181
58	0xbdcb8384	-0.09937194
59	0xbe814686	-0.25249118
60	0xbeb53071	-0.3538852
61	0x3d72ba40	0.059259653
62	0xbee35db2	-0.4440742
63	0x3cd5bb60	0.026090324
64	0xbe836423	-0.25662336
65	0xbccbcc60	-0.024877727
66	0x3c4fb6e0	0.012677878
67	0x3d1b6858	0.037941307
68	0x3ec39622	0.3820048
69	0xbe812616	-0.2522437
70	0x3ead846a	0.33890086
71	0xbe985d3c	-0.29758632
72	0xbda242e0	-0.07922912
73	0xbed405c6	-0.41410655
74	0x3e6ec168	0.23315966
75	0xbe9da5fb	-0.30790696
76	0xbe8bc8b2	-0.27301556
77	0xbe4ed3ba	-0.20197955
78	0xbe07aab8	-0.13248718
79	0xbd9ba608	-0.07600027
80	0xbe429d74	-0.19005376
81	0x3e9808f4	0.2969433
82	0xbeaa0a48	-0.3321097
83	0xbe867c69	-0.26266792
84	0x3e93a6c4	0.2883817
85	0x3df95af0	0.12175548
86	0xbc938580	-0.018007994
87	0x3e7d4828	0.24734557
88	0x3dc7f570	0.0976361
89	0xbd99a3b4	-0.07501927
90	0x3e618474	0.22023183
91	0xbeccd0cf	-0.40003058
92	0xbe9f93a6	-0.31167334
93	0x3ee28016	0.44238347
94	0x3c524520	0.0128338635
95	0x3edd557a	0.43229276
96	0x3e93f818	0.28900218
97	0xbcf90c90	-0.030401498
98	0xbc8bb720	-0.017055094
99	0x3da3c4a8	0.079964936
100	0x3e15d64c	0.14632529
101	0xbe33a5e4	-0.17543751
102	0xbedbf515	-0.4296042
103	0x3e87e830	0.26544333
104	0xbe987130	-0.29773855
105	0x3ea62eae	0.3245749
106	0xbe4833f2	-0.19551066
107	0xbe0fafe0	-0.14031935
108	0x3e86722c	0.2625898
109	0xbdd32a90	-0.103108525
110	0x3e7845fc	0.24245447
111	0xbeb975e6	-0.36222762
112	0xbe9a1c18	-0.3009956
113	0xbec1ddbf	-0.3786449
114	0xbee2ef55	-0.4432322
115	0x3e577b04	0.2104302
116	0x3c574c00	0.013140678
117	0x3d371f48	0.044707566
118	0x3cc6acb0	0.024252266
119	0xbdde0154	-0.10840097
120	0xbd054f28	-0.032546192
121	0x3ec4ed24	0.38462174
122	0x3a8d8700	0.001079768
123	0xbe19b09c	-0.15008777
124	0xbeb43934	-0.35199893
125	0xbeb4a2b6	-0.3528039
126	0x3db25210	0.087070584
127	0x3e0acde0	0.13555098
128	0xbec4f4d1	-0.3846803
129	0x3e81c8d4	0.25348532
130	0x3d842000	0.06451416
131	0xbe4c61b6	-0.19959149
132	0x3d9c94b8	0.07645553
133	0xbe0dd2c8	-0.13849938
134	0xbe985e84	-0.2975961
135	0xbde516b8	-0.11185974
136	0xbdec0fd0	-0.115264535
137	0xbe9e21bd	-0.30885115
138	0x3ec795e4	0.38981545
139	0x3dd0c7a8	0.101943314
140	0xbd1567d8	-0.036475986
141	0xbe4b4d7d	-0.19853778
142	0x3eda83c0	0.42678642
143	0xbed85020	-0.4224863
144	0x3eb54af4	0.35408747
145	0x3e8538a8	0.26019788
146	0x3ece30ea	0.40271693
147	0xbe366764	-0.17812878
148	0xbeb0cc58	-0.34530902
149	0x3e774d18	0.24150503
150	0xbe43fb62	-0.19138864
151	0x3e9a9116	0.30188817
152	0xbeb7dbd7	-0.35909912
153	0xbebb6964	-0.36603844
154	0x3e8e33fa	0.2777403
155	0x3d34cbd0	0.044139683
156	0xbe1697b6	-0.1470631
157	0x3dbf8210	0.09350979
158	0xbe41f044	-0.1893931
159	0xbd2772e0	-0.040881038
160	0x3cb91b00	0.022595882
161	0xbe660334	-0.2246216
162	0xbe4f9a43	-0.2027369
163	0x3e5b0e88	0.21392262
164	0x3ea7cfe0	0.32775784
165	0xbdc5f170	-0.09665191
166	0x3e93eac0	0.28890038
167	0x3e8a44b8	0.27005553
168	0xbe2a5e62	-0.16637567
169	0xbde39c18	-0.11113757
170	0x3eb8cff6	0.36096162
171	0xbe2c7fc2	-0.1684561
172	0xbe6fa02a	-0.23400941
173	0xbebfebd8	-0.37484622
174	0xbca94f10	-0.020667583
175	0xbd633318	-0.05546865
176	0xbe88a5ec	-0.26689088
177	0x3dc09ca0	0.09404874
178	0x3c8fdec0	0.01756227
179	0xbe5f247e	-0.21791264
180	0x3e243508	0.16035855
181	0x3edfd464	0.4371673
182	0xbdf07530	-0.11741102
183	0xbe9fe7dc	-0.31231582
184	0x3e542d84	0.20720488
185	0xbe41a230	-0.18909526
186	0xbd8c6018	-0.06854266
187	0xbec984e6	-0.39359206
188	0xbea97081	-0.33093646
189	0xbdd842dc	-0.105596274
190	0xbd2153f0	-0.03938669
191	0xbe8d5603	-0.27604684
192	0xbe8e35e4	-0.2777549
193	0x3e570f1c	0.21001858
194	0x3ec4601a	0.3835457
195	0x3ecac3c2	0.39602476
196	0x3e9cf808	0.30657983
197	0x3e8e6dc4	0.2781812
198	0xbe8aa66e	-0.270801
199	0xbc016e00	-0.007899761

bias f4 [20]
0	0x00000000	0.0
1	0x00000000	0.0
2	0x00000000	0.0
3	0x00000000	0.0
4	0x00000000	0.0
5	0x00000000	0.0
6	0x00000000	0.0
7	0x00000000	0.0
8	0x00000000	0.0
9	0x00000000	0.0
10	0x00000000	0.0
11	0x00000000	0.0
12	0x00000000	0.0
13	0x00000000	0.0
14	0x00000000	0.0
15	0x00000000	0.0
16	0x00000000	0.0
17	0x00000000	0.0
18	0x00000000	0.0
19	0x00000000	0.0

weight f4 [10, 20]
0	0xbd4df440	-0.050281763
1	0x3e8e02b0	0.27736425
2	0x3eb6a466	0.356723
3	0xbbb41fc0	-0.005496949
4	0x3ec49f32	0.38402706
5	0x3e21dc9c	0.15806812
6	0x3d90cf18	0.0707075
7	0xbca51620	-0.020152152
8	0x3de6dcb8	0.112725675
9	0x3aea6900	0.0017884076
10	0x3e9d2b30	0.30697012
11	0x3eae58a4	0.34052002
12	0xbea1426f	-0.31495997
13	0x3e46382c	0.19357365
14	0xbec3e0b4	-0.38257372
15	0xbe5600b3	-0.20898704
16	0x3e681c70	0.22667098
17	0x3e9a6aba	0.3015955
18	0xbe69a247	-0.2281581
19	0x3ec4148a	0.3829692
20	0x3d5aa550	0.05338031
21	0x3eb228dc	0.34796798
22	0xbc7414a0	-0.0148974955
23	0x3c56f820	0.013120681
24	0x3ed33150	0.4124856
25	0xbd6dfbf8	-0.058101624
26	0xbdf80934	-0.1211113
27	0x3e31c210	0.17359185
28	0xbe986ad7	-0.29769012
29	0x3ea51d1a	0.32248765
30	0x3edb4e9e	0.42833418
31	0xbedd27d2	-0.43194443
32	0xbebfcbfa	-0.3746031
33	0xbe982426	-0.2971508
34	0xbde65094	-0.11245838
35	0xbedf0427	-0.43557855
36	0xbe4503ba	-0.19239703
37	0xbebf33d8	-0.3734424
38	0xbe4ccd5d	-0.20000215
39	0xbeb7a832	-0.3587051
40	0x3e603d24	0.21898323
41	0x3e90c2a0	0.28273487
42	0x3bc0d800	0.005885124
43	0xbe1bd542	-0.1521807
44	0x3e1614ac	0.14656323
45	0xbe104144	-0.14087397
46	0x3e939cec	0.2883066
47	0x3e49f740	0.19723225
48	0xbea662dc	-0.324973
49	0xbe88f324	-0.26748002
50	0x3e7eb000	0.24871826
51	0xbeb5c0b8	-0.35498595
52	0x3ece08f2	0.402412
53	0x3e5d2c5c	0.21598953
54	0x3ec577a8	0.38567853
55	0x3eb6166e	0.35563987
56	0x3b83ff00	0.004028201
57	0x3e5b5328	0.2141844
58	0xbedd0208	-0.43165612
59	0xbe2aedc8	-0.16692269
60	0x3e3b87ec	0.18313569
61	0xbe92f334	-0.28701174
62	0xbe3e9dcc	-0.18614882
63	0xbe4cf29c	-0.20014423
64	0x3ec3c700	0.38237762
65	0x3e764fc8	0.24053872
66	0x3d796d40	0.060895205
67	0xbec70464	-0.38870537
68	0xbe441ce6	-0.19151649
69	0xbe93858c	-0.28812826
70	0xbe9e9f1d	-0.3098077
71	0x3e0a0a74	0.1348055
72	0xbea1c8da	-0.3159855
73	0xbee26a7b	-0.44221863
74	0x3e343060	0.17596579
75	0xbe3f63cc	-0.18690413
76	0x3ea8ffcc	0.33007658
77	0xbed1f516	-0.41007298
78	0xbc042540	-0.008065522
79	0x3d5901c0	0.052980185
80	0x3ea97566	0.3309738
81	0xbe964606	-0.293503
82	0x3e08a148	0.13342774
83	0x3c0ca6c0	0.008584678
84	0xbe8c82bb	-0.2744349
85	0xbde514e8	-0.11185628
86	0xbdebff64	-0.11523321
87	0x3db42a50	0.08797133
88	0xbecbec4a	-0.39828712
89	0xbe57c947	-0.21072875
90	0x3eadd318	0.33950114
91	0x3ea4c77a	0.3218344
92	0x3d9e87f8	0.07740778
93	0xbee48fd3	-0.4464098
94	0x3d193788	0.037406474
95	0x3e7e7040	0.24847507
96	0x3e41c46c	0.18922585
97	0xbeb2f36e	-0.34951347
98	0xbddea4e0	-0.10871291
99	0x3e2db040	0.16961765
100	0xbdfe3c08	-0.12413794
101	0x3e480234	0.1953209
102	0x3e9b3092	0.30310494
103	0xbe1fff90	-0.15624833
104	0x3d9013b8	0.07035011
105	0xbe1757b4	-0.1477955
106	0x3eb0b128	0.3451016
107	0x3ec51742	0.38494307
108	0x3e5eea00	0.21768951
109	0xbec55a32	-0.38545376
110	0x3ee02da6	0.43784827
111	0xbe710e47	-0.23540603
112	0xbd2cca48	-0.042185098
113	0xbe98a41b	-0.29812703
114	0xbe7bc84f	-0.2458813
115	0x3eb77f9a	0.3583954
116	0x3e565800	0.20932007
117	0xbe1b82d4	-0.15186626
118	0x3e1c4a34	0.15262681
119	0x3ea2efd8	0.3182361
120	0x3e962158	0.29322314
121	0xbe2f3574	-0.17110234
122	0xbe97558a	-0.2955745
123	0x3d9c6b28	0.07637626
124	0xbe3934b4	-0.18086511
125	0xbec21a1c	-0.37910545
126	0x3df5b360	0.11997104
127	0xbeda3277	-0.42616627
128	0xbc9ac450	-0.018892437
129	0xbedf163b	-0.43571648
130	0x3ebcf9fe	0.3690948
131	0x3df9b8d0	0.12193453
132	0x3ebc13d6	0.36733884
133	0xbcb63ee0	-0.022246778
134	0x3ea7b042	0.32751662
135	0x3cbd0870	0.023075312
136	0x3e52e424	0.20594841
137	0xbeca6e1d	-0.39537135
138	0xbeb3169e	-0.34978193
139	0x3e10d9ac	0.14145535
140	0x3d0f7100	0.035019875
141	0x3cfaec80	0.03063035
142	0xbe516d36	-0.20451817
143	0xbe8924d5	-0.26785913
144	0xbede7d74	-0.43455088
145	0x3ebc63b8	0.3679483
146	0x3ec5ed58	0.3865764
147	0xbe322868	-0.17398226
148	0x3db94f30	0.09048307
149	0x3ecee144	0.4040624
150	0x3e6c6eb4	0.23089105
151	0x3e1f3cf0	0.1555059
152	0x3dc39af8	0.09551042
153	0xbe1aa754	-0.15102893
154	0xbdc62518	-0.09675044
155	0x3d26eae0	0.040751338
156	0x3eaded7c	0.3397025
157	0xbe809af5	-0.25118223
158	0xbe0d8630	-0.1382072
159	0x3d39c618	0.045354933
160	0xbe824870	-0.2544589
161	0x3e899ea6	0.26878852
162	0xbe4b2700	-0.19839096
163	0x3e669e9c	0.22521442
164	0xbed8f90c	-0.42377508
165	0xbd93f144	-0.07223752
166	0x3edd32d6	0.43202847
167	0xbeb33d91	-0.3500791
168	0xbe49ce48	-0.19707596
169	0x3ecc4b30	0.39901114
170	0xbe9f4566	-0.31107634
171	0xbe1e4412	-0.15455654
172	0xbe0f3d92	-0.13988331
173	0x3dc51b78	0.0962438
174	0xbe015d7e	-0.1263332
175	0x3d724580	0.05914831
176	0xbec8bb46	-0.39205378
177	0x3ea2ee1c	0.31822288
178	0xbcb15e10	-0.021651298
179	0x3e81db18	0.25362468
180	0x3eb9ab6e	0.36263603
181	0x3e317324	0.17329079
182	0xbe5964be	-0.21229836
183	0xbd9fedb4	-0.0780901
184	0xbeaeaa78	-0.34114432
185	0xbe62341f	-0.22090195
186	0x3ed6e32c	0.41970193
187	0xbbdfa700	-0.006825328
188	0xbeb2ec12	-0.34945732
189	0xbd8c143c	-0.06839797
190	0xbe5131f4	-0.20429212
191	0x3ebadc62	0.36496264
192	0xbea8bb70	-0.32955503
193	0x3eddaf9c	0.43298042
194	0xbdb3c8d0	-0.08778536
195	0x3ccf58b0	0.025310844
196	0x3e58f900	0.21188736
197	0xbe934318	-0.28762126
198	0x3eb0c02c	0.34521616
199	0xbe009de4	-0.1256023

bias f4 [20]
0	0x00000000	0.0
1	0x00000000	0.0
2	0x00000000	0.0
3	0x00000000	0.0
4	0x00000000	0.0
5	0x00000000	0.0
6	0x00000000	0.0
7	0x00000000	0.0
8	0x00000000	0.0
9	0x00000000	0.0
10	0x00000000	0.0
11	0x00000000	0.0
12	0x00000000	0.0
13	0x00000000	0.0
14	0x00000000	0.0
15	0x00000000	0.0
16	0x00000000	0.0
17	0x00000000	0.0
18	0x00000000	0.0
19	0x00000000	0.0

weight f4 [10, 20]
0	0xbc56c9a0	-0.013109595
1	0xbdfe7734	-0.1242508
2	0x3d84d3c8	0.064857066
3	0xbe3c8500	-0.1841011
4	0xbd996cbc	-0.074914426
5	0x3d257120	0.040391088
6	0xbec57df3	-0.38572654
7	0x3e2b17d0	0.16708302
8	0x3dc48330	0.095953345
9	0xbc9a93b0	-0.018869251
10	0xbd659718	-0.056052297
11	0xbce461d0	-0.027878672
12	0xbe60271c	-0.21889919
13	0xbea304ee	-0.318397
14	0xbd259c48	-0.040432245
15	0xbe842618	-0.25810313
16	0x3e90283a	0.2815569
17	0x3eaac6b2	0.33354717
18	0xbe39afe2	-0.181335
19	0xbde17368	-0.1100834
20	0xbe656da7	-0.2240511
21	0xbe964a41	-0.29353526
22	0x3c3c2fe0	0.011486024
23	0xbeb1826c	-0.34669816
24	0xbecaa0b0	-0.3957572
25	0x3ebe911a	0.3722008
26	0x3da29610	0.079387784
27	0xbd447f60	-0.047973037
28	0x3e8ef8d2	0.2792421
29	0x3cff5350	0.031167656
30	0x3e801604	0.25016797
31	0x3ea7d082	0.32776266
32	0x3cd0d580	0.02549243
33	0xbebd89a0	-0.37019062
34	0x3ec2b466	0.38028258
35	0x3d959e80	0.07305622
36	0x3e2f9038	0.17144859
37	0xbe411916	-0.18857226
38	0x3dcd1b40	0.10014963
39	0xbe2c67f8	-0.16836536
40	0xbebe6241	-0.37184337
41	0x3e8ff7c0	0.28118706
42	0xbec46465	-0.38357845
43	0xbe9374b6	-0.2879998
44	0x3e752adc	0.23942131
45	0xbedb7feb	-0.4287103
46	0x3e74c1fc	0.23902124
47	0xbe765fe7	-0.24060021
48	0xbde40354	-0.11133447
49	0xbdb08b54	-0.08620325
50	0x3e8a8584	0.2705499
51	0x3df29b08	0.11845976
52	0x3dca04f8	0.09864229
53	0xbe0ddea6	-0.13854465
54	0xbe5c1a17	-0.21494327
55	0xbeb73f5d	-0.3579053
56	0xbe0ea0d2	-0.13928536
57	0x3dde3128	0.108492196
58	0xbe57e46b	-0.21083228
59	0x3e9efb40	0.31051064
60	0x3de60450	0.11231291
61	0xbdcf9680	-0.101361275
62	0xbddd17b8	-0.107955396
63	0x3d9ac560	0.075571775
64	0x3e9aecba	0.30258733
65	0x3d6b1fc0	0.057403326
66	0x3e53071c	0.20608181
67	0xbee2a4f2	-0.44266468
68	0x3e64660c	0.22304553
69	0xbe638099	-0.22217025
70	0xbd484e90	-0.048903048
71	0xbcdab1c0	-0.026696086
72	0x3cb10950	0.021610886
73	0xbe06e56a	-0.13173452
74	0x3ebd51ec	0.36976564
75	0x3db48658	0.088146865
76	0xbe92c280	-0.28664017
77	0xbee04e54	-0.4380976
78	0x3eb7568e	0.35808223
79	0x3e557b34	0.2084778
80	0x3e9b6ae4	0.3035499
81	0xbecad589	-0.3961604
82	0xbe5d89d7	-0.21634613
83	0x3e533708	0.20626462
84	0x3e3d008c	0.1845724
85	0x3ea2f728	0.3182919
86	0x3e7f5c88	0.24937642
87	0x3e047870	0.12936568
88	0xbdb274e0	-0.087136984
89	0xbd6e2d60	-0.05814874
90	0xbe0e9040	-0.13922215
91	0x3e5e9fd4	0.21740657
92	0x3dae55f8	0.08512491
93	0x3d617b60	0.0550493
94	0x3e3c6a00	0.18399811
95	0x3da4d118	0.08047694
96	0xbe9f786a	-0.31146556
97	0x3b70c680	0.003673941
98	0xbea5cb24	-0.32381546
99	0x3e0665b0	0.13124728
100	0x3e9d898e	0.30769008
101	0xbea0ee10	-0.31431627
102	0x3e289ec0	0.16466808
103	0x3d939e80	0.07207966
104	0x3e299528	0.16560805
105	0x3e5c0984	0.21488005
106	0x3ecd3858	0.4008205
107	0x3edc8d6a	0.4307664
108	0x3e2552e8	0.16144907
109	0x3d5c1d40	0.053738832
110	0xbec7887c	-0.38971317
111	0x3eaeff4a	0.34179145
112	0xbe56c601	-0.2097397
113	0xbdce3a34	-0.10069695
114	0xbec50b93	-0.38485393
115	0x3e18ff7c	0.1494121
116	0x3b3d5a80	0.0028893054
117	0x3e380a4c	0.17972678
118	0x3cef5260	0.029214084
119	0x3e232734	0.15932924
120	0x3e9047c0	0.2817974
121	0x3e4f3550	0.20235181
122	0xbd95f0b4	-0.07321301
123	0xbe8517d2	-0.25994736
124	0xbec4d3e2	-0.38442904
125	0x3ee33040	0.4437275
126	0x3ea9caba	0.3316248
127	0xbe82fc28	-0.25583005
128	0x3e0268b8	0.1273526
129	0x3e9c84d8	0.30570102
130	0x3e32da84	0.1746617
131	0xbeae5a98	-0.34053493
132	0x3da9b400	0.082862854
133	0xbd680ba8	-0.05665174
134	0xbeaddaff	-0.33956143
135	0xbd1301c0	-0.03589034
136	0x3e111a20	0.14170122
137	0xbcbacf70	-0.022803992
138	0x3ed16f96	0.40905446
139	0x3e9cae90	0.3060193
140	0x3d2565d8	0.04038033
141	0xbebbfe63	-0.3671752
142	0x3e3f1570	0.18660522
143	0xbe2fc50e	-0.17165014
144	0x3d9286f8	0.071546495
145	0x3de53f50	0.111937165
146	0x3e85fe74	0.26170695
147	0x3dd96c68	0.1061638
148	0x3d6664a0	0.056248307
149	0x3ed33320	0.41249943
150	0x3dd6a028	0.10479766
151	0xbe39f6fe	-0.18160626
152	0xbc1dc080	-0.009628415
153	0xbd060700	-0.03272152
154	0x3e94cb5a	0.29061395
155	0x3de467f8	0.11152643
156	0xbd78e100	-0.06076145
157	0x3d319078	0.043350667
158	0xbeaa86c3	-0.3330594
159	0xbe0b85bc	-0.13625234
160	0xbe84067c	-0.25786197
161	0xbe4c8a61	-0.19974662
162	0xbe1fe31a	-0.15613976
163	0xbeb09dce	-0.34495395
164	0x3ebf77ae	0.37395996
165	0xbe42f75e	-0.19039676
166	0xbe3c688c	-0.18399256
167	0x3e90cd04	0.28281415
168	0xbd893a14	-0.06700531
169	0x3ebe735c	0.37197387
170	0x3ee4eed0	0.4471345
171	0xbe300f58	-0.17193353
172	0x3d9deec0	0.077115536
173	0x3e118eec	0.14214677
174	0xbe869268	-0.26283574
175	0xbba5af80	-0.0050563216
176	0x3e2cde50	0.1688168
177	0xbe790d6d	-0.24321528
178	0x3d419630	0.04726237
179	0x3ec0ee88	0.37681985
180	0xbdbb9bac	-0.091605514
181	0xbdfaff34	-0.122557074
182	0xbe5f86ab	-0.21828716
183	0x3ceef1c0	0.02916801
184	0xbed73bc6	-0.4203779
185	0x3ce43820	0.027858794
186	0xbecfe896	-0.40607136
187	0xbe03b7bc	-0.12863058
188	0xbea3e814	-0.32013
189	0xbeaa3e42	-0.33250624
190	0xbae35700	-0.0017344654
191	0xbd9b257c	-0.07575509
192	0xbe757f26	-0.23974285
193	0x3ec1fab6	0.3788659
194	0x3d050f18	0.032485098
195	0xbcbc52e0	-0.022988737
196	0x3e0f8a4c	0.140176
197	0xbdad1e40	-0.08453035
198	0x3e561d5c	0.20909637
199	0xbe5e3608	-0.21700299

bias f4 [20]
0	0x00000000	0.0
1	0x00000000	0.0
2	0x00000000	0.0
3	0x00000000	0.0
4	0x00000000	0.0
5	0x00000000	0.0
6	0x00000000	0.0
7	0x00000000	0.0
8	0x00000000	0.0
9	0x00000000	0.0
10	0x00000000	0.0
11	0x00000000	0.0
12	0x00000000	0.0
13	0x00000000	0.0
14	0x00000000	0.0
15	0x00000000	0.0
16	0x00000000	0.0
17	0x00000000	0.0
18	0x00000000	0.0
19	0x00000000	0.0

weight f4 [10, 20]
0	0xbe66ca5a	-0.22538128
1	0xbd888fd4	-0.06668058
2	0xbeb6995a	-0.35663873
3	0xbd3f4d20	-0.04670441
4	0xbe8ee8c5	-0.27911964
5	0xbe12e8e6	-0.14346656
6	0x3ea6d63a	0.32585317
7	0xbe57a65a	-0.21059552
8	0xbd3ad1d0	-0.04561025
9	0x3d2b3098	0.04179439
10	0xbea8cb7f	-0.32967755
11	0x3da11b28	0.07866508
12	0xbe4d55ae	-0.20052215
13	0xbe97ad8a	-0.29624587
14	0xbecef3eb	-0.4042047
15	0xbe1c7ebc	-0.1528272
16	0x3d9da4c0	0.07697439
17	0xbe358ca4	-0.17729431
18	0x3ea2cf98	0.31799006
19	0xbd0bf6e8	-0.034171015
20	0xbe027972	-0.1274164
21	0x3d9c3310	0.07626927
22	0x3da96cd0	0.082727075
23	0x3e4f3534	0.20235139
24	0x3ecc30c6	0.3988096
25	0x3dc96ac8	0.0983482
26	0x3d4c59b8	0.04989025
27	0x3ed25604	0.4108125
28	0x3dd48570	0.10377014
29	0xbe4980a2	-0.19677976
30	0xbec2d142	-0.38050276
31	0x3e239d40	0.15977955
32	0x3e5c31bc	0.21503347
33	0x3e13b204	0.14423376
34	0xbd325e30	-0.043546855
35	0xbd6039d0	-0.054742634
36	0xbec7dde4	-0.39036477
37	0x3e92b66e	0.28654808
38	0xbedbbf70	-0.42919493
39	0x3c9dee70	0.019278735
40	0x3e409bb4	0.18809396
41	0x3e90708c	0.28210866
42	0xbe889e33	-0.26683196
43	0xbecdfbd6	-0.40231198
44	0x3dfce6d8	0.123487175
45	0xbeb80611	-0.35942128
46	0xbee1d47a	-0.4410742
47	0x3ee405e2	0.44535738
48	0xbd25e9d8	-0.040506214
49	0x3e8c162e	0.27360672
50	0x3e752214	0.23938781
51	0x3e8ff428	0.28115964
52	0x3dc064e0	0.093942404
53	0xbd93cd18	-0.07216853
54	0x3d240a08	0.04004863
55	0x3e6817fc	0.226654
56	0xbd4123a8	-0.047153145
57	0x3e9d5aec	0.3073343
58	0xbed89a49	-0.4230521
59	0xbd6011b0	-0.054704368
60	0x3d663a40	0.056207895
61	0xbea55336	-0.32290047
62	0xbcc7c840	-0.024387479
63	0x3eba30a0	0.36365223
64	0x3e3456e0	0.17611265
65	0x3e9de644	0.3083974
66	0x3e491588	0.1963712
67	0xbe89e8d4	-0.26935446
68	0xbdf82034	-0.12115517
69	0x3e7f9790	0.2496016
70	0xbe32079c	-0.17385715
71	0x3e478c34	0.19487077
72	0x3e020960	0.12698889
73	0x3e43d05c	0.19122452
74	0x3e1b3b8c	0.15159434
75	0xbd99be20	-0.075069666
76	0xbde8d208	-0.11368185
77	0x3ec3b060	0.382205
78	0xbdf242c4	-0.11829141
79	0xbec3907a	-0.38196164
80	0xbe62226e	-0.22083446
81	0xbeae8bcd	-0.34091035
82	0xbe224fc2	-0.15850738
83	0xbe830ed8	-0.25597262
84	0xbea42646	-0.3206045
85	0xbe230d52	-0.1592305
86	0xbd389e60	-0.045072913
87	0x3e58e9d4	0.21182948
88	0x3e86179c	0.26189888
89	0x3eb34ca4	0.3501941
90	0xbde94c64	-0.113915235
91	0x3e819d06	0.25315112
92	0xbe25897c	-0.16165727
93	0xbecaa21f	-0.39576814
94	0x3e8577f2	0.26068074
95	0x3e002340	0.12513447
96	0x3ed61c60	0.41818523
97	0xbeb9974d	-0.36248246
98	0x3ec60906	0.3867876
99	0x3eccbe08	0.39988732
100	0xbe6a49a2	-0.22879651
101	0xbe4b8fb0	-0.19879031
102	0x3dd99360	0.10623813
103	0x3ed16418	0.40896678
104	0xbeba724a	-0.3641532
105	0x3ed6b624	0.41935837
106	0xbe3518a6	-0.17685184
107	0x3eb97292	0.36220223
108	0x3e9573ea	0.29189998
109	0x3c261920	0.010137826
110	0xbe88bef0	-0.26708174
111	0x3e0560d4	0.13025218
112	0x3e003b20	0.12522554
113	0xbe914b32	-0.28377682
114	0x3b58e080	0.0033092797
115	0xbd504dc0	-0.0508554
116	0x3ec91150	0.3927102
117	0x3d9ef348	0.07761246
118	0xbe7c2766	-0.24624404
119	0x3e616868	0.22012484
120	0xbe37e0cc	-0.17956847
121	0x3ec0599e	0.37568372
122	0xbe872e31	-0.2640243
123	0x3eacd71c	0.33757865
124	0x3def3f38	0.1168198
125	0xbbd95000	-0.006631851
126	0x3e55ef58	0.20892084
127	0xbe0bd8e0	-0.1365695
128	0xbebc7b64	-0.3681289
129	0xbe9380df	-0.28809258
130	0xbe82ae74	-0.25523722
131	0x3e609350	0.21931195
132	0xbb1ef080	-0.0024252236
133	0xbe35c420	-0.17750597
134	0xbeae3b64	-0.34029686
135	0xbe279846	-0.16366681
136	0xbc8b5f10	-0.017013103
137	0x3dc47a20	0.09593606
138	0x3ee0fd72	0.43943363
139	0xbedaa47e	-0.42703623
140	0x3ecbbb2a	0.39791232
141	0xbee05964	-0.438182
142	0x3e94db50	0.29073572
143	0x3dd467b0	0.10371339
144	0x3eac2c3c	0.33627498
145	0xbe06aede	-0.13152644
146	0xbe647ff1	-0.22314431
147	0x3e426e68	0.18987429
148	0x3e313b0c	0.17307681
149	0xbea4c37e	-0.321804
150	0xbe510c7c	-0.20414919
151	0x3caf0eb0	0.021369308
152	0x3e95df4a	0.2927192
153	0xbd299e50	-0.041410744
154	0xbee0c849	-0.43902805
155	0xbd949ca8	-0.07256442
156	0x3d341fd0	0.04397565
157	0xbe0cead6	-0.13761458
158	0x3ec56eb6	0.38561028
159	0xbe92a61d	-0.2864236
160	0xbdd7a310	-0.105291486
161	0xbea14c0c	-0.31503332
162	0x3ea0ddf6	0.31419343
163	0xbe31ab10	-0.17350411
164	0xbeb9c747	-0.3628485
165	0x3e3efe60	0.18651724
166	0xbd80db10	-0.06291783
167	0x3e4f2854	0.20230228
168	0x3eb82cbc	0.3597163
169	0x3e5e4dc8	0.21709359
170	0x3ed046fe	0.40679163
171	0x3e55966c	0.20858163
172	0xbeacb2ea	-0.3373025
173	0x3ebc0910	0.36725664
174	0xbdb332b8	-0.08749908
175	0xbd0e16b0	-0.034689605
176	0xbea58690	-0.32329226
177	0x3d8288d8	0.06373757
178	0x3e700240	0.23438358
179	0xbeac1cd5	-0.33615747
180	0xbeb8b36b	-0.36074385
181	0x3e85ac6c	0.2610811
182	0x3e90f0c4	0.2830869
183	0xbeb9a374	-0.36257517
184	0x3d12cbe0	0.03583896
185	0xbeab40de	-0.33447927
186	0xbe057812	-0.13034084
187	0xbea90e67	-0.330188
188	0x3ea4b39a	0.32168275
189	0xbe961506	-0.29312915
190	0x3edb8adc	0.4287938
191	0x3ebebb10	0.37252092
192	0x3d813cb0	0.06310403
193	0xbdf5e424	-0.12006405
194	0xbe94f0ea	-0.29090053
195	0x3ddf24e8	0.10895711
196	0x3e67aae4	0.22623783
197	0xbda6a1e4	-0.08136347
198	0xbe155cc6	-0.14586172
199	0xbe739aea	-0.23789564

bias f4 [20]
0	0x00000000	0.0
1	0x00000000	0.0
2	0x00000000	0.0
3	0x00000000	0.0
4	0x00000000	0.0
5	0x00000000	0.0
6	0x00000000	0.0
7	0x00000000	0.0
8	0x00000000	0.0
9	0x00000000	0.0
10	0x00000000	0.0
11	0x00000000	0.0
12	0x00000000	0.0
13	0x00000000	0.0
14	0x00000000	0.0
15	0x00000000	0.0
16	0x00000000	0.0
17	0x00000000	0.0
18	0x00000000	0.0
19	0x00000000	0.0

weight f4 [10, 20]
0	0x3ec258a6	0.37958258
1	0x3e094e94	0.13408881
2	0xbedef2f5	-0.43544737
3	0x3e516fbc	0.2045278
4	0x3dbd6af0	0.09248912
5	0x3c9f14f0	0.019419163
6	0xbd394d00	-0.04523945
7	0x3ec7ba1c	0.39009178
8	0xbc8fa150	-0.017532974
9	0x3e97f9f2	0.2968288
10	0xbe376984	-0.17911345
11	0x3e68ef20	0.22747469
12	0x3e849bc6	0.25900096
13	0xbe685a26	-0.22690639
14	0x3d605060	0.05476415
15	0x3ecbda8a	0.3981517
16	0x3e70c6a0	0.2351327
17	0xbc6b07a0	-0.01434508
18	0x3d505008	0.050857574
19	0xbeaa8393	-0.33303508
20	0x3ebca644	0.368456
21	0x3a7e8200	0.00097087026
22	0xbe051592	-0.1299651
23	0xbe5d6eb3	-0.2162426
24	0x3ec9715a	0.39344293
25	0x3da9b788	0.08286959
26	0x3e042c64	0.12907559
27	0x3ec52e62	0.3851195
28	0xbec88f76	-0.39171952
29	0x3ed3fdac	0.41404474
30	0x3d0e0688	0.034674197
31	0x3ebb34f8	0.3656385
32	0x3ee29042	0.44250685
33	0x3ecd528c	0.4010204
34	0xbed1f534	-0.41007388
35	0xbe65393b	-0.22385113
36	0x3eda58da	0.42645913
37	0xbc72c100	-0.014816523
38	0xbd606dd0	-0.054792225
39	0x3c7495c0	0.014928281
40	0xbda41134	-0.08011094
41	0x3edc31c8	0.4300673
42	0x3ead3838	0.33831954
43	0x3e3849e4	0.17996937
44	0x3e516e04	0.20452124
45	0xbe817830	-0.25287008
46	0x3ee39ffe	0.44458002
47	0x3e94e2e8	0.29079366
48	0x3e5b02ac	0.21387738
49	0x3c89e370	0.016832083
50	0x3ec3dfd2	0.382567
51	0xbe580e98	-0.21099317
52	0xbeae8dde	-0.3409261
53	0x3d871690	0.065961
54	0xbe8fcacb	-0.28084406
55	0xbe64cc87	-0.22343646
56	0x3ed09d30	0.40744925
57	0x3e5df62c	0.21675938
58	0x3e3e5904	0.18588644
59	0x3ea1c2be	0.3159389
60	0x3ece2f96	0.4027068
61	0xbd11e130	-0.035615146
62	0xbe590d0f	-0.21196388
63	0x3ca75b30	0.020429224
64	0x3ecb793c	0.39740932
65	0xbed7ae89	-0.42125347
66	0xbe4921b6	-0.19641766
67	0x3ed727e6	0.42022628
68	0x3ec03550	0.37540674
69	0x3deee798	0.11665267
70	0x3d0b0f50	0.03395015
71	0xbea1d5e8	-0.3160851
72	0x3e505ed8	0.2034868
73	0xbd379b98	-0.04482612
74	0xbeb7ff1b	-0.35936818
75	0xbda2d7cc	-0.07951316
76	0x3e2f7bf0	0.17137122
77	0xbc9af930	-0.01891765
78	0x3e8cc80e	0.2749638
79	0x3e280038	0.16406333
80	0x3e128de0	0.14311934
81	0xbe0b2e38	-0.1359185
82	0x3ee40088	0.44531655
83	0x3ed100d6	0.4082095
84	0x3edba8f4	0.42902339
85	0x3e25e84c	0.16201895
86	0x3dec10d8	0.1152665
87	0x3e18f648	0.14937699
88	0x3eab1580	0.3341484
89	0xbe218da0	-0.15776682
90	0xbe38d72e	-0.18050835
91	0xbe83845f	-0.2568693
92	0xbdb55678	-0.08854383
93	0x3ec6e83c	0.38849056
94	0x3d5bc1c0	0.05365157
95	0x3e368f20	0.17828035
96	0x3ea7215e	0.32642645
97	0xbc1cb800	-0.009565353
98	0xbe702f98	-0.23455656
99	0x3ee4c622	0.44682413
100	0xbe5135de	-0.20430705
101	0x3d08aec8	0.03336981
102	0x3edc61d0	0.43043375
103	0xbe43993c	-0.19101423
104	0xbe36db46	-0.17857084
105	0x3edece6a	0.43516856
106	0xbedda10d	-0.43286934
107	0x3e82b1e2	0.2552634
108	0xbc8e0600	-0.017336845
109	0x3e1cd044	0.15313822
110	0xbd763778	-0.060111493
111	0x3e02eac8	0.12784874
112	0xbd8f72b8	-0.07004303
113	0xbec7b425	-0.39004627
114	0x3e411d7c	0.18858904
115	0xbeaa796c	-0.33295763
116	0x3e9efe16	0.31053227
117	0xbe515365	-0.20441969
118	0x3e84c190	0.25928926
119	0xbee30d32	-0.44346005
120	0xbe9e25ee	-0.30888313
121	0xbed54a69	-0.41658333
122	0x3d995438	0.074867666
123	0x3e6f41c8	0.23364937
124	0x3e4338a0	0.1906457
125	0xbe58d90e	-0.2117655
126	0xbdff0504	-0.124521285
127	0x3e99d414	0.30044615
128	0xbea522db	-0.32253155
129	0x3e515aa4	0.20444733
130	0xbe4742e0	-0.19459105
131	0xbcfe7da0	-0.031065762
132	0x3ea65af8	0.3249128
133	0xbedc3f15	-0.43016878
134	0x3e5c8ba4	0.21537644
135	0x3ebb5000	0.36584473
136	0x3daa5ea8	0.083188355
137	0x3d8b8dc8	0.06814152
138	0xbd810694	-0.06300083
139	0x3e1b9f10	0.15197396
140	0x3e41795c	0.18893951
141	0xbe6a1092	-0.22857884
142	0xbe0091e6	-0.12555656
143	0xbe8fd89e	-0.28094953
144	0xbddf4940	-0.10902643
145	0x3d0f2420	0.03494656
146	0xbee3b36b	-0.44472823
147	0xbe32711c	-0.1742596
148	0x3e546af0	0.20743918
149	0x3e9e1c94	0.30881178
150	0x3e1cbec0	0.1530714
151	0x3ec3c6aa	0.38237506
152	0x3ed288e0	0.41120052
153	0x3ec0ad32	0.37632138
154	0xbe16868c	-0.14699763
155	0x3e0b8134	0.13623506
156	0x3dd43bd8	0.10362977
157	0x3e213570	0.15743041
158	0x3d9d3428	0.07675964
159	0xbdf4d5a0	-0.11954808
160	0xbdb2e538	-0.08735126
161	0xbeb098fa	-0.34491712
162	0x3e6b4ef8	0.22979343
163	0xbe2f6352	-0.17127731
164	0xbee0d268	-0.43910527
165	0x3e33e434	0.17567521
166	0x3dc1ca68	0.09462434
167	0x3ebd6e1a	0.36998063
168	0x3e4553d8	0.19270265
169	0x3dfbd9e8	0.12297422
170	0xbe28d536	-0.16487584
171	0x3ed5aec6	0.41734904
172	0xbe0266c2	-0.12734511
173	0xbe54bdec	-0.20775574
174	0xbe1fdaba	-0.15610781
175	0xbee2ea5e	-0.44319433
176	0xbe0b595c	-0.13608307
177	0x3e91b176	0.28455704
178	0x3e028214	0.12744933
179	0x3db1b138	0.0867638
180	0x3ed0b38e	0.4076199
181	0x3e0cd27c	0.13752168
182	0xbe27c274	-0.16382772
183	0xbeb9121c	-0.3614663
184	0xbda6f644	-0.0815244
185	0xbe9de46e	-0.3083834
186	0x3daab5f0	0.08335483
187	0xbd970e14	-0.07375732
188	0x3e98495e	0.29743475
189	0xbc75e360	-0.015007824
190	0xbe832cda	-0.25620157
191	0x3d1ac150	0.037782013
192	0xbeb7baca	-0.35884696
193	0xbec75c26	-0.3893749
194	0x3ea6f830	0.32611227
195	0x39d6c800	0.00040966272
196	0x3e257c44	0.16160685
197	0x3e139ed4	0.14416057
198	0xbebbc582	-0.36674124
199	0xbd2c3c88	-0.042049915

bias f4 [20]
0	0x00000000	0.0
1	0x00000000	0.0
2	0x00000000	0.0
3	0x00000000	0.0
4	0x00000000	0.0
5	0x00000000	0.0
6	0x00000000	0.0
7	0x00000000	0.0
8	0x00000000	0.0
9	0x00000000	0.0
10	0x00000000	0.0
11	0x00000000	0.0
12	0x00000000	0.0
13	0x00000000	0.0
14	0x00000000	0.0
15	0x00000000	0.0
16	0x00000000	0.0
17	0x00000000	0.0
18	0x00000000	0.0
19	0x00000000	0.0

weight f4 [10, 20]
0	0xbd0e1af8	-0.03469369
1	0x3d824968	0.063616574
2	0x3e86cb20	0.26326847
3	0x3ec6541c	0.38736045
4	0x3c9b8b70	0.018987387
5	0x3e57da7c	0.21079439
6	0xbe1f75b2	-0.15572241
7	0x3e618198	0.22022092
8	0xbe0cbec4	-0.13744646
9	0x3e440d20	0.19145632
10	0xbed441b4	-0.41456378
11	0x3d4d5d60	0.050137877
12	0xbe16f2d8	-0.14741075
13	0xbec23534	-0.37931216
14	0xbde0f1a0	-0.10983586
15	0xbd8296fc	-0.06376454
16	0x3e01aa80	0.12662697
17	0x3de8f6e8	0.11375219
18	0xbeccea8c	-0.40022695
19	0xbecfd211	-0.40589955
20	0xbe909806	-0.28240985
21	0x3e3c8224	0.1840902
22	0xbeccd581	-0.4000664
23	0x3e241204	0.16022497
24	0xbe945954	-0.28974402
25	0x3e3e2d18	0.1857189
26	0xbea2a210	-0.3176427
27	0xbe8480e4	-0.25879586
28	0x3d4b8908	0.04969123
29	0xbd2d3ea0	-0.042296052
30	0xbe9bb637	-0.30412456
31	0xbe5841db	-0.21118872
32	0xbd679ac0	-0.056544065
33	0x3eab9354	0.3351084
34	0x3ea394be	0.3194942
35	0x3e21c654	0.15798312
36	0x3ea0639a	0.3132599
37	0x3c652540	0.013985932
38	0xbe1ccdc8	-0.15312874
39	0xbec72b9b	-0.38900456
40	0xbe94a9d4	-0.2903582
41	0xbd752900	-0.059853554
42	0x3ed75d30	0.42063284
43	0xbe4ec836	-0.20193562
44	0xbe3c1356	-0.18366751
45	0xbe6e99a9	-0.23300804
46	0x3e08748c	0.13325709
47	0x3ec27fb4	0.37988055
48	0x3ec83f58	0.39110827
49	0xbe7f8cef	-0.24956106
50	0xbe7dbb83	-0.24778561
51	0x3db28290	0.08716309
52	0x3ec21132	0.37903744
53	0x3c9c3f40	0.019073129
54	0x3e370f8c	0.17877024
55	0xbebfb137	-0.37439892
56	0x3ecd6366	0.40114897
57	0x3cd91100	0.026497364
58	0xbeb4e9a4	-0.35334504
59	0x3dd7c7c8	0.10536152
60	0xbdac7198	-0.08420104
61	0x3d9dc1e0	0.07702994
62	0xbe73620d	-0.23767872
63	0x3e312fd4	0.17303401
64	0x3eb18a86	0.34675997
65	0x3ebcd2d4	0.368796
66	0x3e257a40	0.16159916
67	0xbcdd43c0	-0.027009845
68	0xbe39adf0	-0.18132758
69	0x3eb45696	0.3522231
70	0xbe584e41	-0.21123601
71	0x3e826524	0.2546779
72	0x3e4db440	0.20088291
73	0x3ecb250a	0.39676696
74	0xbdbb95a0	-0.09159398
75	0x397ad800	0.00023922324
76	0xbe388030	-0.1801765
77	0xbde3b8a4	-0.11119202
78	0x3dc5d3a8	0.09659511
79	0x3e516d2c	0.20451802
80	0x3d147350	0.036242783
81	0x3d5c69c0	0.05381179
82	0xbe37fbe8	-0.17967188
83	0xbd4464b0	-0.047947586
84	0xbebe0e97	-0.37120506
85	0x3e33f7b8	0.17574966
86	0xbe36b6d6	-0.17843184
87	0x3e26948c	0.16267604
88	0xbe725b9b	-0.23667757
89	0x3e8795c6	0.26481456
90	0x3eccc720	0.3999567
91	0x3ed361e6	0.41285628
92	0x3e8ee444	0.27908528
93	0xbe80acd4	-0.25131857
94	0xbec4435b	-0.38332638
95	0x3eca07ac	0.39458978
96	0xbcaaae20	-0.020834982
97	0x3eac5a06	0.33662432
98	0xbeaa8db0	-0.33311224
99	0xbe23c1dc	-0.1599192
100	0x3ea97dcc	0.33103788
101	0xbe11ace0	-0.14226103
102	0x3e9e3830	0.30902243
103	0x3db743a0	0.08948445
104	0xbea49bfe	-0.32150263
105	0x3e827364	0.2547866
106	0xbe47c172	-0.19507387
107	0xbcce6530	-0.025194734
108	0xbdc858ec	-0.097825855
109	0xbe34a452	-0.17640808
110	0xbdbc99fc	-0.09209058
111	0x3deb71b0	0.114962935
112	0xbe74044a	-0.23829761
113	0xbe90e01c	-0.28295982
114	0x3d786fe0	0.060653567
115	0xbd3620a8	-0.044464737
116	0x3e9f0a72	0.31062657
117	0x3e0d4bc8	0.1379844
118	0xbe04f716	-0.12984881
119	0x3bd788c0	0.006577581
120	0xbe268576	-0.16261849
121	0x3ec1b0dc	0.37830245
122	0x3ec45490	0.38345766
123	0xbe56570a	-0.2093164
124	0x3eb64be2	0.3560477
125	0xbce9f2c0	-0.028558135
126	0x3ec51766	0.38494414
127	0x3e7d0748	0.24709809
128	0x3ddcf2d0	0.107885
129	0x3e5b6cf8	0.21428287
130	0xbeafbce4	-0.343238
131	0xbe208f58	-0.15679681
132	0xbddd4a9c	-0.10805246
133	0x3e97a4f2	0.2961803
134	0xbe71dea3	-0.23620085
135	0x3e2e1860	0.17001486
136	0xbeb69f68	-0.35668492
137	0x3e79bd98	0.2438873
138	0xbe1ee5fe	-0.15517423
139	0xbdcf24d4	-0.10114446
140	0x3e9d4218	0.30714488
141	0x3edf5bee	0.43624824
142	0xbe5f0a6a	-0.21781316
143	0xbeac851a	-0.33695298
144	0xbeb1ebf3	-0.34750327
145	0x3ea2a5aa	0.31767017
146	0xbea39764	-0.3195144
147	0xbe8f4273	-0.27980384
148	0xbebb6de4	-0.36607277
149	0x3d9cad28	0.076502144
150	0x3ee0eee0	0.43932247
151	0x3e691638	0.22762382
152	0x3d0b2ba8	0.03397718
153	0x3e51f368	0.20503008
154	0xbe0d467c	-0.13796419
155	0xbea73b26	-0.32662314
156	0x3e005104	0.12530905
157	0x3db00958	0.08595532
158	0xbea0ea77	-0.31428882
159	0x3e90d3f0	0.28286695
160	0x3eacfca8	0.3378651
161	0xbed9475a	-0.4243725
162	0xbd9db03c	-0.0769963
163	0xbeae5adf	-0.34053704
164	0xbdbaff50	-0.09130728
165	0xbda5c444	-0.08094075
166	0xbd94b9d0	-0.072620034
167	0x3b9c5440	0.0047707856
168	0xbedf6c08	-0.4363711
169	0xbdbfde5c	-0.093685836
170	0x3e0795dc	0.1324076
171	0xbe9068eb	-0.28205046
172	0xbe58bdfc	-0.21166223
173	0xbdd0a520	-0.10187745
174	0x3bcb9000	0.0062122345
175	0x3e909c68	0.28244328
176	0x3e1ee394	0.15516502
177	0x3e66a538	0.22523963
178	0xbee408fe	-0.4453811
179	0xbdee81a8	-0.11645824
180	0xbe87a0de	-0.2648992
181	0x3ecccbb0	0.3999915
182	0x3ede986a	0.43475658
183	0xbea1305a	-0.31482202
184	0xbb91d080	-0.004449904
185	0x3ee29c4c	0.4425987
186	0x3eb22e44	0.34800923
187	0xbdf3ead8	-0.11910027
188	0x3e9667a0	0.29375935
189	0x3ee4c3ae	0.44680542
190	0xbe7162e6	-0.23572883
191	0x3e45e118	0.19324148
192	0x3e92258e	0.28544277
193	0x3ea06692	0.31328255
194	0xbc587b20	-0.013212949
195	0x3e27b3c0	0.16377163
196	0xbdc3aef0	-0.09554851
197	0x3df3a2a0	0.11896253
198	0xbe1e2dc4	-0.15447146
199	0x3e84ca66	0.25935668

bias f4 [20]
0	0x00000000	0.0
1	0x00000000	0.0
2	0x00000000	0.0
3	0x00000000	0.0
4	0x00000000	0.0
5	0x00000000	0.0
6	0x00000000	0.0
7	0x00000000	0.0
8	0x00000000	0.0
9	0x00000000	0.0
10	0x00000000	0.0
11	0x00000000	0.0
12	0x00000000	0.0
13	0x00000000	0.0
14	0x00000000	0.0
15	0x00000000	0.0
16	0x00000000	0.0
17	0x00000000	0.0
18	0x00000000	0.0
19	0x00000000	0.0

weight f4 [10, 20]
0	0x3e46c030	0.19409251
1	0x3e04c8a8	0.1296717
2	0xbec686d2	-0.38774735
3	0x3eb75a9a	0.3581131
4	0xbeaf5501	-0.3424454
5	0x3ec5a33e	0.38601106
6	0xbd659cf8	-0.0560579
7	0x3caaf8d0	0.020870596
8	0xbe408fa0	-0.18804789
9	0xbc6d23a0	-0.014473826
10	0xbecec07a	-0.40381223
11	0x3dd16710	0.10224736
12	0xbe7b79eb	-0.24558227
13	0xbe31bcd0	-0.17357183
14	0x3e5d9214	0.21637756
15	0xbd17e6c8	-0.037085325
16	0x3e03ecb8	0.1288327
17	0x3da34150	0.07971442
18	0xbe9db1b4	-0.3079964
19	0xbed04ec5	-0.40685096
20	0x3c279620	0.010228664
21	0xbe96607a	-0.2937048
22	0xbd9c2104	-0.07623485
23	0xbed09a12	-0.40742546
24	0xbecfb887	-0.4057047
25	0xbe6a6e75	-0.22893699
26	0xbe94de3c	-0.290758
27	0x3df56400	0.11981964
28	0x3ee2f00e	0.44323772
29	0x3d154820	0.036445737
30	0xbea67da6	-0.32517737
31	0xbddee578	-0.108836114
32	0x3eb1f0dc	0.34754074
33	0x3e003574	0.12520391
34	0xbddf8abc	-0.10915133
35	0xbe95630b	-0.29177126
36	0x3e9b1424	0.30288804
37	0xbe9b4729	-0.30327728
38	0x3e13a924	0.14419991
39	0xbd8b21e0	-0.067935705
40	0x3c52b1c0	0.012859762
41	0xbed96ad4	-0.42464316
42	0xbe43e6be	-0.1913099
43	0xbecac885	-0.3960611
44	0xbdc4fab8	-0.09618133
45	0xbe47c828	-0.19509947
46	0xbe0ab6d4	-0.13546306
47	0x3df030c8	0.11728054
48	0x3e708b2c	0.2349059
49	0xbe7902e7	-0.24317513
50	0x3d5a3e70	0.0532822
51	0xbe9661aa	-0.29371387
52	0xbe827352	-0.25478607
53	0xbea1b868	-0.31586003
54	0x3c454c80	0.012042165
55	0x3e662760	0.22475958
56	0xbdb4e3b4	-0.088324934
57	0x3eb2b964	0.34907067
58	0x3e797da8	0.2436434
59	0xbec80219	-0.390641
60	0x3d70f5c0	0.058828115
61	0x3ee1fb36	0.4413697
62	0xbe126d60	-0.14299536
63	0xbea954e7	-0.33072588
64	0x3ee4e152	0.44703156
65	0xbe318d4c	-0.17339057
66	0x3dc48af8	0.09596819
67	0x3dbce5c8	0.09223515
68	0xbe65e5da	-0.22450963
69	0xbe0b3d08	-0.135975
70	0x3c531220	0.012882739
71	0x3ec6efa0	0.38854694
72	0x3d9c89c0	0.07643461
73	0xbcc628e0	-0.024189413
74	0x3ed61f7a	0.4182089
75	0xbe61f523	-0.22066168
76	0xbedb9764	-0.4288894
77	0xbed2c215	-0.41163698
78	0x3dbb0a40	0.091328144
79	0x3e8cfd98	0.27537227
80	0x3e0ac378	0.13551128
81	0xbeced76e	-0.40398735
82	0x3e9cb86a	0.30609447
83	0xbe81276c	-0.2522539
84	0xbe2c3446	-0.16816816
85	0xbe1229a6	-0.142737
86	0xbd205ae8	-0.039149195
87	0x3cdf0f80	0.02722907
88	0x3e10c310	0.1413691
89	0x3e533750	0.20626569
90	0x3e4223ac	0.1895892
91	0xbee339ae	-0.44379944
92	0xbe2e08d0	-0.16995549
93	0xbedf6ded	-0.43638554
94	0x3d7a37e0	0.061088443
95	0xbe1be970	-0.15225768
96	0x3ed67bf8	0.41891456
97	0x3dc650a0	0.09683347
98	0x3e26421c	0.16236156
99	0x3ed48c54	0.41513312
100	0x3e113d80	0.14183617
101	0xbe9e5ad6	-0.30928677
102	0xbe399c84	-0.18126112
103	0xbeb616eb	-0.3556436
104	0xbd787868	-0.060661703
105	0x3ece72d8	0.40321994
106	0xbe21cfe6	-0.15801963
107	0xbe2dae3a	-0.16960993
108	0xbddf503c	-0.10903975
109	0xbdc7e298	-0.09760016
110	0xbecf3237	-0.40467998
111	0x3e04d1ac	0.12970608
112	0x3eb3f55c	0.35148132
113	0xbdd749b0	-0.10512102
114	0xbd74d378	-0.059771985
115	0xbe5e96e1	-0.21737243
116	0x3e25b2f4	0.16181546
117	0xbecbc5bf	-0.39799306
118	0x3d656400	0.05600357
119	0xbeb61f3a	-0.355707
120	0xbd84a6a8	-0.064771
121	0xbedcbb23	-0.43111524
122	0xbe31bb18	-0.17356527
123	0x3eadedaa	0.33970386
124	0xbebf56da	-0.3737095
125	0xbed55a29	-0.4167035
126	0xbea5750a	-0.32315856
127	0x3e94f32c	0.29091775
128	0x3e1e8e44	0.15483958
129	0x3eb6c562	0.35697466
130	0xbe22f05e	-0.15912005
131	0x3eb7cf58	0.35900378
132	0xbe9cdc38	-0.30636764
133	0x3d2ea2c8	0.04263571
134	0xbebfbb8d	-0.37447777
135	0xbdf6fea4	-0.120602876
136	0xbeb858a6	-0.36005133
137	0x3ee220e6	0.44165725
138	0xbec9e840	-0.39435005
139	0xbd4d5c78	-0.050137013
140	0x3e014b5c	0.12626404
141	0xbecb7f95	-0.39745775
142	0x3d8681b0	0.06567705
143	0x3df95e20	0.12176156
144	0x3ecc8aac	0.39949548
145	0x3e9e68f2	0.30939442
146	0x3e477638	0.1947869
147	0x3ec319b8	0.3810556
148	0x3e8b66c0	0.2722683
149	0x3ed50310	0.416039
150	0x3eadff56	0.33983868
151	0x3e593778	0.21212566
152	0xbecb0012	-0.3964849
153	0x3eb537aa	0.3539403
154	0xbe26f964	-0.16306072
155	0x3ee37c12	0.44430596
156	0x3ed27bd2	0.41110092
157	0xbee13de4	-0.4399253
158	0x3ee1628a	0.44020492
159	0x3d996698	0.07490271
160	0x3eabe590	0.3357358
161	0xbecd363e	-0.40080446
162	0x3e4cbe74	0.19994527
163	0x3ec1a998	0.37824702
164	0xbe7ce7da	-0.2469782
165	0xbdb0e2ac	-0.08636984
166	0xbe4dc176	-0.2009333
167	0x3d756850	0.059913933
168	0xbe96d600	-0.29460144
169	0x3e5cb3ac	0.21552914
170	0x3e45a6d8	0.19301927
171	0xbe036b56	-0.12833914
172	0xbec76e3f	-0.389513
173	0x3e1ba7d4	0.1520074
174	0x3e310f60	0.17291021
175	0x3ddb9aa8	0.10722858
176	0xbe1d4a50	-0.15360379
177	0x3eb6338e	0.35586208
178	0xbe8cb542	-0.2748204
179	0x3e511a54	0.204202
180	0x3dfa0c10	0.12209332
181	0x3eb793ec	0.35855043
182	0xbea516d6	-0.32243985
183	0x3e9f1a6a	0.3107484
184	0xbdf69780	-0.12040615
185	0x3e98fdec	0.29881227
186	0x3e4a1f88	0.1973859
187	0xbdecaee0	-0.11556792
188	0x3eb26600	0.34843445
189	0xbd1e6c78	-0.038677663
190	0x3d30fb70	0.04320854
191	0x3ed421a8	0.41431928
192	0x3ec40984	0.3828851
193	0x3daab388	0.08335024
194	0xbe98c252	-0.29835755
195	0xbe54f095	-0.207949
196	0x3e7b3000	0.2453003
197	0x3dfdb300	0.12387657
198	0xbd0ca128	-0.034333378
199	0x3c547900	0.012968302

bias f4 [20]
0	0x00000000	0.0
1	0x00000000	0.0
2	0x00000000	0.0
3	0x00000000	0.0
4	0x00000000	0.0
5	0x00000000	0.0
6	0x00000000	0.0
7	0x00000000	0.0
8	0x00000000	0.0
9	0x00000000	0.0
10	0x00000000	0.0
11	0x00000000	0.0
12	0x00000000	0.0
13	0x00000000	0.0
14	0x00000000	0.0
15	0x00000000	0.0
16	0x00000000	0.0
17	0x00000000	0.0
18	0x00000000	0.0
19	0x00000000	0.0

weight f4 [10, 20]
0	0xbee21742	-0.4415837
1	0xbe8ad2b2	-0.27113873
2	0xbebdcc7e	-0.37070078
3	0x3b95f040	0.004575759
4	0x3ecf10f2	0.40442616
5	0x3e93b898	0.2885177
6	0x3ecc32f0	0.39882612
7	0xbe85060b	-0.25981173
8	0x3dd04918	0.101701915
9	0x3eca518c	0.3951534
10	0x3d478508	0.048710853
11	0x3b4ac180	0.003093809
12	0xbd94cc90	-0.0726558
13	0x3e5200b4	0.2050808
14	0xbe17b6e2	-0.14815858
15	0xbe95f710	-0.29290056
16	0xbd235150	-0.039872468
17	0x3e8821a4	0.26588166
18	0x3c9e2620	0.019305289
19	0x3ec1b54e	0.37833637
20	0x3e31f1c0	0.17377377
21	0x3d3ad158	0.045609802
22	0x3e8360a6	0.25659674
23	0x3ed34f2a	0.41271335
24	0x3e90f50a	0.2831195
25	0xbeb213df	-0.34780785
26	0xbe70f6ec	-0.23531693
27	0xbd9d6cb0	-0.07686746
28	0xbe3affc2	-0.18261626
29	0xbe1226a8	-0.14272559
30	0x3e604c9c	0.21904224
31	0x3e61cd88	0.2205106
32	0xbecb01ce	-0.39649814
33	0xbd8a4c00	-0.06752777
34	0xbea9e51c	-0.3318261
35	0x3eb99658	0.36247516
36	0x3cbdcba0	0.023168385
37	0xbe9b7982	-0.3036614
38	0xbda5e78c	-0.08100805
39	0xbedc5f90	-0.43041658
40	0xbee1061d	-0.43949977
41	0xbe990198	-0.29884028
42	0xbe7cdd46	-0.24693784
43	0xbd9a09e4	-0.07521418
44	0x3e459098	0.1929344
45	0xbe26c5b2	-0.16286352
46	0x3dd47ec0	0.10375738
47	0x3e14ad0c	0.14519137
48	0xbec7ea7b	-0.39046082
49	0x3e0b08dc	0.13577598
50	0x3de5a1e8	0.11212522
51	0x3ee4198c	0.4455074
52	0x3ecac30e	0.3960194
53	0x3eaa292a	0.3323453
54	0xbe9fe1ac	-0.3122686
55	0xbee160b2	-0.44019085
56	0x3eabfb56	0.33590192
57	0xbed1adda	-0.4095295
58	0x3e88a44c	0.2668785
59	0xbd76e660	-0.060278296
60	0x3e81d1ac	0.2535528
61	0x3ecf72f0	0.40517378
62	0x3e1cdefc	0.15319437
63	0x3e529314	0.20563918
64	0x3d813f00	0.063108444
65	0x3d1cf0e0	0.038315654
66	0x3ec44d7c	0.38340366
67	0xbe7eb1bb	-0.24872486
68	0x3e7fb56c	0.2497155
69	0x3e140168	0.14453661
70	0xbeb0303b	-0.34411797
71	0xbe997d2e	-0.29978317
72	0x3ea3f726	0.32024497
73	0xbdd8c930	-0.105852485
74	0xbeb9d621	-0.3629618
75	0x3e6f5afc	0.23374552
76	0xbebedbaa	-0.37276965
77	0xbe08a400	-0.13343811
78	0x3e636d70	0.22209716
79	0xbedbca8c	-0.42927969
80	0x3e6ab9a4	0.22922379
81	0xbe1b764e	-0.15181848
82	0xbea7df16	-0.3278739
83	0x3bbd5b40	0.0057787
84	0xbeb256f4	-0.34831965
85	0xbe9e0f6e	-0.30871147
86	0x3e8fc2fe	0.28078455
87	0x3d374768	0.044745833
88	0x3ec2268e	0.3792004
89	0x3ee43874	0.4457432
90	0xbde84a84	-0.11342338
91	0x3d766360	0.060153365
92	0xbe933acc	-0.28755796
93	0xbde6daf8	-0.11272234
94	0xbd7d8e28	-0.06190315
95	0xbcc2a690	-0.023761064
96	0xbd64f900	-0.055901527
97	0x3dab3cf0	0.08361232
98	0xbd81c54c	-0.063364595
99	0x3ea95e42	0.33079726
100	0x3e4e0a8c	0.20121211
101	0x3ea5fb4c	0.32418287
102	0xbed8aa7c	-0.4231757
103	0xbebe6bde	-0.3719167
104	0xbec5fdda	-0.38670236
105	0xbed7cc6a	-0.42148143
106	0xbeccdcfa	-0.40012342
107	0x3e655ae8	0.22397959
108	0xbe8b6916	-0.27228612
109	0xbe1388d6	-0.14407668
110	0xbe2630ec	-0.162296
111	0x3e5c59dc	0.21518654
112	0xbed9b162	-0.42518145
113	0xbd52a798	-0.05142936
114	0x3ed83c40	0.42233467
115	0xbb8edc40	-0.004359752
116	0xbee3438c	-0.44387472
117	0xbebf8efa	-0.3741377
118	0xbd4a0438	-0.04932043
119	0xbdefc3e0	-0.11707282
120	0x3e5ec454	0.2175458
121	0xbe0327e4	-0.12808186
122	0xbe027504	-0.1273995
123	0xbe032354	-0.12806445
124	0x3b26c880	0.0025449097
125	0x3ec382ae	0.38185638
126	0x3e43b6d8	0.19112718
127	0x3ea07eb6	0.31346673
128	0xbed3687a	-0.41290647
129	0xbedf3b94	-0.43600142
130	0xbebae725	-0.36504474
131	0xbe449f10	-0.19201303
132	0xbe8414c9	-0.25797108
133	0xbe2d3e78	-0.16918361
134	0x3e9dd73e	0.3082828
135	0xbe8f8228	-0.2802899
136	0x3e92c718	0.2866752
137	0xbe727af4	-0.23679715
138	0x3ed1d318	0.40981364
139	0xbe07c284	-0.13257796
140	0xbe09d312	-0.13459423
141	0x3db62430	0.08893621
142	0xbe020024	-0.12695366
143	0x3eb4949c	0.3526963
144	0x3edb8860	0.42877483
145	0x3e2b5908	0.16733181
146	0x3e361a84	0.17783552
147	0xbe456c64	-0.19279629
148	0xbed11fcb	-0.4084457
149	0x3d4de8c8	0.050270826
150	0xbea3b859	-0.31976584
151	0xbe4359a6	-0.19077167
152	0x3e925240	0.28578377
153	0xbd2cdf20	-0.042204976
154	0xbed40f6d	-0.4141802
155	0xbd7ac820	-0.06122601
156	0xbe8c4221	-0.27394202
157	0xbdb98414	-0.09058395
158	0xbe52c508	-0.20582974
159	0xbe95549f	-0.29166123
160	0x3df3ae88	0.118985236
161	0x3eb69c08	0.35665917
162	0xbe06d4b4	-0.13167077
163	0x3edd359e	0.4320497
164	0xbe54e9c7	-0.20792304
165	0xbe3d3194	-0.18475944
166	0xbeda19b9	-0.4259775
167	0xbd8f8bc4	-0.0700908
168	0xbe98fb5c	-0.29879272
169	0xbe7efac0	-0.24900341
170	0x3e8786ce	0.26470035
171	0x3e80f4a8	0.25186658
172	0x3e9fb12e	0.31189865
173	0x3e854720	0.26030827
174	0xbc077de0	-0.008269757
175	0x3e6fdc98	0.23423994
176	0x3ea3d9d8	0.3200214
177	0xbea75e41	-0.32689098
178	0x3d72e440	0.059299707
179	0x3e78d200	0.24298859
180	0xbe3b6bde	-0.18302867
181	0xbe5734ca	-0.21016231
182	0xbea7d780	-0.327816
183	0x3ed44d66	0.414653
184	0x3ea58758	0.32329822
185	0x3e8824a0	0.26590443
186	0xbec88b73	-0.3916889
187	0x3eb0c020	0.3452158
188	0xbe678d5a	-0.22612515
189	0xbe9a4c20	-0.30136204
190	0xbea572bd	-0.323141
191	0xbe1d36ee	-0.15352985
192	0x3edbb5ca	0.42912132
193	0xbe45d8f4	-0.19321042
194	0x3d73d2b0	0.0595271
195	0x3cde07c0	0.027103305
196	0x3d2cb090	0.04216057
197	0x3e0507a0	0.1299119
198	0xbe73b62b	-0.2379996
199	0xbeb3c71a	-0.3511284

bias f4 [20]
0	0x00000000	0.0
1	0x00000000	0.0
2	0x00000000	0.0
3	0x00000000	0.0
4	0x00000000	0.0
5	0x00000000	0.0
6	0x00000000	0.0
7	0x00000000	0.0
8	0x00000000	0.0
9	0x00000000	0.0
10	0x00000000	0.0
11	0x00000000	0.0
12	0x00000000	0.0
13	0x00000000	0.0
14	0x00000000	0.0
15	0x00000000	0.0
16	0x00000000	0.0
17	0x00000000	0.0
18	0x00000000	0.0
19	0x00000000	0.0
