models/AIFB_Trained_Model.pt (torch, 208017 bytes, 312 tensors)

weight f4 [10, 20]
000000 9c 01 b0 3e f6 c1 e2 3e 8e db 3f be c4 89 df bd
       0.34376228 0.44288605 -0.18736097 -0.109149486
000010 ec 3f c6 be 00 38 8c 3e d0 76 95 bd 97 33 e2 be
       -0.38720644 0.27386475 -0.07298052 -0.44179985
000020 66 db a8 be 10 37 8e be ce 8a c4 be 23 f7 db be
       -0.32979888 -0.27776384 -0.3838715 -0.42961988
000030 92 0d 86 be 6a b6 25 be e4 04 d0 3e a8 b9 83 be
       -0.26182228 -0.16182867 0.4062873 -0.25727582
000040 10 7d 62 3e d2 cc 81 be 40 0a fd 3d 52 ad b2 be
       0.2211802 -0.25351578 0.12355471 -0.34897858
000050 a8 94 b8 be d0 08 44 3e 68 51 11 bd 22 34 7f be
       -0.36050916 0.19143987 -0.035478026 -0.24922231
000060 6a d3 b3 be fb 31 a6 be b6 4e 2a be 44 9f 4b 3e
       -0.35122234 -0.32460007 -0.16631588 0.19884974
000070 0c 6a 4c 3e 28 59 3c be 80 82 df 3e e0 10 69 be
       0.19962329 -0.18393385 0.4365425 -0.22760344
000080 e4 1c 2a be dd 7d 8a be 36 32 df be ce 9f a8 3e
       -0.16612583 -0.2704915 -0.43592995 0.3293442
000090 02 de e1 be dc e9 7a 3e 24 68 c4 3e ca 41 89 be
       -0.4411469 0.24503273 0.38360703 -0.26808006
0000a0 78 98 97 be 70 f2 6e 3d 02 52 18 be 90 62 a9 3e
       -0.29608512 0.058336675 -0.14875033 0.3308301
0000b0 a2 e9 98 be fe 2d d6 3e 4f 18 e4 be 09 49 b0 be
       -0.29865748 0.41831964 -0.44549796 -0.3443072
0000c0 08 e4 e3 be 7e 56 47 be ec 0a e3 bd c0 ca 38 3d
       -0.44509912 -0.19466588 -0.110860676 0.045115232
0000d0 9e a3 00 be 08 e6 3e be 4e e6 43 be 48 58 51 3e
       -0.12562415 -0.18642437 -0.19130823 0.20443833
0000e0 08 56 d2 be 69 a6 c5 be bc 14 b1 be 98 7f 92 3e
       -0.41081262 -0.38603523 -0.34586132 0.2861297
0000f0 ea 52 b3 3e 9d a8 d6 be b6 f7 2e be 4c a1 b5 3e
       0.35024196 -0.41925517 -0.17086682 0.35474622
000100 c1 7c bc be 48 18 7e 3e 76 6b 1d be b0 fd 64 3e
       -0.3681393 0.2481395 -0.15373024 0.22362399
000110 9c 21 65 be 80 e3 a8 3d 76 57 0d be fc ad d1 bd
       -0.22376102 0.08246517 -0.13802895 -0.10238263
000120 40 b0 fb 3b a8 0d ca 3e c4 26 d9 3e f4 ce c5 3e
       0.0076809227 0.39463544 0.42412388 0.38634455
000130 cc ef df 3e 38 88 c2 3e a4 74 cd 3e 40 95 84 3c
       0.43737638 0.37994552 0.40128052 0.01618445
000140 7c 69 2b 3e 0a 1f 9e be 98 bc eb 3d f4 1d c5 3e
       0.16739458 -0.30883056 0.11510581 0.38499415
000150 a0 45 c2 3d 1a 27 c5 3e 62 2e ac 3e 5c 95 7c 3e
       0.09485936 0.38506395 0.33629137 0.24666351
000160 c8 02 cb 3d 06 4a 9a 3e 94 2d b0 bd c0 40 b1 3e
       0.0991264 0.301346 -0.08602443 0.34619713
000170 5c 65 8a be b8 c2 85 3d 80 9f ac bb 84 59 af bd
       -0.27030456 0.0653128 -0.0052680373 -0.085619956
000180 61 2b ab be 72 ae c5 be c2 73 c9 3e f0 cf 28 bd
       -0.33431533 -0.38609654 0.3934613 -0.04121393
000190 2f ad 7c be 44 91 bf be d8 63 83 be 00 2b dd bc
       -0.2467544 -0.37415516 -0.25662112 -0.026998043
0001a0 a5 82 c1 be a0 a1 fe 3c 80 06 73 3e 69 43 52 be
       -0.37794986 0.031082928 0.23732948 -0.20533527
0001b0 40 62 cf be 74 22 bd bd 28 e2 b9 3d cc f3 b1 be
       -0.40504646 -0.09235087 0.09076339 -0.34756315
0001c0 84 2c 71 3e a8 e2 f9 3d b8 57 ef 3d 99 ab d6 be
       0.23552138 0.122014344 0.11686653 -0.41927794
0001d0 d8 88 d9 3e e0 b7 10 be ce 90 3c be 1c 9f 75 3e
       0.42487216 -0.14132643 -0.18414614 0.23986477
0001e0 78 bf 1e bd 5e 57 a8 3e 04 fb c0 3e 10 9b a4 3e
       -0.038756818 0.32879156 0.3769151 0.32149553
0001f0 54 74 4e 3e 96 86 b4 be 4c 19 e2 be 18 e0 83 bd
       0.20161563 -0.3525893 -0.44159925 -0.06439227
000200 cc 8f ba be 1c 4b a2 3e 28 81 ff bd ce b0 ab 3e
       -0.36437833 0.3169793 -0.124758065 0.3353333
000210 eb fd 94 be 94 f8 bd 3e 91 2e d2 be 70 38 81 3e
       -0.29099974 0.37103713 -0.41051152 0.2523837
000220 9c 2c 01 be 00 b2 88 3a 58 f8 80 3d ea 39 21 be
       -0.12614673 0.0010429025 0.06297368 -0.15744749
000230 93 9f 97 be 20 a9 17 bc 70 9d 10 3e 20 0c 76 3d
       -0.29613933 -0.009256631 0.14122558 0.060070157
000240 58 f4 89 3d 8a e7 94 3e 54 bd d5 3e 04 6e 52 3e
       0.06736058 0.290829 0.41746008 0.2054978
000250 e8 79 a4 3d e8 23 d1 be 30 b7 be 3e a0 2a 39 bc
       0.08031064 -0.40847707 0.37249136 -0.0113016665
000260 13 58 8e be b0 8b f2 3d f8 72 57 3e 78 49 cf 3e
       -0.2780157 0.118430495 0.21039951 0.4048574
000270 07 21 b5 be e4 9e 8d be bf 01 d2 be 90 74 f7 3c
       -0.3537676 -0.27660286 -0.41016957 0.030206949
000280 f8 29 98 3d 98 1b de be 8a 35 81 be 10 e6 f1 bd
       0.0742988 -0.43380427 -0.2523616 -0.11811459
000290 96 83 41 be 70 85 7c 3d 1a 5f be 3e b0 c8 7b 3e
       -0.18897852 0.061650693 0.37181932 0.24588275
0002a0 a8 b9 f8 3d ec 7e de 3e 18 ae a0 be 48 14 94 3d
       0.12144786 0.4345621 -0.31382823 0.07230431
0002b0 74 09 9d be 38 29 75 bd 9a fb a2 3e 6c 40 c7 3e
       -0.30671275 -0.059853762 0.31832582 0.38916337
0002c0 34 ed 85 3e 54 42 20 be 58 63 b5 3d 0b 54 de be
       0.26157534 -0.15650302 0.08856839 -0.43423495
0002d0 20 ad c7 bd aa 2b d9 be 68 76 00 bd be 91 da be
       -0.09749818 -0.42416126 -0.03136292 -0.42689317
0002e0 84 9f 6d be 9c e4 8a 3e d0 d0 83 3e 76 b9 b1 3e
       -0.23205382 0.2712754 0.2574525 0.34711808
0002f0 be c5 cf 3e c0 ad 3d bc 22 54 75 be 52 06 5f be
       0.40580553 -0.01157707 -0.23957875 -0.21779755
000300 60 3f b7 bc 24 7a 6e 3e 2c f4 91 bd 30 b5 f2 3d
       -0.022369087 0.2328878 -0.0712665 0.11850965
000310 52 b0 22 be 32 7d cf 3e 50 3f 0b 3e 30 1e e0 3d
       -0.15887573 0.40525204 0.1359837 0.10943258

bias f4 [20]
000000 00 00 00 00 00 00 00 00 00 00 00 00 00 00 00 00
       0.0 0.0 0.0 0.0
000010 00 00 00 00 00 00 00 00 00 00 00 00 00 00 00 00
       0.0 0.0 0.0 0.0
000020 00 00 00 00 00 00 00 00 00 00 00 00 00 00 00 00
       0.0 0.0 0.0 0.0
000030 00 00 00 00 00 00 00 00 00 00 00 00 00 00 00 00
       0.0 0.0 0.0 0.0
000040 00 00 00 00 00 00 00 00 00 00 00 00 00 00 00 00
       0.0 0.0 0.0 0.0

weight f4 [10, 20]
000000 60 d1 a5 bc 5b 99 6e be e8 2a ed 3d e4 fe 9b be
       -0.02024144 -0.23300688 0.11580449 -0.30467904
000010 c8 30 37 3d ea f7 30 be c5 f0 6e be 08 48 ac 3e
       0.044724256 -0.17282072 -0.23334034 0.33648705
000020 f2 e9 a1 3e 5c f6 a7 3e 98 d6 9d 3d 18 83 e0 3e
       0.316238 0.32805145 0.07706946 0.43850017
000030 24 39 4c be ab f9 b6 be 17 66 de be 4c f9 aa be
       -0.19943672 -0.35737357 -0.43437263 -0.33393323
000040 50 82 d9 bd 3c 7a 10 3e f6 1e 8e be c6 e4 d4 3e
       -0.10620558 0.14109129 -0.27757996 0.4158079
000050 8e 6b d9 3e 60 2c 75 3c 74 74 43 be cc 63 bd 3e
       0.4246487 0.014964193 -0.19087392 0.369902
000060 7c 07 b5 be 84 3a bb bd 44 e0 11 3e 20 f4 9a 3d
       -0.35357273 -0.0914202 0.14245707 0.075660944
000070 10 8c 8e bd ca 01 c7 3e 38 8e fa bd 0b e6 8a be
       -0.069603086 0.38868552 -0.12234157 -0.27128634
000080 91 5f 92 be 67 9f 6d be b8 f4 9a 3e 2e ab 88 be
       -0.28588536 -0.23205338 0.3026483 -0.266931
000090 81 7c 6c be a0 84 2e bd 32 9e d6 be 6c 2e c2 3e
       -0.2309437 -0.04260695 -0.41917568 0.37926042
0000a0 74 76 b9 bd 50 71 62 3d 86 89 85 be 78 22 06 be
       -0.09055796 0.055283844 -0.26081485 -0.13099086
0000b0 0c 29 00 3e cc e7 3c 3e 6c c8 26 3e bc 84 2d be
       0.12515658 0.18447798 0.16287392 -0.16945165
0000c0 80 4e 08 bb 3c 19 9e 3e 72 af 97 be 19 49 bf be
       -0.0020798743 0.30878627 -0.29626042 -0.37360457
0000d0 8b c9 66 be 55 59 a1 be bc 83 41 3e a0 58 86 3d
       -0.2253782 -0.31513467 0.18897909 0.065598726
0000e0 82 92 c7 3e 34 6d 92 be 00 cc 6b 3c ce d5 c3 be
       0.38978964 -0.2859894 0.014391899 -0.38249058
0000f0 a4 28 14 3e 78 ba cd 3d 62 21 b5 be 78 4b da 3d
       0.14468628 0.10045332 -0.35377032 0.10658926
000100 f5 00 52 be 48 d8 27 3d 48 ec 3c 3e 14 c5 9e 3e
       -0.20508178 0.040977746 0.18449509 0.31009734
000110 00 9a 23 bc 80 b8 2b 3e 91 57 5b be 0e eb 03 be
       -0.009985447 0.167696 -0.21420123 -0.12882635
000120 15 8c 59 be 71 98 cd be 9e 52 b4 3e 06 e7 c1 3e
       -0.21244843 -0.40155366 0.35219282 0.3787157
000130 b4 0c 1d 3e 7c f7 8b 3e 38 02 db 3e be 77 92 be
       0.15336877 0.27337253 0.4277513 -0.2860698
000140 1c cb 0e be 74 81 a4 3e 74 a2 73 3e 28 cd cc be
       -0.13944668 0.32130015 0.2379244 -0.40000272
000150 50 26 d0 3c 50 78 03 3e 79 2a 7d be c0 55 df 3d
       0.025408894 0.12838864 -0.24723233 0.109050274
000160 1e 84 c5 3e 00 37 3a bd 8d 9b cc be ec d1 b1 3e
       0.3857736 -0.04546261 -0.39962426 0.3473047
000170 6a ca 16 be 3a cc 0d be 32 77 c8 3e 20 fd a8 3c
       -0.14725652 -0.13847438 0.3915344 0.020628512
000180 40 d1 a0 3e 08 7a dd be 1c 7a 0a 3e 4b 87 d8 be
       0.31409645 -0.43257165 0.13523144 -0.4229072
000190 38 f7 b4 bd 4a cc ae be b0 40 2b 3d ea 85 ba 3e
       -0.08836216 -0.34140235 0.041809738 0.36430293
0001a0 83 52 d2 be e0 bd b9 be 3c b4 db 3e 8b 10 b2 be
       -0.41078576 -0.36277676 0.42910945 -0.34778246
0001b0 e8 8d b8 be a0 ea fb bd 80 0a a2 bc 02 30 ba 3e
       -0.36045766 -0.123006105 -0.019780397 0.36364752
0001c0 2a 8d 83 3e b8 e3 e4 3e 09 4f d9 be 08 51 cc 3e
       0.25693637 0.44704986 -0.42443112 0.39905572
0001d0 10 d6 7a 3d d2 81 e0 be ca a1 bc be 92 b6 83 3e
       0.061239302 -0.43849045 -0.36842185 0.25725228
0001e0 90 ae 5a be 12 f3 53 be 5e df ae be 5e cb 9b 3e
       -0.21355653 -0.20698193 -0.3415479 0.30428594
0001f0 42 96 a6 be 60 50 7a 3c 86 eb a0 3e 2e a7 b6 be
       -0.32536513 0.015277952 0.3142969 -0.35674423
000200 2a 97 da 3e 0c fc c3 bd 8b 03 9d be 43 4a c8 be
       0.42693454 -0.095695585 -0.30666766 -0.39119157
000210 a4 27 91 bd f0 af d1 3c 60 75 8b be dc a9 8a bd
       -0.07087639 0.025596589 -0.27237988 -0.06770679
000220 00 92 21 bb 40 98 e1 3e 82 fa 5d be c8 d4 7e bd
       -0.0024653673 0.4406147 -0.21677592 -0.062214643
000230 fc 29 96 bd b0 db d1 bd 38 60 4f 3d 2b d2 58 be
       -0.07332227 -0.1024698 0.05062887 -0.21173923
000240 20 76 65 bc de e6 b0 3e ac 90 2c 3e 30 86 8f 3d
       -0.014005214 0.34551138 0.16852063 0.07008016
000250 9c 2c a3 3e dd 7e c3 be 4c 6f c2 be ec 77 9e 3e
       0.31869972 -0.38182727 -0.37975538 0.30950868
000260 70 59 74 bd d0 26 80 bd 76 b7 81 3e 3a 11 1f be
       -0.059655607 -0.06257403 0.25335282 -0.15533915
000270 e0 f7 dd be ce 62 a4 be 90 75 85 be 66 2e e1 3e
       -0.43353176 -0.32106632 -0.26066256 0.43980712
000280 58 da 86 3e ef 67 4e be 48 0d 6f be 94 a8 8a be
       0.26338458 -0.20156835 -0.2334491 -0.2708174
000290 c0 4b 76 bd 26 50 90 be e5 99 6b be 18 2c 16 3e
       -0.060130835 -0.28186148 -0.23007925 0.14665258
0002a0 a8 dc 02 be 98 34 42 3e ac 38 60 3e b0 8b 6b 3e
       -0.12779486 0.18965375 0.21896619 0.23002505
0002b0 80 9f 27 bd 30 a2 04 be 3e b0 ce 3e da de 8d 3e
       -0.040923595 -0.12952495 0.40368837 0.27709085
0002c0 ea 64 dd 3e 21 90 b3 be 20 5a dc 3e 00 27 f6 3d
       0.43241054 -0.350709 0.4303751 0.120191574
0002d0 28 f0 42 be 44 da 3d be d4 d5 8e be c6 75 19 be
       -0.19036925 -0.18540293 -0.27897513 -0.14986333
0002e0 80 d0 95 bc a4 47 f4 bd 40 69 d2 3d 74 75 0d 3e
       -0.018287897 -0.11927727 0.10273981 0.13814336
0002f0 80 d9 3d bb 5c 81 9d 3e 00 14 6a ba f0 e2 4c 3d
       -0.0028968751 0.30762756 -0.0008929372 0.050021112
000300 1c 6d 87 be 40 58 4a bc 2a 64 a5 be b6 59 99 be
       -0.2645043 -0.012350142 -0.32302982 -0.29951257
000310 90 ba 31 3e 32 ea 8b be 04 7a 48 3e 58 4f c1 3e
       0.17356324 -0.27327114 0.19577795 0.37755847

bias f4 [20]
000000 00 00 00 00 00 00 00 00 00 00 00 00 00 00 00 00
       0.0 0.0 0.0 0.0
000010 00 00 00 00 00 00 00 00 00 00 00 00 00 00 00 00
       0.0 0.0 0.0 0.0
000020 00 00 00 00 00 00 00 00 00 00 00 00 00 00 00 00
       0.0 0.0 0.0 0.0
000030 00 00 00 00 00 00 00 00 00 00 00 00 00 00 00 00
       0.0 0.0 0.0 0.0
000040 00 00 00 00 00 00 00 00 00 00 00 00 00 00 00 00
       0.0 0.0 0.0 0.0

weight f4 [10, 20]
000000 de 2d d3 3e ef 90 63 be 24 89 dd bd 40 b6 eb 3d
       0.4124593 -0.22223257 -0.10817173 0.11509371
000010 68 c0 78 3e 66 0f a4 be 6c da 16 3e 10 72 53 3e
       0.24292147 -0.32042998 0.14731759 0.2064898
000020 d6 88 b5 3e 62 76 d5 3e d0 4f 1c 3e e0 14 07 3e
       0.3545596 0.4169188 0.15264821 0.13191557
000030 fe 19 20 be 58 fe 55 3e 06 c4 a3 be 20 37 c4 3e
       -0.15634915 0.20897806 -0.31985492 0.38323307
000040 37 ff 63 be c0 38 f9 bb 58 15 c5 3d 70 ca c7 3d
       -0.22265325 -0.007605642 0.096232116 0.09755409
000050 18 13 2f 3e 38 43 c8 3d ac e1 ac 3e 8a 2c 5d be
       0.17097127 0.09778446 0.33765924 -0.21599022
000060 00 9d e2 be 26 c3 c0 3e cc 0f 23 3e 76 32 b8 be
       -0.44260406 0.37648886 0.15923995 -0.35976
000070 e0 3b ca 3e b9 91 99 be a4 e7 8f be c0 ef 96 3e
       0.39498806 -0.2999399 -0.28106415 0.2947979
000080 17 5f 92 be 8a 53 8b 3e 10 88 16 3e 10 b7 24 3e
       -0.28588173 0.27212173 0.14700341 0.16085458
000090 e5 e6 91 be 72 21 ba 3e 70 2b 7a 3e 30 b9 80 bc
       -0.2849647 0.36353642 0.24430633 -0.015713304
0000a0 27 30 b8 be ce e9 ad 3e 17 78 a0 be c6 4f c8 3e
       -0.35974237 0.3396744 -0.3134162 0.39123362
0000b0 8e 8d 4c be d2 5e 86 3e 98 3e e4 3d 60 0d f9 3d
       -0.19975874 0.26244217 0.11144751 0.12160754
0000c0 f8 74 a3 3d 24 66 aa be 45 59 ac be d4 b7 4e 3e
       0.079812944 -0.33281052 -0.33661857 0.20187312
0000d0 3e 48 d8 3e 57 30 7c be 58 b6 96 3d 60 60 49 3d
       0.42242616 -0.24627815 0.07358998 0.049164176
0000e0 00 a8 c3 bd 18 2b a0 be 04 0c 40 3e a3 2c ab be
       -0.09553528 -0.31282878 0.18754584 -0.33432493
0000f0 70 7d 87 bd ae 5e 54 be f4 9a 05 3e b8 7c 2a be
       -0.06615722 -0.20739242 0.13047391 -0.16649139
000100 50 a6 bd 3c 54 eb 1e be e4 9b c8 3e fd 34 4b be
       0.023150593 -0.15519458 0.39181435 -0.19844432
000110 5c 0e ce 3e 40 7f de bd c4 80 49 3e 9a 25 c8 be
       0.4024533 -0.10864115 0.19678026 -0.39091188
000120 9c a9 09 3e 50 4d 03 be 80 20 53 3c 90 c1 1a 3e
       0.13443607 -0.12822461 0.012886167 0.151129
000130 be c4 ac 3e b6 91 b9 3e 9c 01 e2 bd 1c da 4c be
       0.33743852 0.3624398 -0.11035463 -0.20005077
000140 c0 01 9e bd a0 6d 5e bd 58 6d 1c 3e 16 00 b2 be
       -0.077151775 -0.054303765 0.15276086 -0.3476569
000150 e2 c6 07 be e6 5e 93 be 8c 8b 28 be 50 1c f9 3c
       -0.13259462 -0.2878334 -0.16459483 0.030409008
000160 22 37 95 be fc 83 88 bd 98 e5 c0 3d bc 5d b9 be
       -0.29143625 -0.06665799 0.094187915 -0.36204326
000170 18 1d 2c 3d 22 3b 84 be 01 f4 86 be 21 58 ac be
       0.042019933 -0.25826365 -0.26358035 -0.33660987
000180 6e 2b ca 3e 58 60 99 3e 6b 82 e1 be b4 1b b1 3e
       0.3948626 0.29956317 -0.44044814 0.34591448
000190 d2 50 d3 be ec d7 b9 3e da 45 0c be aa 09 a5 be
       -0.41272599 0.36297548 -0.13698521 -0.32233936
0001a0 a3 90 67 be 2c 9a 94 bd 58 9a c1 3d f8 0b 2b 3e
       -0.22613768 -0.072559685 0.09453267 0.16703784
0001b0 80 44 a3 be 9f ee 7f be c8 62 89 bd 24 9a c2 3e
       -0.318882 -0.2499337 -0.06708294 0.38008225
0001c0 52 6e 97 3e c8 1d 0b be e1 b2 6a be b8 e2 7d bd
       0.29576355 -0.1358558 -0.229198 -0.061983794
0001d0 f8 00 20 3d 80 4e 84 bd 86 a9 cf be 8f 4f 9b be
       0.039063424 -0.06460285 -0.40559024 -0.30334136
0001e0 47 b0 b6 be 78 d0 ee bd 73 fc ab be 2c d8 47 be
       -0.35681364 -0.11660856 -0.3359104 -0.19516057
0001f0 20 a5 bb bc a3 2c c2 be f2 22 cf be 19 36 64 be
       -0.022905886 -0.3792468 -0.4045635 -0.22286262
000200 58 29 c8 be 26 cd 8a 3e 68 2e d8 bd e2 ca 3f be
       -0.39094043 0.2710964 -0.10555726 -0.18729737
000210 e2 5b db 3e c2 cc a6 be c8 38 bc 3e 60 e1 c4 be
       0.4284354 -0.32578093 0.3676207 -0.38453197
000220 e8 a4 93 3e e6 29 c6 be e0 75 88 3e c8 23 5c 3e
       0.2883675 -0.3870384 0.2665243 0.21498024
000230 f0 8c d8 be 7a c7 d6 3e c8 e8 cb be 0a 52 81 be
       -0.42295027 0.41949064 -0.39826035 -0.25257903
000240 68 40 94 3e 90 f6 2d 3e 80 27 90 bd 56 f1 c7 3e
       0.28955388 0.16988587 -0.07038784 0.39051312
000250 80 26 9d 3d 30 c1 1d 3e 38 0a 0d 3e 60 f2 e0 3c
       0.07673359 0.15405726 0.1377343 0.027459323
000260 e4 2c 5b 3e 68 88 d6 bd 60 a0 c1 3e 80 62 3b 3e
       0.21403843 -0.10475236 0.3781767 0.18299294
000270 30 d2 6a 3d 9a 06 95 3e 40 05 79 be 00 7c 0d bc
       0.057329357 0.291066 -0.24318409 -0.008635521
000280 ac ae 44 be 44 ca 6c be f0 2b b4 bc 84 64 ea bd
       -0.19207257 -0.23124033 -0.021993607 -0.11444953
000290 c0 2c 69 3d a0 a2 e3 bc 30 0a 90 bd a4 dd 64 3e
       0.056927443 -0.027787507 -0.07033193 0.22350174
0002a0 24 5c b3 3e d4 5d 98 3e d2 8b c7 3e 58 5d 9c 3e
       0.35031235 0.29759085 0.38973862 0.30539966
0002b0 00 b3 75 bc 6d e1 a6 be 0a e9 4e be b8 98 66 3e
       -0.01499629 -0.3259386 -0.20206085 0.22519195
0002c0 34 18 07 3e 00 93 55 bc 80 9f 41 3e 5c d1 98 3e
       0.13192827 -0.013035536 0.189085 0.2984723
0002d0 de 19 0f be af 36 55 be 1c 4d 4a be 9a 06 b9 3e
       -0.13974711 -0.20821641 -0.19755977 0.3613785
0002e0 dc 53 d6 3e 3c a3 c2 3e b4 59 2b 3e ac f0 34 3e
       0.41860855 0.38015163 0.16733438 0.17669934
0002f0 9f ec b6 be 00 30 da 3c f0 73 a6 3c 0a 55 8d 3e
       -0.35727403 0.026634216 0.020318955 0.27603942
000300 04 d9 3a 3e d9 24 69 be c4 ff 47 3e 16 e3 b8 be
       0.18246847 -0.22767963 0.1953116 -0.36110753
000310 d8 29 20 be 99 f9 d8 be f0 20 ad bd 40 84 7c be
       -0.15640962 -0.42377928 -0.08453548 -0.24659824

bias f4 [20]
000000 00 00 00 00 00 00 00 00 00 00 00 00 00 00 00 00
       0.0 0.0 0.0 0.0
000010 00 00 00 00 00 00 00 00 00 00 00 00 00 00 00 00
       0.0 0.0 0.0 0.0
000020 00 00 00 00 00 00 00 00 00 00 00 00 00 00 00 00
       0.0 0.0 0.0 0.0
000030 00 00 00 00 00 00 00 00 00 00 00 00 00 00 00 00
       0.0 0.0 0.0 0.0
000040 00 00 00 00 00 00 00 00 00 00 00 00 00 00 00 00
       0.0 0.0 0.0 0.0

weight f4 [10, 20]
000000 e8 40 e4 3d 12 03 c0 3e d8 38 56 bd b4 b1 a4 be
       0.111451924 0.37502342 -0.052300304 -0.32166827
000010 a5 8b 67 be df 34 b5 be d4 e5 66 be f8 df 2c 3e
       -0.22611864 -0.353919 -0.2254861 0.16882312
000020 f8 48 28 3e 30 b0 f7 bc 85 40 b1 be 80 60 2b bc
       0.16434085 -0.03023538 -0.34619537 -0.010460019
000030 cc e6 4b 3e 2a 90 88 3e 00 b5 64 bc 5c 29 b5 3e
       0.19912261 0.26672488 -0.013959169 0.35383117
000040 72 01 05 be 4f 24 d2 be 32 58 99 3e 54 64 68 3e
       -0.12988833 -0.41043326 0.299501 0.22694522
000050 b8 21 8d bd d6 1d cf 3e c2 29 d6 3e ce f3 05 be
       -0.06891197 0.4045245 0.41828734 -0.13081285
000060 d8 df 73 3e 80 62 74 bb d4 c2 7e 3e 27 a6 b2 be
       0.23815858 -0.0037290156 0.24879009 -0.3489239
000070 ab b2 da be c8 b3 f9 bd 75 1a 50 be 26 4f 24 be
       -0.42714438 -0.12192494 -0.20322593 -0.16045818
000080 90 c8 fc 3c 03 3e c1 be b4 62 dd 3e 20 23 42 bc
       0.030857354 -0.37742624 0.43239367 -0.011849195
000090 f8 fc 5e 3e c0 4d e1 bd 70 97 3e bd 58 e3 4e 3e
       0.21776187 -0.11001158 -0.04653114 0.20203912
0000a0 3c 7d da 3e 04 86 64 3e e2 db e4 3e 70 87 c3 3d
       0.4267367 0.22316748 0.44699007 0.09547317
0000b0 4c 71 76 3e 6c 5b ad be 36 7b 9b be 68 60 e4 be
       0.24066657 -0.33858812 -0.3036744 -0.44604802
0000c0 94 ba ea bd 20 c1 db bc 1e 3b 91 be 36 cf 06 be
       -0.11461368 -0.026825488 -0.28365415 -0.13164982
0000d0 69 b7 7b be 70 b6 44 bd 7a cb 8f be 8c 9e dd bd
       -0.24581684 -0.04802555 -0.28084928 -0.10821256
0000e0 40 40 74 bc 4e 07 a3 be 20 55 a7 bc 88 19 03 3e
       -0.0149078965 -0.3184151 -0.020426333 0.12802708
0000f0 f8 2a 9f 3d 90 08 c5 be 67 c6 4b be 12 59 88 be
       0.077718675 -0.38483095 -0.19899903 -0.26630455
000100 e8 6e c4 3d a0 49 c1 3d 80 4b 7c bb c8 87 72 be
       0.09591466 0.09437871 -0.003849715 -0.23684609
000110 30 03 36 3e 94 77 3b be 60 8c 3b 3c 90 9e 95 3e
       0.17774653 -0.18307334 0.011447042 0.29222536
000120 70 e9 6e bd 14 74 7e 3e 18 9d 09 bd e0 08 65 bd
       -0.058328092 0.24848968 -0.033597082 -0.055916667
000130 c2 8a 8c 3e 70 e6 a1 bd e0 29 ca 3d bc 3e 2a 3e
       0.27449614 -0.079052806 0.09871268 0.16625494
000140 be bc cd 3e 32 9d bd 3e 68 9b d5 3d a7 eb 56 be
       0.4018306 0.37033993 0.10430032 -0.20988332
000150 80 d8 85 3b 40 bf 6f bd 99 e8 88 be f8 ac d1 3e
       0.0040846467 -0.058532 -0.26739958 0.40952277
000160 38 64 e2 bd c0 ff 34 3d 40 58 26 bd 61 b1 e2 be
       -0.110542715 0.044189215 -0.040611506 -0.44275954
000170 1c 7d 99 3e d6 29 b5 be 14 64 38 3e f8 af 14 be
       0.29978263 -0.3538348 0.18006927 -0.14520252
000180 5f b8 a8 be 5e f6 25 be aa 0c 40 be b6 84 b8 be
       -0.32953164 -0.16207263 -0.18754831 -0.3603875
000190 20 c8 51 3e ba f4 b0 be e0 98 29 3e ec a5 70 3e
       0.20486498 -0.34561712 0.16562223 0.23500794
0001a0 b6 c5 11 be 90 11 cc 3d 5d 44 9a be 10 74 c0 bc
       -0.14235577 0.09964287 -0.30130282 -0.023492843
0001b0 e7 c0 64 be 80 38 6f bb 68 15 4b 3d 82 65 bf 3e
       -0.22339211 -0.0036502182 0.04958096 0.37382132
0001c0 c8 c3 9c 3e 48 2d ce be 20 09 0b bd 54 e7 55 3e
       0.3061812 -0.40268922 -0.03394425 0.20889026
0001d0 b8 44 60 3e e0 2d 62 bd c0 04 63 3c b6 48 bd 3e
       0.21901214 -0.05521953 0.013856113 0.36969537
0001e0 08 e0 e4 3e 88 23 24 be 9a b8 3e be 60 cf 2d be
       0.44702172 -0.16029179 -0.18625107 -0.16973639
0001f0 22 37 13 be 64 e0 b2 3e cf 06 d8 be a8 bb 18 3d
       -0.143765 0.3493682 -0.42192695 0.037288338
000200 ee 11 b2 be 60 02 8b 3c 98 be 7f 3e 80 64 de 3c
       -0.34779304 0.016968906 0.2497505 0.027147532
000210 ea 6f d9 be 50 46 37 3e 28 c0 5e bd 90 2a c7 be
       -0.42468196 0.17897916 -0.054382473 -0.3889966
000220 a4 a2 a1 3e 34 6c c5 be a4 5b 13 be 2a bf a0 be
       0.31569397 -0.38559115 -0.14390427 -0.31395847
000230 40 7b 29 bd 86 36 0b be e0 a2 0e 3e 0c 1a 73 be
       -0.041377306 -0.13595018 0.1392932 -0.23740405
000240 c4 ec 2d 3e 98 ee 0e 3e b2 db a9 be b0 76 3a bd
       0.1698485 0.13958204 -0.33175427 -0.045523345
000250 d4 5f df 3e 14 e2 cc be ec cc 06 3e 34 8d e1 3e
       0.436278 -0.40016234 0.13164109 0.44053042
000260 a0 6f 30 be 90 20 a9 3c 38 03 87 3d 54 e5 18 3e
       -0.17230082 0.02064541 0.06592411 0.14931232
000270 f4 73 5e be e0 b4 b8 3e f8 3b 0c 3d 97 cf d2 be
       -0.2172392 0.36075497 0.03423688 -0.41174003
000280 a0 7c ce be 39 fb b0 be b4 93 1b 3e 7a f6 a8 3e
       -0.40329456 -0.34566668 0.15193063 0.33000547
000290 88 ad 76 bd 98 ec 2b 3d 30 8a c1 3e b0 05 f3 3c
       -0.060224086 0.04197368 0.3780074 0.029665798
0002a0 6c 5b 1e be 54 85 b2 be 0c 5f 9e be d8 62 15 3d
       -0.15464562 -0.34867346 -0.3093189 0.036471218
0002b0 98 26 2f 3e 24 ee 9c bd 18 8d 87 bd 60 d4 e6 bc
       0.17104566 -0.07662609 -0.06618708 -0.02817744
0002c0 a0 08 9b 3d ee 11 85 3e b0 a7 ba be 81 0a a5 be
       0.075700045 0.25990242 -0.3645606 -0.32234576
0002d0 80 bb 38 3e fc af c6 bd 20 e0 47 bc d8 9a 4d 3e
       0.18040276 -0.09701535 -0.012199432 0.200786
0002e0 58 76 f6 3d d8 60 35 bd 12 c5 d8 be bc 64 37 be
       0.12034291 -0.04428181 -0.42337853 -0.17909521
0002f0 f2 a1 a3 be 18 85 ab 3d 9c 4f 9a 3e 16 7b 87 3e
       -0.31959492 0.08374995 0.30138862 0.26461095
000300 68 0f 8b bd 8c ee d3 3e fa 8d 37 be e4 12 14 3e
       -0.06790048 0.41392934 -0.17925254 0.14460331
000310 ba 10 dc 3e ac 0a 2b be f8 78 82 be 7c ba 59 3e
       0.4298151 -0.1670329 -0.25482917 0.21262544

bias f4 [20]
000000 00 00 00 00 00 00 00 00 00 00 00 00 00 00 00 00
       0.0 0.0 0.0 0.0
000010 00 00 00 00 00 00 00 00 00 00 00 00 00 00 00 00
       0.0 0.0 0.0 0.0
000020 00 00 00 00 00 00 00 00 00 00 00 00 00 00 00 00
       0.0 0.0 0.0 0.0
000030 00 00 00 00 00 00 00 00 00 00 00 00 00 00 00 00
       0.0 0.0 0.0 0.0
000040 00 00 00 00 00 00 00 00 00 00 00 00 00 00 00 00
       0.0 0.0 0.0 0.0

weight f4 [10, 20]
000000 e4 dc 9f be ec 4a d0 3e 03 d5 d9 be 22 2b 81 3e
       -0.31223214 0.4068216 -0.42545328 0.2522822
000010 52 52 95 be 37 d9 c4 be cc 83 1e be 80 fa 18 bb
       -0.29164368 -0.38446972 -0.15479964 -0.002334267
000020 90 ab d6 be 39 d7 a1 be 00 94 73 bd 38 5d 16 3e
       -0.41927767 -0.31609514 -0.059467316 0.14683998
000030 2c 34 58 3e 70 0c 6d be 69 c8 de be f8 8e 9c 3d
       0.21113652 -0.23149276 -0.43512276 0.076444566
000040 40 26 c7 3d e2 50 49 be d8 bc a9 bd 58 91 ad 3d
       0.097240925 -0.1965976 -0.08287972 0.08474988
000050 ca 9b 9f 3e f0 fd 65 3e c6 c0 ba be a0 34 08 bd
       0.31173545 0.2246015 -0.364752 -0.033253312
000060 c9 60 bb be b2 7a 9a be ac a4 cf be 18 ce 89 3d
       -0.3659728 -0.30171734 -0.40555322 0.067287624
000070 24 af e3 bd e1 6b 6f be 48 df 96 3e 74 b6 04 be
       -0.1111739 -0.23380996 0.29467225 -0.12960225
000080 38 40 38 3d c3 da d9 be d5 bc 5b be fc 77 45 3e
       0.04498312 -0.42549714 -0.21458752 0.19284052
000090 c6 55 bd 3e 59 97 da be 90 83 20 3d db 30 55 be
       0.36979502 -0.42693594 0.039187968 -0.20819418
0000a0 c0 b5 22 be 00 26 83 be 50 ab 58 3d e2 82 c9 be
       -0.15889645 -0.2561493 0.05289775 -0.39357668
0000b0 00 47 e7 3b 98 e8 d7 be 33 0b 67 be f8 67 92 3d
       0.0070580244 -0.42169642 -0.22562866 0.07148737
0000c0 50 d9 e7 3c e3 ef ca be 76 98 33 be 7c 69 5c be
       0.028301865 -0.39636144 -0.17538628 -0.21524614
0000d0 00 74 af ba 7e f4 e0 be 00 90 bf 3c 38 03 f4 bd
       -0.0013386011 -0.43936533 0.023384094 -0.119146764
0000e0 94 55 92 be 4c 76 d3 be 98 24 f9 3d 28 b6 8f be
       -0.28580916 -0.4130119 0.12165183 -0.28068662
0000f0 c8 25 85 bd 8a da 86 be fe ec df be b8 0b 17 3d
       -0.06501347 -0.26338607 -0.43735498 0.03687641
000100 7c e2 e0 be 2a 01 2a be 36 dd de 3e 4a 1e 58 be
       -0.43922794 -0.16602007 0.43528146 -0.21105304
000110 b0 54 6f 3e d6 6f 85 3e d6 10 c0 be 90 f7 d7 3d
       0.2337215 0.26061887 -0.37512845 0.10545266
000120 54 02 91 bd 44 00 5c 3e 94 12 5c 3e c6 a6 84 3e
       -0.07080522 0.21484476 0.21491462 0.25908488
000130 1c 84 d0 3e 1a 6b 85 be ea 42 3d be e4 a0 44 3e
       0.4072579 -0.26058275 -0.18482557 0.19202
000140 51 73 77 be 20 1a 39 3e 44 e5 ab be 3e c5 8a be
       -0.24165083 0.18076372 -0.33573353 -0.2710361
000150 6e 1e 3b be f8 50 cb 3d 96 93 c7 3e 23 e7 4c be
       -0.18273327 0.09927553 0.38979787 -0.20010047
000160 0f a1 9c be 50 eb 8e 3e 84 c5 c3 be 08 e4 64 3e
       -0.30591628 0.27913904 -0.3823663 0.22352612
000170 e8 19 73 be 1c ff 43 3e 48 32 4c be 64 49 47 3e
       -0.23740351 0.19140285 -0.19941056 0.1946159
000180 9c 8b 33 be 76 f9 b2 be 08 03 09 3d 6a 41 97 be
       -0.17533726 -0.3495595 0.033450156 -0.29542094
000190 ab f5 79 be 84 d7 dd 3e e0 01 5c 3c 48 25 90 3e
       -0.24410121 0.43328488 0.013428181 0.28153443
0001a0 74 d6 8d be 3c 2b b4 bd 06 38 b9 3e 41 7f ce be
       -0.27702677 -0.08797309 0.36175555 -0.40331462
0001b0 d6 a3 89 3e e8 ff 27 3d 78 16 c7 3d 60 d0 09 be
       0.2688281 0.041015536 0.097210824 -0.13458395
0001c0 80 82 1a bb 84 0b 8b bd 99 4f d6 be d6 45 a8 be
       -0.002357632 -0.06789306 -0.41857603 -0.3286578
0001d0 ac ec 68 3e a8 6a 79 bd 8b 8f b1 be 30 7b f2 3d
       0.22746533 -0.06089273 -0.34679827 0.118399024
0001e0 0c dd a6 be 59 5f 8a be 40 d5 3b bd 10 40 a2 bc
       -0.3259052 -0.2702587 -0.045857668 -0.019805938
0001f0 00 2d 3c bb 50 58 12 bd ff fe b7 be c8 d7 85 3d
       -0.0028713346 -0.035728753 -0.35936734 0.06535298
000200 ce f7 aa 3e 4c e6 bd bd 2c 4b 16 3e 34 ee 7c 3e
       0.33392185 -0.09272441 0.14677113 0.24700242
000210 b0 01 82 3e f0 25 96 3d 50 2f 8f 3c ad f7 d3 be
       0.25391912 0.07331455 0.017478615 -0.413999
000220 c4 e4 93 bd 94 a1 d0 3e 08 5a 15 bd b8 e6 80 3d
       -0.07221368 0.40748274 -0.036462814 0.06294006
000230 8a ad df 3e 6c c9 b2 3e 1e 7f d3 be e4 2b 25 be
       0.43687087 0.34919298 -0.4130792 -0.16130024
000240 90 63 f9 bd c0 72 6d 3d b0 1e 09 3e 96 4e 8e 3e
       -0.12177193 0.057970762 0.13390613 0.2779433
000250 74 32 b8 3e 2c 5c ba 3e 68 26 86 be 44 c9 d3 3e
       0.35975993 0.36398447 -0.26201177 0.4136449
000260 c4 70 64 be f1 51 a2 be 50 9c bd be d8 bd d6 3e
       -0.22308642 -0.3170314 -0.3703332 0.41941714
000270 db 9e aa be 40 ca e0 bd ac 81 fa bd 94 1a 6a 3e
       -0.33324322 -0.10976076 -0.12231764 0.22861701
000280 e4 d6 9f bd 50 36 f7 3d 60 29 b5 be 00 5d af 3b
       -0.07804659 0.12070906 -0.3538313 0.0053516626
000290 08 ee d5 3d 8e 49 a2 3e 02 76 de be 78 fa 46 bd
       0.104457915 0.31696743 -0.43449408 -0.04857871
0002a0 e4 44 ab be 6e 02 84 be 70 39 b3 3e b8 5b 18 3d
       -0.33450997 -0.25783104 0.3500476 0.037196845
0002b0 80 5c 06 3c f4 20 d7 bd fa 93 9b 3e 80 ea b3 bb
       0.008200765 -0.10504332 0.30386335 -0.005490601
0002c0 fc fd a5 3e 46 e3 c4 3e f7 06 58 be 00 b0 0a 39
       0.32420337 0.38454646 -0.21096407 0.0001322627
0002d0 68 63 96 3d e8 06 7b 3e 30 e7 bb bd 04 2e cc 3e
       0.07343179 0.24514353 -0.09174955 0.39878857
0002e0 10 b7 e1 3d 50 0e 41 3d 82 7c a0 3e 24 7e 51 3e
       0.110212445 0.04713279 0.31344992 0.20458275
0002f0 e6 f0 70 be b8 b5 7b 3e c8 36 50 bd 8a 7e e3 3e
       -0.23529395 0.24581039 -0.050833493 0.4443248
000300 1f 51 82 be 9e a8 a9 3e 26 cb e3 be e8 57 31 bd
       -0.25452515 0.33136457 -0.44490927 -0.043296725
000310 26 4e aa 3e ac cf ce 3e 37 9c cd be 56 d3 36 be
       0.33262748 0.40392816 -0.40158245 -0.17854056

bias f4 [20]
000000 00 00 00 00 00 00 00 00 00 00 00 00 00 00 00 00
       0.0 0.0 0.0 0.0
000010 00 00 00 00 00 00 00 00 00 00 00 00 00 00 00 00
       0.0 0.0 0.0 0.0
000020 00 00 00 00 00 00 00 00 00 00 00 00 00 00 00 00
       0.0 0.0 0.0 0.0
000030 00 00 00 00 00 00 00 00 00 00 00 00 00 00 00 00
       0.0 0.0 0.0 0.0
000040 00 00 00 00 00 00 00 00 00 00 00 00 00 00 00 00
       0.0 0.0 0.0 0.0

weight f4 [10, 20]
000000 00 81 a5 bb 6e 6a da 3e d0 38 b4 3e f0 43 0d 3d
       -0.0050507784 0.42659324 0.35199594 0.03448862
000010 40 39 ae bd 98 83 da be 32 70 99 3e 96 8a c9 3e
       -0.08507013 -0.42678523 0.2996841 0.39363545
000020 06 ba 73 be 50 90 fd 3d 6c 73 3a 3e f0 3f e8 bc
       -0.23801431 0.12381041 0.18208092 -0.0283508
000030 76 ba b8 3e 13 67 c9 be 02 73 b3 3e 42 02 8d be
       0.36079758 -0.39336452 0.35048681 -0.27540785
000040 80 39 88 bc 34 c5 36 3e ba 39 25 be 4e 36 94 be
       -0.01662898 0.17848665 -0.16135302 -0.2894768
000050 50 86 8a bd ac 46 25 be 68 12 a5 be 40 68 56 3d
       -0.06763899 -0.1614024 -0.32240605 0.052345514
000060 34 c8 cf bd 96 55 ba 3e 50 2c 24 3e 90 53 fa bc
       -0.101456076 0.36393422 0.16032529 -0.030557424
000070 4e 8d c9 be c0 88 76 bc 74 1f 8d 3e 2c 78 d3 3e
       -0.3936562 -0.015047252 0.2756306 0.4130262
000080 b2 81 b9 be ea 50 ae be 80 ea 7b 3d d0 3a f4 bc
       -0.36231762 -0.34046108 0.061502934 -0.0298132
000090 ca 5d 55 be 88 12 c6 3d 56 f9 08 be d4 0d b9 3e
       -0.20836559 0.09671503 -0.13376364 0.36143363
0000a0 89 85 c2 be c0 c8 41 bc 7a 36 a6 3e 4c 0b d7 3e
       -0.37992504 -0.011827648 0.32463437 0.42000806
0000b0 f8 c6 1b 3e f8 3e 0b 3e 38 cc 88 3d d4 6b ee bd
       0.1521262 0.1359824 0.06679577 -0.1164166
0000c0 48 18 37 3e 20 ed ef bd c0 55 c7 3d ae 79 79 be
       0.17880356 -0.1171515 0.097331524 -0.24362823
0000d0 48 19 48 be e0 99 99 3e fc bc 0f be 14 d5 4c 3e
       -0.19540894 0.3000021 -0.14036936 0.20003158
0000e0 c6 fd 69 be 2c 85 08 3e 18 23 f0 bd c0 39 ea 3c
       -0.22850713 0.13332051 -0.117254436 0.02859199
0000f0 00 c0 25 ba 7a ae d5 3e 74 38 a1 be d4 a8 a4 3e
       -0.0006322861 0.41734678 -0.31488383 0.32160056
000100 b2 0e be 3e b0 65 22 bd 2c b6 50 3e 5c 25 da 3e
       0.37120587 -0.039647758 0.20381993 0.42606628
000110 78 34 44 3e 2c c1 88 bd a0 a6 09 be d0 9c db 3c
       0.1916064 -0.066774696 -0.13442469 0.026808172
000120 38 be b7 3e ac 12 ca be 16 1c a1 be d4 19 51 3e
       0.35887313 -0.3946737 -0.3146674 0.20420009
000130 38 a5 a5 be 78 4a aa bd d8 1e f7 3d a0 06 b7 3d
       -0.32352614 -0.08314985 0.1206643 0.089368105
000140 d0 93 61 3d 64 65 55 be 94 26 d2 be f2 d9 80 3e
       0.055072606 -0.20839459 -0.41045058 0.2516628
000150 a2 49 2e be 5c 85 09 3e ce e0 a5 be 2c 28 46 3e
       -0.17020276 0.13429779 -0.32398075 0.19351262
000160 38 45 dc 3d fc 44 57 be 8a 19 16 be 18 96 9b bd
       0.1075539 -0.21022409 -0.1465818 -0.075969875
000170 44 4c 40 be 14 06 93 3e 58 6d a2 be 8a f0 dc 3e
       -0.18779093 0.28715575 -0.31724048 0.43152267
000180 6c 71 16 3e 9a fa 5b be a0 79 34 3c 36 58 b9 3e
       0.14691705 -0.21482316 0.011015326 0.36200112
000190 df bc a5 be 38 f3 74 bd a5 57 7e be a8 38 d3 be
       -0.3237066 -0.059802264 -0.24838121 -0.41254163
0001a0 12 48 84 3e 26 87 cb 3e 44 d3 94 3e 54 e6 33 3e
       0.25836235 0.39751548 0.29067433 0.17568332
0001b0 70 2b 97 be 00 20 28 38 20 47 1b 3d 9d 1d bf be
       -0.29525328 4.0084124e-05 0.037909627 -0.3732728
0001c0 38 aa dc 3e f7 3b e4 be 74 c1 0e 3e 62 6b b7 3e
       0.43098617 -0.44577 0.13940984 0.35824114
0001d0 b8 ec 83 be 36 e2 cf 3e 14 11 a7 be 6c e6 a5 bd
       -0.2576654 0.40602273 -0.32630217 -0.0810059
0001e0 78 ee 44 be 8c 95 fb bd 0a 70 9c 3e 9c 04 8c be
       -0.19231594 -0.12284383 0.3055423 -0.27347267
0001f0 9c 5e a4 3e ec 10 01 be dc 1f 20 be 51 fa 5f be
       0.3210343 -0.12604111 -0.15637153 -0.21872832
000200 a0 9d 22 3e 00 cc 12 be d2 49 c4 be e4 2c a7 3e
       0.15880442 -0.14335632 -0.3833757 0.32651436
000210 c6 94 b7 3e ac bc 23 3e 3e d1 96 be 22 91 c5 be
       0.35855693 0.15989941 -0.29456514 -0.3858729
000220 38 91 35 3e 52 e2 b6 3e b8 f1 b6 be 6a a4 5a be
       0.17731178 0.35719544 -0.35731292 -0.21351781
000230 8c c6 6f 3e 07 58 7b be bd fa b7 be 78 07 8b 3e
       0.23415583 -0.24545299 -0.35933486 0.27154136
000240 60 ef 87 be c1 cd 4a be 98 44 2c 3e c4 95 30 3e
       -0.26549816 -0.19805051 0.16823041 0.17244631
000250 a6 96 8c be f0 04 83 be 60 2e 4a bd 80 2b 9e 3d
       -0.27458686 -0.25589705 -0.049360633 0.07723141
000260 fb d0 51 be d8 b5 39 3e 72 4c 81 3e 9f f5 4f be
       -0.20489876 0.18135774 0.25253636 -0.20308541
000270 47 06 a5 be db 17 d9 be ab 36 4c be 6c 46 c4 3e
       -0.32231352 -0.42401013 -0.19942729 0.38334978
000280 50 58 95 bc de 1e ac be cb ba c1 be b4 3a e1 3e
       -0.018230587 -0.336173 -0.37837824 0.439901
000290 02 bf a5 3e 64 a6 2b 3e d4 07 02 3e 50 af 16 3d
       0.3237229 0.16762692 0.12698299 0.036788285
0002a0 3a b8 ba 3e e0 2b 76 3d 32 ee 1e be 2c 1a 48 3e
       0.3646868 0.060100436 -0.15520552 0.19541234
0002b0 ba f2 db 3e d8 33 89 3d d8 f4 8b 3e 20 4f 13 3e
       0.42958623 0.066993415 0.27335238 0.14385653
0002c0 b0 d9 80 3c dc 95 86 be 08 a6 f2 3d de c6 2d be
       0.015728801 -0.2628621 0.11848074 -0.16970393
0002d0 f0 6d ae 3e 4e 00 18 be 1a 52 9f 3e 70 8e bb 3c
       0.3406825 -0.14843866 0.31117326 0.022895068
0002e0 20 87 bd bd 78 59 47 3e 38 d7 27 bd 6a 0f 8e 3e
       -0.09254289 0.19467723 -0.040976733 0.27746135
0002f0 10 ba 87 3d 60 5f f7 3d 36 a4 8a be ea 99 a5 3e
       0.066272855 0.12078738 -0.27078408 0.3234399
000300 96 b6 8c 3e 92 5e 8a 3e 34 f8 31 be ac aa ba 3e
       0.27483052 0.27025276 -0.17379838 0.36458337
000310 1a bb 8f be 18 2d b4 be 74 e2 f6 bd 5c 65 aa be
       -0.28072435 -0.35190654 -0.12054911 -0.33280456

bias f4 [20]
000000 00 00 00 00 00 00 00 00 00 00 00 00 00 00 00 00
       0.0 0.0 0.0 0.0
000010 00 00 00 00 00 00 00 00 00 00 00 00 00 00 00 00
       0.0 0.0 0.0 0.0
000020 00 00 00 00 00 00 00 00 00 00 00 00 00 00 00 00
       0.0 0.0 0.0 0.0
000030 00 00 00 00 00 00 00 00 00 00 00 00 00 00 00 00
       0.0 0.0 0.0 0.0
000040 00 00 00 00 00 00 00 00 00 00 00 00 00 00 00 00
       0.0 0.0 0.0 0.0

weight f4 [10, 20]
000000 c0 68 e2 3b 08 bb 23 3e 64 ca e2 bd 60 cf 1e 3e
       0.00690946 0.15989316 -0.11073759 0.15508795
000010 a8 cc 82 3d aa bc d7 be 40 26 10 be 80 5c 9f bb
       0.06386691 -0.42136127 -0.14077091 -0.004863322
000020 1c 5d a2 3e 9a 6f 81 be 46 25 df 3e b0 92 88 bd
       0.31711662 -0.25280458 0.43583125 -0.066686034
000030 c0 f4 c8 3d 75 c7 a8 be fa 4b be 3e 38 c5 ae 3e
       0.09812307 -0.32964674 0.3716734 0.3413484
000040 ee 65 c7 3e ac 19 c9 3e f2 2d cd 3e f8 c3 c9 3d
       0.38944954 0.392774 0.40074116 0.09851831
000050 66 c4 39 be c8 37 47 bd 0f 3c 60 be 38 7d b3 be
       -0.18141326 -0.04863718 -0.2189791 -0.35056472
000060 8a 53 89 3e 5a fd 8d 3e 8e 2a 8c 3e f0 f6 ff 3d
       0.26821548 0.27732354 0.27376217 0.124982715
000070 2a 08 b2 3e c0 3c 59 bc dc 48 d9 be 50 0a b3 bd
       0.34771854 -0.013259113 -0.424384 -0.08742201
000080 a8 48 6f 3e 70 91 bc be 50 2c cb bd 57 38 d4 be
       0.2336756 -0.3682971 -0.09920561 -0.41449234
000090 2c 63 97 3e 0e 3e 94 3e 5e 92 c3 be b0 f6 7c 3e
       0.2956785 0.28953594 -0.38197607 0.24703479
0000a0 10 4c 00 3e 30 96 91 bd 06 c3 c0 3e 38 1f 53 3e
       0.12529016 -0.07108724 0.3764879 0.20617378
0000b0 b4 ca ea bd 5b c1 6f be aa 6d c7 3e 44 19 cd be
       -0.11464444 -0.23413603 0.38950855 -0.4005834
0000c0 46 e0 a6 be 74 af 98 be 4a 84 93 3e 58 aa b6 3d
       -0.32592982 -0.2982136 0.28811866 0.08919209
0000d0 15 95 d1 be 69 c2 74 be f4 ca 98 3e 52 59 87 be
       -0.40934053 -0.23902287 0.2984234 -0.26435333
0000e0 a4 cb 3c be b8 f3 4a bd 98 88 48 3e 9e 85 ab 3e
       -0.18437058 -0.049548835 0.19583356 0.3350038
0000f0 e0 59 19 bd d6 8f 84 3e 80 86 18 bc 4a 40 8b 3e
       -0.037439227 0.25890988 -0.009309411 0.27197486
000100 1a 15 26 be a8 7c 0f 3d 42 d7 c0 be 1c 1e 87 3e
       -0.16218987 0.03503099 -0.3766423 0.2639016
000110 6c 55 d1 3e f0 26 94 3d a8 b1 e9 bd 68 2b 67 3e
       0.40885484 0.07233989 -0.11410838 0.22575152
000120 1a fb dc be 80 de 25 bc e0 1c 16 3e 48 2a 8a be
       -0.43160325 -0.010123849 0.14659452 -0.26985383
000130 c8 f7 35 be ec 48 23 3e 68 dc b1 3e 4c 9e 6f 3e
       -0.17770302 0.15945786 0.3473847 0.23400229
000140 cc 61 0d 3e a3 25 c4 be 80 db 0c 3b 6c 18 c4 3e
       0.13806838 -0.38309965 0.0021493137 0.38299882
000150 f0 1d 01 3e 7d 12 d6 be 3c e0 9e bd a8 bc 4c 3d
       0.12609076 -0.4181098 -0.07757613 0.049984604
000160 a8 28 33 3e 40 21 f9 3d f0 41 95 bc 6a 17 99 be
       0.17495978 0.12164545 -0.018219918 -0.29900676
000170 32 99 80 be de 62 34 be a4 a7 61 be 18 32 b8 3d
       -0.2511688 -0.1761584 -0.22036606 0.089939296
000180 b0 5a a7 3e 16 95 5c be ac db f6 bd 35 6b d7 be
       0.32686377 -0.21541247 -0.12053618 -0.4207398
000190 1c b2 bb 3e c0 ee 85 3d 20 7b 06 3d c0 d7 d7 bd
       0.36659324 0.065396786 0.032832265 -0.10539198
0001a0 1a 99 a8 be dc ed e2 3e cc 3e 31 be 20 5f 0a 3e
       -0.32929307 0.44322097 -0.17309111 0.1351285
0001b0 3b a4 52 be 1b f1 4e be b8 7a 39 be 28 11 92 bd
       -0.20570461 -0.20209162 -0.1811322 -0.071321785
0001c0 60 ca f8 3d c8 fd 12 3d 4e d6 db 3e b0 1b 29 be
       0.12147975 0.035886556 0.4293694 -0.16514468
0001d0 e0 f2 20 bc 28 c7 67 3e e0 c3 bf be 7c 61 a2 bd
       -0.009823531 0.22634566 -0.37454128 -0.0792875
0001e0 bc ba a0 be 0c 17 cf 3e 00 ff 3e 3e fe f4 0a be
       -0.31392467 0.4044727 0.18651962 -0.1357002
0001f0 50 7c a5 bc 5a 02 b2 3e 34 34 24 be 45 d2 d0 be
       -0.020200878 0.3476742 -0.16035539 -0.40785423
000200 00 d0 a3 3a 0e 85 cb be 04 15 44 be 04 b5 c1 3e
       0.0012497902 -0.3974995 -0.19148642 0.37833416
000210 98 76 b8 3e 38 77 24 be 99 9e cd be ca 85 af 3e
       0.3602798 -0.16061103 -0.40160063 0.3428176
000220 dc 09 1d 3e c8 08 0d bd 10 f9 f7 bc aa c6 98 3e
       0.15335792 -0.034432203 -0.03027013 0.2983907
000230 c0 4e ab 3d bc 11 d9 be e0 40 8e 3d ed 63 8a be
       0.0836463 -0.42396343 0.06945968 -0.27029362
000240 58 fc 65 3e 80 a3 99 3b 30 66 c8 bd 80 04 d6 3b
       0.22459543 0.00468868 -0.09785116 0.006531298
000250 38 59 99 3e 50 9e 98 bd 86 73 df 3e 32 24 b4 3e
       0.2995088 -0.07452071 0.43642825 0.35183865
000260 80 9f 26 3d 6c ab b5 bd 00 a7 bb bc f0 96 60 3e
       0.040679455 -0.08870587 -0.02290678 0.21932578
000270 9c 6d 26 3e 2a 2c 8b 3e c8 45 f0 bd 1e 93 dc 3e
       0.1625275 0.27182132 -0.1173206 0.43080992
000280 20 dd aa 3d 4c 04 d3 bd c6 92 90 be b6 21 75 be
       0.083429575 -0.10303554 -0.2823698 -0.23938641
000290 7f ab 8b be d2 10 90 3e 0e 43 c1 3e 80 3d 76 3b
       -0.2727928 0.28137833 0.3774647 0.0037573278
0002a0 fd b8 79 be 82 18 94 3e ae 92 c2 3e 38 05 bf be
       -0.24386974 0.28924948 0.38002533 -0.3730867
0002b0 d1 f1 c3 be 18 09 9c bd 00 78 fc bd 20 f9 76 3e
       -0.3827043 -0.07618922 -0.12327576 0.24118471
0002c0 30 ad 19 be 70 d4 2d bd 6a d4 80 3e cc 50 45 3e
       -0.15007472 -0.042438924 0.2516206 0.19269103
0002d0 d0 62 eb 3d 68 5e 8c 3d 48 b0 aa be 8c 68 98 3e
       0.11493456 0.06853944 -0.33337617 0.29767263
0002e0 4e fd 90 3e 58 7a b9 bd 7c 65 51 3e 90 d3 9f bc
       0.28318256 -0.09056538 0.2044887 -0.01951006
0002f0 40 d0 d2 3e e6 b6 85 3e f8 15 ed 3d 72 cd 90 be
       0.41174507 0.26116103 0.11576456 -0.28281742
000300 ad 47 ad be a2 08 80 3e 18 58 4d 3e e2 33 8b 3e
       -0.33843747 0.25006586 0.20053136 0.2718802
000310 3f 72 ab be f0 d2 ba 3e f0 4d 79 3e b8 c3 77 3e
       -0.334856 0.36489058 0.24346137 0.24195755

bias f4 [20]
000000 00 00 00 00 00 00 00 00 00 00 00 00 00 00 00 00
       0.0 0.0 0.0 0.0
000010 00 00 00 00 00 00 00 00 00 00 00 00 00 00 00 00
       0.0 0.0 0.0 0.0
000020 00 00 00 00 00 00 00 00 00 00 00 00 00 00 00 00
       0.0 0.0 0.0 0.0
000030 00 00 00 00 00 00 00 00 00 00 00 00 00 00 00 00
       0.0 0.0 0.0 0.0
000040 00 00 00 00 00 00 00 00 00 00 00 00 00 00 00 00
       0.0 0.0 0.0 0.0

weight f4 [10, 20]
000000 f0 41 24 bd e8 e8 f1 3d 0e 7b ce 3e 30 4e 4a 3d
       -0.040101945 0.118120015 0.40328258 0.04939097
000010 96 b3 cf be 3e 5b 96 3e a8 df bb 3e 4c 7b d6 bd
       -0.405667 0.29366487 0.36694074 -0.10472736
000020 52 e5 88 be 88 c4 12 3e 9c 07 86 3e 55 cd 52 be
       -0.26737458 0.14332783 0.2617768 -0.2058614
000030 d0 ce eb 3d 1e 3f 83 be a8 72 5a 3e c0 e5 73 3e
       0.11514056 -0.25634092 0.213328 0.23818111
000040 4a f2 bb 3e 20 9e d2 3d 00 ff 9f 3d 70 43 5a be
       0.3670829 0.10284066 0.07812309 -0.21314788
000050 62 f6 1e be 0c 39 25 3e 82 3e d4 3e 86 00 89 be
       -0.15523675 0.16135043 0.4145394 -0.26758212
000060 30 a1 d9 3e da b6 af be bc 74 da bd 94 c2 73 be
       0.4250579 -0.34319192 -0.106667966 -0.23804694
000070 2a c9 d1 3e 40 6b e4 3d f2 b2 8e be 4c a9 0a 3e
       0.40973788 0.11153269 -0.278709 0.13541144
000080 b8 f0 0d 3d e2 27 8b be 00 e8 58 bc 8c c9 97 3e
       0.034653395 -0.27178866 -0.013238907 0.29645956
000090 5a f7 47 be c4 07 03 3e 50 e2 cf be d4 20 41 3e
       -0.19527951 0.12795931 -0.4060235 0.18860179
0000a0 5e 69 51 be 60 2b b5 3c 60 71 f7 bc 8c 2f c1 3e
       -0.2045035 0.02211541 -0.030205429 0.37731588
0000b0 18 44 d6 be 78 fd ce 3d c6 96 b0 be 60 51 72 bd
       -0.41848826 0.10106939 -0.3449003 -0.059159636
0000c0 a2 37 92 be bd 28 ce be 50 de d9 be ae 1e b4 3e
       -0.2855807 -0.40265456 -0.42552423 0.35179657
0000d0 98 1d 12 3e ac 44 63 3e 90 68 d1 bd 2f 81 c4 be
       0.14269102 0.22194165 -0.10225022 -0.3837981
0000e0 22 b2 18 be 40 55 94 3e 40 d3 c2 bd dc 91 80 be
       -0.14911702 0.2897129 -0.09512949 -0.25111282
0000f0 e0 13 3c bc e3 dc 61 be 00 72 d4 3b b2 ff e1 be
       -0.011479348 -0.22056918 0.0064833164 -0.44140393
000100 ec 18 82 bd 04 13 2d be 30 ae b0 bc 54 05 bc 3e
       -0.0635241 -0.16901785 -0.021567434 0.36722815
000110 ac fe b0 3e 36 b5 94 be fc 12 9d bd 4a d6 ba 3e
       0.345693 -0.29044503 -0.076696366 0.36491615
000120 28 e2 d2 3d fd cd c2 be 40 2e 86 bc c8 8f 53 3e
       0.10297042 -0.38047782 -0.016379476 0.20660317
000130 e0 6a 4f 3e a6 ac 8c be e8 07 2d 3e e5 bc ae be
       0.20255613 -0.2747547 0.16897547 -0.3412849
000140 a8 59 ac 3e 0a 49 83 be 00 4f 01 bc 4c c4 c3 be
       0.33662152 -0.25641662 -0.00789237 -0.382357
000150 0c 20 28 3e 50 d0 ea 3c 28 38 8c be b8 fd d3 3d
       0.16418475 0.028663784 -0.27386594 0.103511274
000160 6c 1b 21 3e c4 46 e4 bd 49 ee a7 be 90 ec c1 3d
       0.15733117 -0.1114631 -0.32798985 0.09468949
000170 c2 79 91 3e 74 1b 14 be 3c 92 97 3e 8c c7 34 3e
       0.28413206 -0.14463598 0.29603755 0.17654246
000180 14 f5 9f be b9 f8 83 be d0 ff f9 bd a0 f4 4b 3d
       -0.31241667 -0.25775698 -0.122069955 0.04979384
000190 c0 f1 1a 3e 78 a1 98 3d 20 2d 62 3e a8 2b 35 be
       0.15131283 0.07452673 0.22087526 -0.17692435
0001a0 c8 74 a4 3e 96 c2 1c be 65 9d 6f be be 23 93 3e
       0.32120347 -0.15308604 -0.23399885 0.28738207
0001b0 e8 bf 41 3e 88 2d 58 3e f7 b2 6b be c0 cb a3 bd
       0.18920863 0.21111119 -0.23017488 -0.079978466
0001c0 d3 b6 d5 be 84 31 82 be fe ff 1b be 9c a4 d6 3e
       -0.41741046 -0.25428402 -0.15234372 0.41922462
0001d0 26 c7 18 be c2 fe e1 be 40 0a e7 bc ef 47 5f be
       -0.14919719 -0.44139677 -0.02820313 -0.21804784
0001e0 c2 4a 97 3e 1c 03 48 3e a2 fc 44 be c0 24 e9 3d
       0.29549223 0.19532436 -0.19236997 0.11383963
0001f0 70 2e 84 3e 00 4e e3 bb c8 df ae bd b6 f2 cf be
       0.2581668 -0.0069367886 -0.08538777 -0.4061486
000200 e8 d7 dc bd f0 ca 42 bd 32 d2 39 be 09 90 d5 be
       -0.10783368 -0.047556818 -0.1814659 -0.41711453
000210 30 12 ac 3e e8 a9 0f be ac d7 41 be 18 1d cd 3d
       0.33607626 -0.14029658 -0.18929929 0.10015315
000220 bc 05 17 3e 96 94 e4 3e 50 7a 16 bd b2 cd 4a be
       0.14748281 0.44644612 -0.03673774 -0.19805029
000230 26 5c 80 3e 6c 59 3a 3e 30 0c a0 3e ac cd 0e 3e
       0.25070304 0.18198174 0.31259298 0.13945645
000240 f0 ac f4 bd aa a1 ae be 06 f8 9b be cf 17 ad be
       -0.11947048 -0.34107715 -0.30462664 -0.33807227
000250 f2 3b d0 3e 96 42 a8 be 08 ae 0e 3e f0 9f 8c 3e
       0.40670735 -0.328633 0.13933575 0.27465773
000260 9e 5a 95 be ce 7c a0 be 47 8c 60 be 80 77 23 bd
       -0.29170698 -0.31345218 -0.21928512 -0.039908886
000270 88 dd ca 3d e2 c8 a3 be 28 7b 84 3e fa 20 3d be
       0.09905535 -0.319892 0.2587521 -0.18469611
000280 14 7c 75 3e 0a 9f ba 3e 50 d8 d3 bd 71 a8 72 be
       0.23973113 0.36449462 -0.10343993 -0.23697068
000290 8a 35 0f be 0d d3 a1 be 10 0a 11 bd 44 b8 1a be
       -0.13985267 -0.3160633 -0.035409987 -0.15109354
0002a0 cc 6b f3 bd 73 23 b0 be b0 11 15 be 45 87 ad be
       -0.11885795 -0.34402046 -0.14557528 -0.33892265
0002b0 2c 5a 06 3e dc a5 7e 3e 68 8e 8e 3d 0e ce 8b 3e
       0.13120335 0.24867958 0.069607556 0.27305645
0002c0 a4 f1 9c 3e 64 ae cb 3e 40 fd a5 be cc 07 64 be
       0.30653107 0.39781487 -0.32419777 -0.222686
0002d0 90 dd 73 bd 2a 5b 09 be 5c e9 00 3e 44 1b 8f bd
       -0.05953747 -0.13413683 0.1258902 -0.069876224
0002e0 ec d6 88 3e fe d0 68 be c4 ff 1a be bc 46 83 3e
       0.26726472 -0.22735974 -0.1513663 0.25639904
0002f0 f8 bb b4 be f0 d3 91 3d 98 da 25 3e c6 3e 86 be
       -0.3529966 0.07120502 0.16196668 -0.26219767
000300 50 d5 66 3e 10 fc e9 bd 90 70 db 3e 9c 2a b2 3e
       0.2254231 -0.1142503 0.42859316 0.34798133
000310 80 92 20 3c 98 30 cb be 38 0c 8c bd 28 37 8b bd
       0.009800553 -0.39685512 -0.06838268 -0.067976296

bias f4 [20]
000000 00 00 00 00 00 00 00 00 00 00 00 00 00 00 00 00
       0.0 0.0 0.0 0.0
000010 00 00 00 00 00 00 00 00 00 00 00 00 00 00 00 00
       0.0 0.0 0.0 0.0
000020 00 00 00 00 00 00 00 00 00 00 00 00 00 00 00 00
       0.0 0.0 0.0 0.0
000030 00 00 00 00 00 00 00 00 00 00 00 00 00 00 00 00
       0.0 0.0 0.0 0.0
000040 00 00 00 00 00 00 00 00 00 00 00 00 00 00 00 00
       0.0 0.0 0.0 0.0
