models/BACommunity_Trained_Model.pt (torch, 5975 bytes, 6 tensors)

weight f4 [10, 20]
00000000: c2de 043f 957c e93f 5efe edbf c04d 6f3f
00000010: 7fef a4bf 443f 0a40 645b 233f 2c27 6c3e
00000020: 37af 83bf 6b98 32bf f7ef 2d3e 2ff8 c1bf
00000030: 3c5f 59bf 0493 0e3d 966e 7240 6c2f 2cc0
00000040: 0f5e acbe 3ee1 2440 32db 57c0 7f5d a2bf
00000050: d368 c9bf 0ee6 6c3f 8e79 0cc0 7342 87c0
00000060: 4d26 45c0 d7b7 17c0 3fa3 763f 3389 ac3e
00000070: 64cd bfbf b3dd 08c0 ef7b f4bf 1fa8 81bf
00000080: 16da 013f 8682 2bc0 1898 7ebf c912 c6bf
00000090: 44ae b8bd d3ee 9c40 08f6 b43e 9aaf 2940
000000a0: 8717 a73f e129 7940 eef6 acbf beb4 6140
000000b0: 079f 8140 587d 5840 d118 c43e aaff a9be
000000c0: 44fe f73f 1ea3 14c0 f5b6 69bf 3ffc 593f
000000d0: 6d34 b5bf 52d1 f83f 0956 0440 a044 953f
000000e0: 24c5 04c0 3485 1fbf 946d 513f 4080 38bd
000000f0: 449c 4b40 5982 0240 d969 73c0 7600 6740
00000100: 242b 0c3f eb1a c33f 927e 7fbf 0447 86be
00000110: e964 2a40 5e81 40c0 222e 4440 b436 e7bf
00000120: de0e 17bf ccaf bbbf 3258 c53e 7abf 62c0
00000130: d48b 6240 29ad 8abe ce09 a7bf 85a1 923f
00000140: e1da e23f c71a 88bf 9a5e bbbe 2f0c ae3f
00000150: 5e45 b83f 5ef2 283f e3ef 3740 d5cc 98be
00000160: 1483 df3f f315 3a40 0077 c2be c1a4 5c40
00000170: 8623 49bf 5a91 a6bf 0a80 40c0 621b 513f
00000180: 592f d93f 3978 7f40 54ff 0ac0 f6f5 26c0
00000190: 04f9 31c0 e6ad 7240 3366 d93f d7f2 5040
000001a0: e576 a9bf 3fde 1840 5125 91bf 2665 c93e
000001b0: a50a 853f 0531 813f 0a51 4ebf b74a ccbf
000001c0: be30 6c40 fcf8 fb3e d844 0ac0 d040 3ac0
000001d0: 92cf f2bf d472 b8bf 360d 623e 9863 0440
000001e0: 42b0 e2bf d328 22c0 695e f23f abbb 1d3f
000001f0: ec6f 0740 9074 c0bf db30 37c0 d42f 74be
00000200: 1c18 aebf fd0f 0f40 e66f 36c0 b5bb 90c0
00000210: 69cc 803f d2dd 4740 d5da 3abf 285e febf
00000220: d974 f4bf ebd3 443f e89c 4640 65e0 37bf
00000230: 894f 0040 0ea2 4740 e5e5 2e3f 5beb 59c0
00000240: d30d 3fc0 5ba3 c7bf c20d f5bf 168f 6e3d
00000250: 9746 a7bf 7867 c9bf 3ae7 1e40 8c7d c3be
00000260: 0391 ba3f a9d5 183f 96a3 cf3f ef5c 573f
00000270: c37c 9f3e 52b6 87c0 6a98 6a40 c2b9 3abf
00000280: 00ae 8ebf ea06 ed3f 8aad 913f 05c2 2c3d
00000290: 39a8 123f 9cd3 c53f 3615 8cbf d293 853e
000002a0: 8aff 30c0 a8eb b7bf c41b bdbf cf4e 0c3f
000002b0: b08d 0ac0 2ace 21bf d721 efbf 1166 723f
000002c0: 3f28 37c0 4181 30c0 838f 6cc0 15ac d63f
000002d0: 2764 0b3f 4863 153f 4407 cc3f 2aaf 8d3f
000002e0: ceff 063f 5521 89be ceaf c63d 817b febe
000002f0: 4a85 2cc0 e33e 6f3f 2b59 47bf e470 45c0
00000300: 3fee 0a40 e0cf cb3f 483a 2f3f f08e cebf
00000310: 37c5 0540 f687 1040 119c 2ebf d9b3 f6bf
0.519024 1.8241144 -1.8593252 0.9347801 -1.2885588 2.1601114 0.63811326 0.23061818
-1.0287846 -0.6976382 0.1698607 -1.5153865 -0.8491094 0.034808174 3.7879996 -2.6903944
-0.3366551 2.5762477 -3.3727536 -1.2684783 -1.5735115 0.92538536 -2.194919 -4.2268615
-3.0804627 -2.3705957 0.96342844 0.33698425 -1.4984555 -2.1385314 -1.9100322 -1.0129431
0.507234 -2.6798415 -0.99450827 -1.5474483 -0.090176135 4.9041533 0.35343957 2.6513429
1.3054055 3.893181 -1.3512857 3.5266566 4.0506625 3.3826504 0.38300183 -0.3320287
1.9374471 -2.322456 -0.91294795 0.8515052 -1.4156624 1.943888 2.0677512 1.1661568
-2.0745325 -0.62312627 0.8180783 -0.045044184 3.1814127 2.0392058 -3.8033354 3.6094031
0.5475333 1.524259 -0.99802506 -0.26226056 2.662409 -3.007896 3.0653157 -1.8063569
-0.5900706 -1.4663024 0.3854385 -3.5429368 3.5397844 -0.27085236 -1.3049867 1.1455542
1.7723047 -1.0633172 -0.36595613 1.3597468 1.4396169 0.6599482 2.8740165 -0.29843774
1.7461877 2.9075897 -0.37981415 3.4475558 -0.7856983 -1.3013108 -3.007815 0.8168241
1.6967574 3.9917128 -2.171834 -2.6087623 -2.7808237 3.791864 1.6984314 3.2648218
-1.3239409 2.3885648 -1.1339513 0.39334983 1.0393873 1.0093085 -0.80592406 -1.5960301
3.690475 0.49213398 -2.160452 -2.9102058 -1.8969595 -1.4410043 0.22075352 2.0685787
-1.771004 -2.5337417 1.8935062 0.61614484 2.1162062 -1.5035572 -2.862357 -0.2384637
-1.3601108 2.2353508 -2.8505797 -4.5229135 1.0062381 3.1229138 -0.7299016 -1.9872484
-1.9098159 0.7688586 3.1033268 -0.71826774 2.0048544 3.119266 0.6831954 -3.40499
-2.9852188 -1.5596727 -1.9144824 0.058241926 -1.3068417 -1.5734701 2.482863 -0.38181722
1.4575504 0.5970102 1.6221797 0.8412618 0.31149873 -4.241006 3.6655526 -0.72939694
-1.114685 1.8517735 1.1381085 0.04217722 0.5728794 1.5455203 -1.0943973 0.2608934
-2.7655969 -1.4368792 -1.4774098 0.5480775 -2.164898 -0.63205206 -1.8682202 0.9468699
-2.8618314 -2.757889 -3.6962593 1.6771265 0.54449695 0.58354616 1.5939717 1.1069081
0.52734077 -0.26783243 0.09701501 -0.497036 -2.6956353 0.9345533 -0.77870435 -3.0850153
2.1707914 1.5922813 0.68448305 -1.6137371 2.090162 2.2582984 -0.6820689 -1.9273635

bias f4 [20]
00000000: 20e8 6cc0 82a9 75c0 0ad9 7d3f c138 fcbf
00000010: 8b71 a9c0 85dc 78c0 7215 4fc0 110e ebbf
00000020: 04fd d3c0 99fe 14c0 05cd 15c0 10f8 d7be
00000030: cdf1 99c0 9d4d 6ec0 9607 98bf 4bc8 94c0
00000040: 8b0e 1bc0 c759 c1bf 0223 70c0 e795 13c0
-3.7016678 -3.838471 0.991593 -1.970482 -5.29511 -3.8884594 -3.235684 -1.8363668
-6.6246357 -2.3280394 -2.3406384 -0.42181444 -4.8107667 -3.7234871 -1.1877315 -4.64945
-2.4227626 -1.5105523 -3.7521367 -2.3060243

weight f4 [20, 20]
00000000: eaa3 24c0 6ab9 6abf d41c c7bf 375a cabf
00000010: 0345 4ebf 6509 57bf e860 b9bf b4da 88bf
00000020: 73f3 c5bf 572a abbf f500 2240 1752 8bbf
00000030: d6ac aabf 088d 81bf 85ba 5340 1445 4dbf
00000040: 3cfb 69bf 1b06 45bf e137 b8bf acfe 51bf
00000050: df78 293f 9ec2 6fbf 67cd a5bf 004c a9bf
00000060: 7d84 83bf 8087 8abf 619a 91bf 64cf a3bf
00000070: e534 c0bf 2233 1ebf 3f5c 1bc0 df13 1dbf
00000080: 6f14 c7be c282 8dbf 867c 4fc1 3783 8abf
00000090: db72 3cbf c1d7 1cbf f721 6fbf 4172 adbf
000000a0: a4bf 963f e7f7 65bf 72fb a7bf 5078 94bf
000000b0: 682e 86bf 5b4c 00bf 8d4f babf f8a4 66bf
000000c0: d99a c9bf 53a6 df3e f3eb 4c3f 5455 12bf
000000d0: a300 9fbf 6aa6 a1bf 1e9d debf ccf7 33bf
000000e0: a4a7 a4bf a74b 48bf 342e a8bf 0c7e c0bf
000000f0: a9e7 993f 0d91 afbf 039b c5bf 0eb8 83bf
00000100: 3ae6 15bf afa5 85be b9fb 5abf 6138 5abf
00000110: 1aa7 babf 048e 1ebe bf2a 86c0 8b7b 6ebf
00000120: 8f59 afbf ed1e a9bf b741 34c0 af62 b4be
00000130: e4f3 64bf ffd1 f8be 240f 18bf fbbb 9cbf
00000140: fb6a 9b3f d86d 5abf c0d3 cabf 1fa6 75bf
00000150: c6f7 34bf 2447 ce3e a8b6 a1bf 127d c2bf
00000160: bca2 97bf 5e40 3a40 d4b6 da40 bbb1 fabe
00000170: 54b7 8dbf 69d8 96bf 801a bfc0 2286 25be
00000180: 6003 71bf ff31 73bf eb31 3bbf e526 6dbf
00000190: e84e 08c0 c00c 71bf 854a bebf 9b2b 89bf
000001a0: 5876 38bf 165d 67bf 92fd cabf da17 c6bf
000001b0: 28d7 a7bf 0905 9c3f 4554 09c0 2963 23bf
000001c0: 1bd0 88bf bee3 a2bf 1ec1 f940 26aa 9cbf
000001d0: 296d 3bbf f675 a4bf 5b08 c8bf acb2 b9bf
000001e0: 674b 43c0 a412 a5bf b97a 80bf 1bd4 b8bf
000001f0: 6994 a5bf 3640 52bf 273b 8fbf 1579 c7bf
00000200: 0727 aabf 132c 7b3e 9493 883f 8393 8abf
00000210: 7f85 a1bf 0b19 c7bf 67c9 a8bf 09de 21bf
00000220: 7ffb 63bf 3b3d 73bf b34a 93bf 8bf7 b4bf
00000230: 9d17 0cbf 8a43 7bbf c30a 9abf 10fe 9abf
00000240: aac5 84bf 39db adbf 142f c1bf 94c9 80bf
00000250: 0a63 83bf e407 b5bd 4510 7b3f eb94 f4bd
00000260: 9883 39bf 55ee 80bf 333a bf3f bf30 5dbf
00000270: 9bd0 1ebf cb25 54bf a168 98bf 36b4 9ebf
00000280: 6206 97c0 fd87 c5bf dd36 b6bf fedb b9bf
00000290: cb6f 8abf 84e9 a6bf fea6 55bf f2ab 94bf
000002a0: c8a3 60bf 4c75 15c0 1306 f23e 93b7 ffbe
000002b0: 2dc3 50bf ba0f b7bf a05e 5641 f7c3 6fbf
000002c0: c51d 62bf c4f9 40bf 66a0 81bf 6467 76bf
000002d0: ce4b 92bf 6e09 b9bf a147 54bf fa14 a8bf
000002e0: 4f91 29bf 67be 8dbf c815 a8bf 90d7 62bf
000002f0: 05b8 88bf b0e0 ebc0 4e7b 9dbe 278c 55bf
00000300: 0e70 d9bf c870 b4bf de95 3040 099f 18bf
00000310: a7f7 49bf 8644 6cbf 65a0 77bf 67d7 aabf
00000320: 63f0 0c3f 8c9f 95bf 9458 81bf d2ce 82bf
00000330: dab5 2abf 6bfa e1be fd3c a2bf 7795 aabf
00000340: 9639 58bf bcca 24bf dc76 23bf e120 9abf
00000350: a997 8fbf 8020 8bbf 0b6e 65c0 e0c6 89bf
00000360: aa91 81bf 33a6 6ebf 04fa 72bf c811 c1bf
00000370: ee2e aa3f 9918 93bf 63ac 9ebf e0f8 b2bf
00000380: fd30 54bf 8ec7 2f3e 6ab8 b7bf 2d3b 86bf
00000390: b864 8ebf 5a05 ddbf 5462 873f 07ee 76bf
000003a0: 7be3 d8bf 4b01 c0bf 572a 25bf fd92 58bf
000003b0: 4085 43bf a462 75bf f6db 1dbf 535b 99bf
000003c0: 88c4 edbf fa57 b2bf dac0 a1bf 3f5c a0bf
000003d0: 1165 93bf 90fc 43bf 2667 8bbf d874 60bf
000003e0: f06d c6bf 2872 97c0 f709 f840 9a53 3bbf
000003f0: a245 a8bf d941 77bf 61c2 6bc1 baa0 27bf
-2.5725045 -0.9168917 -1.5555673 -1.5808781 -0.80574054 -0.8399871 -1.4482698 -1.0691743
-1.546492 -1.3372296 2.5313084 -1.0884427 -1.3333995 -1.0121164 3.3082592 -0.8018353
-0.9139898 -0.7696244 -1.4392053 -0.82029223 0.6620006 -0.9365634 -1.2953309 -1.3226318
-1.0274807 -1.0822601 -1.1375238 -1.2797666 -1.5016142 -0.6179677 -2.4275053 -0.61358446
-0.38882777 -1.1055529 -12.967901 -1.0821294 -0.73612756 -0.61266714 -0.934112 -1.3550493
1.1777234 -0.89831394 -1.312361 -1.1599216 -1.0482912 -0.5011651 -1.4555527 -0.9009547
-1.5750381 0.43681583 0.8004753 -0.5716145 -1.2422069 -1.262891 -1.7391698 -0.70299983
-1.286366 -0.78240436 -1.31391 -1.5038466 1.2023822 -1.3716141 -1.5437931 -1.0290544
-0.5855442 -0.2610297 -0.8554035 -0.8524228 -1.4582245 -0.15483862 -4.192718 -0.9315726
-1.3699206 -1.3212563 -2.816511 -0.3523154 -0.8943465 -0.48597714 -0.593981 -1.2244867
1.2142023 -0.8532386 -1.5845871 -0.95956606 -0.7069057 0.4028865 -1.2633867 -1.5194418
-1.1846538 2.9101787 6.834818 -0.48963723 -1.1071572 -1.1784793 -5.971985 -0.16164449
-0.94145775 -0.94998163 -0.73123044 -0.92637473 -2.129816 -0.9416008 -1.4866492 -1.0716432
-0.7205558 -0.9037641 -1.5858634 -1.5476029 -1.3112535 1.2189037 -2.1457684 -0.6382318
-1.0688509 -1.2725751 7.804824 -1.2239425 -0.7321344 -1.2848499 -1.562755 -1.4507651
-3.0514772 -1.2896314 -1.0037452 -1.443973 -1.2935916 -0.8212923 -1.1189927 -1.5583826
-1.329316 0.24528532 1.0670037 -1.0826267 -1.2618865 -1.5554518 -1.3186463 -0.63229424
-0.8905563 -0.95015305 -1.1507171 -1.4138044 -0.5472353 -0.9814993 -1.2034534 -1.2108784
-1.0372822 -1.3582526 -1.5092492 -1.0061517 -1.0264599 -0.08839396 0.980717 -0.11942466
-0.7246642 -1.0072733 1.4939636 -0.86402506 -0.62037057 -0.8287017 -1.190693 -1.2398746
-4.719529 -1.5432125 -1.4235493 -1.4520261 -1.0815367 -1.3040013 -0.83457935 -1.1614974
-0.8774991 -2.3352842 0.4727026 -0.49944744 -0.81547815 -1.4301674 13.398102 -0.93658394
-0.88326675 -0.7538111 -1.0127075 -0.9625151 -1.1429384 -1.4456003 -0.829218 -1.3131402
-0.6623735 -1.1073731 -1.3131647 -0.8861017 -1.0681158 -7.3711777 -0.30758137 -0.8341698
-1.6987321 -1.4096918 2.7591472 -0.5961767 -0.7889351 -0.9229206 -0.9672912 -1.3346986
0.550543 -1.1689315 -1.0105157 -1.0219367 -0.66683733 -0.44136366 -1.2674862 -1.3326863
-0.8446287 -0.6437185 -0.6385324 -1.2041284 -1.1218158 -1.0869293 -3.5848415 -1.0763817
-1.0122578 -0.9322235 -0.94912744 -1.5083551 1.3295572 -1.1491882 -1.2396358 -1.3982201
-0.8288725 0.17165968 -1.4353154 -1.0486809 -1.1124487 -1.7267258 1.0576882 -0.9645695
-1.6944422 -1.5000395 -0.6451773 -0.84599286 -0.763752 -0.9585364 -0.6166376 -1.1980995
-1.8575602 -1.3933098 -1.2636979 -1.2528151 -1.1515218 -0.76557255 -1.0890853 -0.8767829
-1.55023 -4.732685 7.7512164 -0.7317444 -1.314625 -0.9658485 -14.734956 -0.65479624

bias f4 [20]
00000000: 396e d6bf a7bd 99bf 4fbd 99bf a7bd 99bf
00000010: fd64 98bf 23ae 8fbf acbd 99bf a9bd 99bf
00000020: a5bd 99bf 55aa 853c 17dd 14c0 926a 54bf
00000030: bc3c e0be a9bd 99bf b76a de3f a83b 86bf
00000040: 5574 8abf deed a3bf 79ec a4bf a9bd 99bf
-1.6752387 -1.2011002 -1.2010897 -1.2011002 -1.1905819 -1.1225017 -1.2011008 -1.2011005
-1.2011 0.016316572 -2.3259943 -0.82975113 -0.43796337 -1.2011005 1.7376317 -1.0486956
-1.0816752 -1.2806966 -1.2884666 -1.2011005

weight f4 [20, 8]
00000000: 1dd9 b2bf 72dd c13e 483e c53f 3bd7 11c0
00000010: 4d44 65bf f6e2 b43f 2155 0640 687f 7bbf
00000020: 1a1c 97bf 756e c7bf 00a7 963f e420 8dbf
00000030: 741a 9a3f da6f 5d3f 8756 963f faf3 56bf
00000040: 4943 a6bf 8d53 3e3f a360 c9bf 8f0a 5dbf
00000050: 014f 8a3f 7e7e 5c3f 46dd c53f 3e37 5ebf
00000060: 184d bcbf be41 b6bf 64b4 9d3f f0bf 4abf
00000070: c904 903f dfee 533f c749 793f 1925 44bf
00000080: b715 7b3f 6b1a 813f 5f5d d53f df61 853e
00000090: fc31 593f d2ba 0abf fe18 e73f bb2f 493f
000000a0: 4b27 2e3f 0e3b cd3f 577b bb3f 5dbc 1abe
000000b0: 9886 4b3f c87b 36bf d4cc d43f 8f83 023f
000000c0: 7d11 49bf 719d 59bf 368b d33f 984c 49bf
000000d0: 812e 973f a1a5 b23f fa20 703f 9915 62bf
000000e0: 1871 a2bf 3c0a 62bf 98df 813f 42f8 cfbf
000000f0: 61d3 973f e9e2 5d3f 23e1 643f 4290 61bf
00000100: b903 91bf f77b bfbf aa85 b43f 0706 41bf
00000110: 1391 a83f fd0e 5b3f ef69 923f 5323 96bf
00000120: eb5a ddbf dff7 7e40 2d35 2040 692a e940
00000130: f405 fabf f5db 6ebd e25c c73e 7568 1abf
00000140: 83f7 7cbf def6 0940 f567 2540 e8ca a13f
00000150: 4c85 2b3f 48f7 8e3e bf9a a4c0 5e12 c23f
00000160: c3e5 c03f c862 593f 92a3 c73f 7cca 58bd
00000170: 6163 303f a1d1 02bf 62b2 923f 37c5 053f
00000180: bed1 67be 2b11 3c3f b728 9fbe 8da3 7bbf
00000190: 53e4 253e 3392 0840 7444 91be 08ab 6ebe
000001a0: 015f 94bf b8f2 a4bf aec0 873f 8aeb bbbf
000001b0: accc 783f 6936 423f 8982 943f 20cc 55bf
000001c0: 9eaa eabc ec57 2340 670f 4b40 f9f9 ed3f
000001d0: f9a5 f4c0 a7dd 523e 1595 2b40 3de3 b4c0
000001e0: 4b2a 9d3f 0f6d 3f3f f670 bd3f 7511 223e
000001f0: 671c 233f 0259 0ebf b1a4 c23f 2385 0e3f
00000200: 637f b73f efc4 a03f 678f dd3f 29e9 5c3d
00000210: 5eab 863f bbc8 cfbe f554 9e3f b732 233f
00000220: fc1d 6f3f 2ec4 8b3f e577 e23f 030c c53e
00000230: 9623 583f d7c9 17bf ad88 d13f 7b2a 923f
00000240: 6b65 443f a927 b33f 029f 9b3f fd3d 083f
00000250: ed53 943f cb52 17bf 393e 983f d8b1 403f
00000260: 1b8f 91bf f993 593f 6fb6 aa3f e868 53bf
00000270: 3e82 a8bf 74ff 613f 99cd a33f 7e5c 66bf
-1.3972508 0.37864262 1.5409632 -2.2787616 -0.89557344 1.4131763 2.0989459 -0.9824128
-1.1805451 -1.5580584 1.1769714 -1.1025662 1.2039323 0.86498797 1.1745156 -0.8396603
-1.2989284 0.7434624 -1.5732616 -0.86344236 1.080536 0.8613051 1.5458152 -0.8680304
-1.4711027 -1.4238813 1.2320676 -0.79199123 1.125146 0.82786363 0.973782 -0.76619107
0.9808001 1.0086187 1.666912 0.26051232 0.84841895 -0.54191315 1.8054502 0.78588456
0.68028706 1.6033647 1.4647015 -0.15110917 0.7950225 -0.71282625 1.6625009 0.5098199
-0.7854231 -0.8500586 1.6526859 -0.786325 1.1811067 1.3956796 0.9380032 -0.88314205
-1.2690763 -0.88296866 1.014636 -1.6247637 1.1861383 0.8667436 0.8940603 -0.88110745
-1.1329261 -1.4959706 1.4103291 -0.7539982 1.3169273 0.85569745 1.1438578 -1.172953
-1.7293371 3.9838789 2.5032456 7.286427 -1.9533067 -0.058315236 0.3893805 -0.6031564
-0.9881517 2.1556926 2.58447 1.2640047 0.6700027 0.27923036 -5.14389 1.5161855
1.5070118 0.84916353 1.5596793 -0.05292748 0.6890164 -0.5110112 1.1460688 0.5225405
-0.22638604 0.73463696 -0.3108575 -0.98296434 0.1620038 2.1339233 -0.28372538 -0.2330743
-1.1591493 -1.2886572 1.0605676 -1.4681256 0.97187304 0.75864273 1.1602336 -0.83514595
-0.02864581 2.5522413 3.172815 1.8591911 -7.6452603 0.20592366 2.6809742 -5.652739
1.2278532 0.74775785 1.4800098 0.15826972 0.63715214 -0.55604565 1.520651 0.556719
1.433575 1.2560099 1.7309388 0.053933296 1.0521047 -0.40582833 1.2369677 0.6374926
0.9340513 1.0919244 1.7692839 0.38485727 0.844293 -0.5929236 1.6369835 1.1419214
0.7671725 1.3996478 1.21579 0.53219587 1.1588112 -0.5911071 1.1893989 0.7527137
-1.1371797 0.84991413 1.3336924 -0.8258195 -1.3164747 0.88280416 1.2797118 -0.8998488

bias f4 [8]
00000000: be0a 8040 dff4 f3be 97dd 8ec0 843a 5e40
00000010: 7d8d 8f40 1c08 45c0 3108 cec0 1067 7f40
4.0013113 -0.4764776 -4.4645495 3.4723215 4.4860215 -3.07862 -6.4385 3.9906654
