models/BAShape_Trained_Model.pt (torch, 2719 bytes, 4 tensors)

weight f4 [1, 20]
00000000: 178b 9f3e 6633 bcbe 23ec 103f 8c21 49be
00000010: 2a5a 8c3e b223 2e3f 16aa edbe 6f45 b63e
00000020: 3b23 2e3e c159 04bf 9a60 53bd 1619 6c3f
00000030: 8733 31bf 004b 3abb 24ef e2bd a95b 4f3f
00000040: 76da 73be 2231 183f 703a 803f 35aa 4e3f
0.31160805 -0.36757964 0.56610316 -0.19641703 0.2741254 0.68023217 -0.46418828 0.3559985
0.17005627 -0.51699454 -0.0516058 0.9222578 -0.6921925 -0.002842605 -0.11080769 0.8099924
-0.23813805 0.5944997 1.0017834 0.80728465

bias f4 [20]
00000000: e466 c5bd 0000 0000 0e86 87be 0000 0000
00000010: 231d bc3e e31a 9bbe 0000 0000 4685 52be
00000020: ac26 b63d 0000 0000 d6ec 3e3f b886 e0be
00000030: c79c 783f 0000 0000 0000 0000 ecbb c2be
00000040: 0000 0000 0e23 59be 9fa5 f5be 7da4 a0be
-0.096387655 0.0 -0.26469463 0.0 0.3674098 -0.3029395 0.0 -0.20558652
0.08894095 0.0 0.7458013 -0.43852782 0.97114223 0.0 0.0 -0.38033998
0.0 -0.21204779 -0.4797792 -0.31375495

weight f4 [20, 4]
00000000: 9891 88be ad4b 9cbe f213 a03e f658 bc3e
00000010: 16fa eabe 9c6e f4be 609b 13bd 98e4 223e
00000020: 66f8 35bf d862 c3be 6bab 693f 2a68 bebe
00000030: 9e59 b23e 3400 133e ba36 debe 34bc e6be
00000040: 2950 d63e f733 ba3d 4bdc bbbe 2b3f 9a3d
00000050: 9dd0 a8be 31ff e93e 56cd a23f 27fc 0bbf
00000060: 6a2e cdbe 6695 8a3e bcce 99be 6084 62bd
00000070: 0b4a 7e3d a16e febd 8cec 993f e1f0 0fbf
00000080: 8feb 753e c0ed b83e 9df4 9bbe 3d6c 1cbf
00000090: 809b ec3c 649a 793e 44e5 a3be d863 fd3d
000000a0: 0a84 bc3e fe2b 2f3f a92e 9fbf 24ae 403d
000000b0: 3112 a0be 94fa 6a3d 5812 7c3f 2a36 27bf
000000c0: e781 693f 1799 d23e 4421 7bbf cbf9 ff3e
000000d0: f460 1fbe e83d e93d 0062 d03c ca05 b1be
000000e0: 10d6 44be e8c3 35be 0030 fdbd f24f e3be
000000f0: fdf8 10bf 963a b23d 93be 813f 7a8e 3ebf
00000100: a0cb da3d fe63 8b3e 4833 d53e 5873 d73e
00000110: f4d8 e6be 5765 713c f643 e63e 261e 2fbd
00000120: bdac a4bc 3937 603e a519 963f 2a73 a03d
00000130: d43b 0dbf 123a 073f 3667 a43f bb72 27be
-0.2667358 -0.30526486 0.31265217 0.36786622 -0.45893925 -0.47740638 -0.03603685 0.15907514
-0.7108215 -0.3816135 0.9127719 -0.37188846 0.34833997 0.14355546 -0.43401128 -0.45065463
0.41858032 0.09091943 -0.36691508 0.075315796 -0.3297166 0.45702508 1.2718914 -0.5468163
-0.40074474 0.27067107 -0.30040538 -0.055302024 0.06208233 -0.124234445 1.2025313 -0.5622693
0.2401564 0.3611889 -0.30460063 -0.6110266 0.028882742 0.24375302 -0.32010853 0.12372559
0.36819488 0.684265 -1.2436115 0.047041073 -0.3126388 0.057367876 0.9846549 -0.6531702
0.9121384 0.41132423 -0.98097634 0.49995264 -0.15564328 0.11388761 0.025437355 -0.3457473
-0.19222283 -0.17750514 -0.12362671 -0.4439693 -0.56629926 0.08702581 1.0136284 -0.7443615
0.1068337 0.27224725 0.41640687 0.42080188 -0.45087397 0.014733634 0.44973725 -0.04275336
-0.0201019 0.21896066 1.1726576 0.07834466 -0.55169415 0.52822983 1.2843997 -0.1635236

bias f4 [4]
00000000: e163 a83e 6c27 06bf 08a5 1bbf 05b2 e73d
0.32888702 -0.52403903 -0.6079869 0.113132514
