models/BSG_Trained_Model.pt (torch, 238593 bytes, 384 tensors)

weight f4 [10, 20]
000000 0e 31 45 be 43 4e 98 be a2 e7 ca be e4 b0 83 be
       -0.19256994 -0.2974721 -0.39629847 -0.25720894
000010 70 ae 75 3e a8 a5 b4 3e 1a 44 8a be b0 f0 9a 3c
       0.23992324 0.35282636 -0.27005082 0.018913597
000020 d8 a7 0e bd f0 bd 82 bd d0 01 c2 3e 46 29 9b 3e
       -0.034828037 -0.06383884 0.37892008 0.30304927
000030 80 ef cf bc e0 b8 29 3e 47 9f de be fa 2d b1 3e
       -0.025382757 0.1657443 -0.43480894 0.3460539
000040 86 61 e1 3e d7 87 89 be fc fe d2 bd b8 f3 86 bd
       0.44019717 -0.2686145 -0.10302541 -0.065894544
000050 13 51 6f be c2 dc 42 be 58 05 9e 3e 0c 38 c5 be
       -0.23370771 -0.19029525 0.30863452 -0.38519323
000060 83 70 54 be 68 93 9a 3d 50 ee 49 3e 9b c4 d1 be
       -0.20746045 0.07547647 0.19719815 -0.4097031
000070 68 61 36 be 02 0d 5c be 2d 6a b9 be 00 1a d1 3d
       -0.17810595 -0.21489337 -0.36213818 0.10210037
000080 d0 a1 90 3c 08 41 2e 3e f4 93 83 be 34 21 3b 3e
       0.017655283 0.17016995 -0.25698817 0.18274385
000090 fc 60 df 3e d6 e7 e1 3e c0 d0 e0 3b 0c 05 6f 3e
       0.4362868 0.4412219 0.0068608224 0.23341769
0000a0 b0 f5 5e be 20 9c 0b be 25 9b c5 be f0 a1 a6 3c
       -0.2177341 -0.13633776 -0.38594928 0.02034089
0000b0 e6 6d a1 3e d2 39 0d be 50 66 2d 3d fb 56 dd be
       0.31529158 -0.13791588 0.0423339 -0.43230423
0000c0 d8 d8 54 3e e0 96 a8 bd 30 63 c8 3c 6c 4d d0 be
       0.20785844 -0.08231902 0.024461359 -0.40684068
0000d0 ca 62 8d be 7c 97 19 3e 58 f7 82 3e d8 d5 19 bd
       -0.27614433 0.14999193 0.25579333 -0.037557453
0000e0 18 0e 0d 3d e4 f6 a0 be 3c 81 e0 bd 10 8d a7 3d
       0.03443727 -0.31438363 -0.109621495 0.081812024
0000f0 0e 2d 27 be 00 ba 6d be b0 af d6 3d 86 4d 88 be
       -0.16325781 -0.23215485 0.104827285 -0.26621646
000100 f4 67 8a bd 22 b9 2a be 6a dc 45 be b4 27 4a 3e
       -0.06758109 -0.16672185 -0.19322363 0.19741708
000110 78 78 46 3e a0 59 62 3e 40 1a 20 3e 3b 39 5f be
       0.19381893 0.22104502 0.15635014 -0.21799175
000120 0a 21 93 3e 54 66 23 3e 30 01 f7 3d a0 1a 37 3e
       0.28736144 0.15957004 0.120607734 0.1788125
000130 68 aa a5 3d a8 10 8e 3d b0 85 d9 3d 4c 7c 4f 3e
       0.08089143 0.06936771 0.10621202 0.20262259
000140 9a ed 83 3e 74 66 42 3e 90 92 7a 3d a8 d7 a2 bd
       0.25767213 0.18984395 0.06117493 -0.079512894
000150 e0 28 d6 3d 36 59 43 be 90 b7 41 3d 20 b1 73 bc
       0.10457015 -0.19077 0.0472942 -0.014873773
000160 a4 9a 74 3e a2 57 cf 3e 72 15 b2 3e b0 bf a3 bc
       0.23887116 0.40496546 0.34781986 -0.019988865
000170 34 56 22 3e 40 50 83 bb 64 43 65 3e c5 ec e1 be
       0.15853196 -0.0040073693 0.22388989 -0.44125953
000180 7e 0c b9 3e a6 14 b8 3e 78 52 15 3e c8 25 c4 3e
       0.36142343 0.35953254 0.1458224 0.38310075
000190 70 f5 5e bd 8c 10 2d 3e e8 93 3c 3e c0 8a 63 3d
       -0.054433286 0.16900843 0.18415797 0.055552244
0001a0 28 fa ab 3e 28 07 7c 3e 54 4f 83 3e 0c 1c cb bd
       0.33589292 0.24612105 0.2564646 -0.09917459
0001b0 00 a7 ca 3d e7 1e 96 be e8 53 50 3d 50 2e e2 3c
       0.09895134 -0.29320452 0.05086127 0.027609974
0001c0 50 e9 c4 3d 74 63 ca bd e2 c9 1d be a0 dd 3e bc
       0.09614813 -0.098822504 -0.15409043 -0.011649519
0001d0 20 a2 1d 3c 52 13 b8 3e 62 24 bd be a0 01 da 3e
       0.009621173 0.3595224 -0.3694182 0.42579365
0001e0 93 d0 e0 be 40 41 1f 3e e0 5c b3 bd d2 6a d6 3e
       -0.4390913 0.15552235 -0.08757949 0.41878372
0001f0 67 3d bf be 20 e1 8e 3e 32 a2 7a be 72 d6 d3 3e
       -0.37351534 0.27906132 -0.24475935 0.41374546
000200 80 21 79 3e d0 e4 62 bd a2 ca a2 be d8 50 1e 3d
       0.24329185 -0.055393994 -0.31795222 0.038651317
000210 6e 2f b8 3e d0 89 a6 3d 6c 59 a9 be 62 de a8 3e
       0.35973686 0.081317544 -0.33076036 0.32982165
000220 16 b3 cc be 48 49 0b 3d a8 34 89 be 8d 16 a9 be
       -0.39980382 0.034005433 -0.26797986 -0.33025017
000230 ca b4 13 be 00 82 6f 3d 98 3d d9 3d 77 9f ab be
       -0.14424434 0.058473587 0.10607451 -0.335201
000240 30 fe af 3d ac 3e 92 3e 0c 22 de 3e 98 76 40 bd
       0.08593404 0.2856344 0.4338535 -0.0469881
000250 b4 4d e4 3e fe 72 ad be fc 52 4c 3e 95 46 e1 be
       0.44590533 -0.33876795 0.19953531 -0.43999162
000260 7e 3a c2 3e 82 86 72 be c8 b9 15 bd e0 54 de be
       0.3793525 -0.23684123 -0.036554128 -0.4342413
000270 2e 67 c5 be cc b5 8b 3e d0 cb b0 3c 60 bb 14 3d
       -0.38555282 0.27287138 0.02158156 0.036311507
000280 20 0b 9d 3e 5c 01 30 3e 3e ad bd 3e 10 9d 65 3e
       0.3067255 0.17188019 0.37046236 0.22423196
000290 a4 5b a7 3e 44 c4 4a 3e 02 c6 89 be 22 19 c1 be
       0.32687104 0.19801432 -0.2690888 -0.37714487
0002a0 08 fb ab bd f8 d7 a6 3e 2e f7 81 be c4 e1 25 3e
       -0.0839749 0.32586646 -0.25383896 0.16199404
0002b0 20 bc 6d bc 27 14 bb be c4 10 29 3e 10 fc 8c be
       -0.0145101845 -0.36538813 0.16510302 -0.27536058
0002c0 93 af 7c be 6c 6f 93 3e 04 8f 36 3e c0 e4 fd 3d
       -0.24676351 0.28795946 0.17827994 0.12397146
0002d0 d0 70 b1 3e 80 3f a0 3e 26 34 ae be 70 65 d7 3c
       0.34656382 0.31298447 -0.3402416 0.026293486
0002e0 88 75 8d 3e dc 3b a6 3e d0 18 5c 3e 7c 62 8d 3e
       0.27628732 0.32467544 0.2149384 0.276142
0002f0 30 b8 f6 3d dc 9d 81 3e 88 97 6e bd 28 4b 3d bd
       0.1204685 0.2531575 -0.05824998 -0.046214253
000300 20 c0 4b 3e ec 67 30 3e e0 f3 3b 3c f4 bc 2f 3e
       0.19897509 0.17227143 0.011471719 0.17161924
000310 fc f4 b3 3e e6 93 19 be 78 eb 45 bd 88 ff 9e 3e
       0.35147846 -0.14997825 -0.048320264 0.3105433

bias f4 [20]
000000 00 00 00 00 00 00 00 00 00 00 00 00 00 00 00 00
       0.0 0.0 0.0 0.0
000010 00 00 00 00 00 00 00 00 00 00 00 00 00 00 00 00
       0.0 0.0 0.0 0.0
000020 00 00 00 00 00 00 00 00 00 00 00 00 00 00 00 00
       0.0 0.0 0.0 0.0
000030 00 00 00 00 00 00 00 00 00 00 00 00 00 00 00 00
       0.0 0.0 0.0 0.0
000040 00 00 00 00 00 00 00 00 00 00 00 00 00 00 00 00
       0.0 0.0 0.0 0.0

weight f4 [10, 20]
000000 1e 64 8a 3e e0 ac d4 3c a4 81 aa 3e 10 95 13 be
       0.27029508 0.02596134 0.33302033 -0.14412332
000010 50 c5 ae 3e 00 66 19 3e 54 2e e4 be c8 11 34 3d
       0.34134912 0.14980316 -0.44566596 0.04396227
000020 9f 49 85 be 84 4d ea bd 5e f4 8a 3e 10 6e 54 3d
       -0.2603273 -0.11440566 0.27139562 0.051862776
000030 42 45 df be 10 6d c9 be 6d 15 bc be 6e 25 1b be
       -0.43607527 -0.3934102 -0.36735097 -0.15150997
000040 b8 89 cd bd 90 d8 a4 3e 80 19 00 bd 30 76 c1 be
       -0.100360334 0.32196474 -0.03127432 -0.37785482
000050 6c a4 2f 3e e0 db 5e bc d2 6c b9 3e 94 5d e0 3e
       0.17152566 -0.013602227 0.36215836 0.43821394
000060 ce 44 d3 be aa 75 77 be 3e c7 5a be 21 35 b4 be
       -0.4126343 -0.24165979 -0.21365067 -0.35196784
000070 48 cf 7f 3e d0 65 e4 3e 68 de f4 bd 8c 5f 0f 3e
       0.24981415 0.44608927 -0.11956483 0.14001292
000080 58 b4 b6 be f8 c6 22 3e bc a8 4d 3e 90 a9 58 bd
       -0.35684466 0.15896213 0.20083898 -0.052896082
000090 02 b1 bf 3e 9f 3f 9f be a0 6b e4 3e 78 ed 3c be
       0.37439734 -0.31103227 0.4461336 -0.18449962
0000a0 ab 37 67 be c0 7f 40 bd f4 e0 e5 bd d8 06 73 3e
       -0.2257983 -0.046996832 -0.11224547 0.2373308
0000b0 74 81 15 3e 16 4f 12 be f1 65 dc be 38 29 a1 3e
       0.14600164 -0.14287981 -0.43046525 0.3147676
0000c0 48 26 7a 3e 58 ef da bd c8 c5 8e be a4 b6 b5 3e
       0.24428666 -0.106901824 -0.2788527 0.35490906
0000d0 bc 93 09 3e 20 ff 21 3e 7e 27 80 be 18 09 3d bd
       0.13435262 0.15819979 -0.2503013 -0.04615125
0000e0 f8 75 b1 3d 9a fd a9 be c3 2d 51 be 58 30 5c 3e
       0.08665079 -0.33201295 -0.20427613 0.21502817
0000f0 d8 32 65 3e a4 1d ba 3e 86 7c a2 be c5 c4 63 be
       0.22382677 0.3635074 -0.3173563 -0.2224303
000100 9e b0 c9 be ae c9 cc 3e 8a 88 d9 3e 50 67 32 3e
       -0.3939256 0.3999762 0.42486984 0.17422223
000110 c8 fd 22 be a3 c3 92 be c8 10 5f 3e 44 53 83 be
       -0.15917122 -0.28664884 0.21783745 -0.25649464
000120 b5 2b 90 be 3c eb 7e 3e 53 1b 7e be 10 c5 d2 3d
       -0.28158346 0.24894422 -0.24815111 0.10291493
000130 98 d9 0d 3e 9e b2 45 be ec 99 95 3e 30 cc 41 3e
       0.13852537 -0.19306418 0.29218996 0.18925548
000140 a8 33 cf 3e 26 83 83 be 28 44 a7 3d 6e 7a 93 be
       0.40469098 -0.25685996 0.08167297 -0.28804344
000150 76 0b cd 3e 58 62 14 3e 78 d1 b5 3e ac 44 11 3e
       0.40047807 0.1449064 0.35511374 0.14186352
000160 eb c1 6a be 70 98 5a 3d bc 77 15 be f5 1a dd be
       -0.22925536 0.053368032 -0.14596456 -0.4318463
000170 0e e2 d3 be 50 75 fa 3d 2a 3f a1 be 88 9d ad 3d
       -0.41383404 0.12229407 -0.31493503 0.08477312
000180 58 e4 cd bd 12 11 c0 3e 38 5f ef bd e0 c9 db 3e
       -0.10053319 0.37513024 -0.116880834 0.42927456
000190 ae da 43 be a4 c7 bd be c8 f4 c1 3d 5e 29 89 3e
       -0.19126388 -0.37066376 0.094705164 0.26789373
0001a0 10 24 bb bc 08 b4 e9 bd 40 f5 02 3d 68 7b 03 3d
       -0.022844344 -0.11411291 0.03197217 0.03210011
0001b0 72 af 95 be 2a 24 a0 3e dc 92 d9 3e 10 fd 14 3d
       -0.29235417 0.3127759 0.42494857 0.03637415
0001c0 fa 29 1d be a8 15 c8 be 7c d8 10 3e 81 11 b3 be
       -0.15348044 -0.39079022 0.14145082 -0.34974292
0001d0 39 c1 d5 be e0 4e df 3d 7a 2c 8e be 86 e8 bb 3e
       -0.4174898 0.10903716 -0.27768308 0.3670084
0001e0 a8 22 8f 3e f4 45 a7 bd 86 9f bd 3e d4 6e 96 be
       0.27956128 -0.081676394 0.3703577 -0.2938143
0001f0 c5 ca a0 be 30 74 08 3d 83 cc b8 be 64 b2 90 3e
       -0.314047 0.03331393 -0.3609353 0.282611
000200 a4 0a be bd 98 ad 8c 3d 58 1d 61 bd a0 9c 2d 3e
       -0.09279373 0.06869048 -0.054959625 0.16954279
000210 d0 d8 71 bd d8 f0 75 bd 6d 5a d1 be 62 78 8c be
       -0.05904466 -0.06004414 -0.40889302 -0.27435595
000220 e6 47 9c 3e 1c b5 85 3e 40 15 ad bc 6a 2e de be
       0.30523604 0.26114738 -0.021128297 -0.43394786
000230 e0 7c d6 bc b0 9d e3 3c 24 fa c4 be 92 7d 09 be
       -0.026182592 0.027785152 -0.38472092 -0.13426808
000240 58 ac ac 3e f8 25 bf 3d 92 0e c0 be a6 b6 85 be
       0.33725238 0.09333414 -0.37511116 -0.26115912
000250 1c 09 7e 3e f4 0e b0 be 18 8b 02 be c0 38 42 3d
       0.24808162 -0.34386408 -0.12748373 0.047417402
000260 5e 7a 5d be c0 ac 24 bd 14 ac 0f 3e 9c 29 21 be
       -0.2162871 -0.04020381 0.14030486 -0.15738529
000270 b6 d7 af be 88 de da 3d 9a 5f c8 be 00 a2 34 3d
       -0.34344262 0.10686976 -0.39135438 0.044099808
000280 14 e4 a8 be b2 ba da 3e ae 09 36 be e0 f0 a7 bd
       -0.3298651 0.42720562 -0.1777713 -0.0820024
000290 c0 a6 e6 bd 5c 50 0b 3e b4 a0 16 3e 4e 18 d6 be
       -0.11262274 0.13604873 0.14709741 -0.41815418
0002a0 62 bf bc 3e fc c8 0c be b4 de 73 3e 50 2b 7e be
       0.36864763 -0.13748544 0.23815423 -0.2482121
0002b0 8c 9f cd be 34 b9 45 3e fd eb 9c be 10 fe fd 3c
       -0.40160787 0.1930893 -0.30648795 0.031004936
0002c0 06 c9 b8 be 1a 8d 86 3e f9 c8 cd be 68 4d eb 3d
       -0.3609087 0.26279527 -0.40192392 0.114893734
0002d0 d0 82 70 bd 00 58 ac 39 01 5a c0 be 68 8e 1d 3d
       -0.058718503 0.00032871962 -0.37568668 0.038465887
0002e0 94 57 2f 3e b0 09 c4 3d e8 94 c4 3e c0 ce 57 3e
       0.17123252 0.0957216 0.38394856 0.21074963
0002f0 b4 27 87 3e 3e fa aa 3e 92 a4 a9 3e 74 e7 b0 be
       0.2639748 0.33394045 0.3313337 -0.34551585
000300 58 88 c0 3e cc a0 05 be 7c 4e 7b be b0 61 12 be
       0.37604022 -0.1304962 -0.24541658 -0.14295077
000310 0a 5f 24 be e3 ab ad be c4 ca 20 3e 88 f5 ac 3e
       -0.1605188 -0.33920202 0.15702349 0.33781075

bias f4 [20]
000000 00 00 00 00 00 00 00 00 00 00 00 00 00 00 00 00
       0.0 0.0 0.0 0.0
000010 00 00 00 00 00 00 00 00 00 00 00 00 00 00 00 00
       0.0 0.0 0.0 0.0
000020 00 00 00 00 00 00 00 00 00 00 00 00 00 00 00 00
       0.0 0.0 0.0 0.0
000030 00 00 00 00 00 00 00 00 00 00 00 00 00 00 00 00
       0.0 0.0 0.0 0.0
000040 00 00 00 00 00 00 00 00 00 00 00 00 00 00 00 00
       0.0 0.0 0.0 0.0

weight f4 [10, 20]
000000 62 b6 87 3e d8 58 31 3e cc e4 39 3e c0 e7 4b 3e
       0.26506335 0.17319047 0.18153685 0.19912624
000010 0d 98 ab be ea 68 08 be 44 e8 aa 3e b8 46 5a bd
       -0.33514443 -0.13321272 0.3338033 -0.0532901
000020 f0 b7 d5 be c8 b7 bb bd 60 7a a7 be 00 eb 28 3e
       -0.41741896 -0.09165913 -0.32710552 0.16495895
000030 64 1f b8 be 60 d1 4f 3c a0 c5 d1 bd a0 47 5f 3d
       -0.3596145 0.012684196 -0.10242772 0.054511666
000040 b4 23 9c 3e 70 93 af 3c 52 7a 62 be 78 fd 54 3e
       0.3049599 0.021432608 -0.22116974 0.20799816
000050 86 8f 87 be 98 42 b9 3e 58 38 92 be 24 2b de 3e
       -0.26476687 0.3618362 -0.28558612 0.4339229
000060 6c 58 6d 3e 1c dc bb 3e 68 a4 09 3e 34 29 22 3e
       0.23178262 0.36691368 0.13441622 0.1583603
000070 7e 21 de 3e e9 73 4d be da 4d c4 3e 9a 87 3c be
       0.43384928 -0.20063747 0.38340646 -0.18411103
000080 a8 fb 5f bd ff 62 d3 be 2a 36 5a be c0 e9 b4 3e
       -0.054683357 -0.41286466 -0.21309724 0.35334587
000090 f4 31 0b be 74 f4 ac be 33 72 d6 be b8 f8 73 bd
       -0.13593274 -0.33780253 -0.41884002 -0.05956337
0000a0 d2 e6 85 3e 40 f1 85 3d 9c 1b 5c 3e b1 18 aa be
       0.26152664 0.065401554 0.21494907 -0.33221963
0000b0 7e bf ae 3e f0 d7 80 be c8 40 61 3e 68 4c 75 bd
       0.34130472 -0.25164747 0.21997368 -0.05988732
0000c0 e0 1f 90 3e 6c 06 3e 3e 00 0a 4e 3b 13 e3 e2 be
       0.2814932 0.18557137 0.0031439066 -0.4431387
0000d0 5e 1f 07 be b8 39 8d bd 74 71 13 be 50 29 aa 3d
       -0.1319556 -0.068957746 -0.14398748 0.08308661
0000e0 e7 08 8a be 20 eb 66 3c bf 33 8b be 84 bf c5 3e
       -0.26959917 0.014094144 -0.27187917 0.38622677
0000f0 92 07 bf 3e df f7 49 be 2c cd 9b be 00 65 99 ba
       0.37310463 -0.19723462 -0.3042997 -0.0011703074
000100 64 52 da be c8 a8 dd 3e ae 25 ac 3e 00 35 4c 3e
       -0.42640984 0.43292832 0.33622497 0.19942093
000110 76 69 ce 3e 40 ba 9d 3e 70 89 ad be 70 8c cb 3c
       0.40314835 0.3080616 -0.3389392 0.02484724
000120 f9 1d 9e be e4 d6 99 be d0 d1 53 3d 76 fe 9c 3e
       -0.30882242 -0.3004676 0.051713765 0.30662888
000130 e0 bb c3 3d 4a fc b1 be 80 6b c1 3d c0 93 31 be
       0.09557319 -0.34762794 0.09444332 -0.17341518
000140 a2 46 12 be d0 c3 b0 be 86 4b 81 be 0b 43 bd be
       -0.14284757 -0.34524393 -0.25252932 -0.36965212
000150 e8 61 64 3e 1c f4 c7 3e f2 66 9e 3e 40 d1 67 3e
       0.22302973 0.39053428 0.30937916 0.22638416
000160 e8 7e 38 3d ec 48 a5 3e e8 c2 ee 3d 48 51 2b 3d
       0.045042902 0.32282197 0.11658269 0.041825563
000170 92 7a 80 be f0 25 d3 3d 68 74 26 bd b0 b2 6a 3d
       -0.25093514 0.103099704 -0.040638357 0.057299316
000180 5a a0 98 be f8 6a b3 3d a4 70 95 3e d6 c1 ab 3e
       -0.2980984 0.08760637 0.291875 0.33546323
000190 65 1f 52 be bc 3c b4 3e 02 fc a7 be 00 41 2c 3b
       -0.20519789 0.35202587 -0.32809454 0.002628386
0001a0 3a 17 b5 3e c9 7f d7 be 20 51 69 3d aa ba b4 be
       0.35369283 -0.4208968 0.056962132 -0.35298663
0001b0 54 f7 25 3e 20 6d b2 3e 4c 23 b5 be a6 63 50 be
       0.1620763 0.3484888 -0.35378492 -0.20350513
0001c0 b0 1a b4 bc 55 fe bb be 40 21 a2 bc 8a f4 cc be
       -0.021985382 -0.36717477 -0.019791245 -0.40030318
0001d0 2c 1a 34 be f2 84 44 be d0 cc 3c 3e 9b d6 4e be
       -0.17588109 -0.1919134 0.18437505 -0.20199053
0001e0 f2 13 98 3e c0 06 bd bb 60 53 3d bd 90 46 ae 3c
       0.29702717 -0.005768627 -0.04622209 0.021273881
0001f0 e8 39 b3 be a0 44 77 3d 58 15 41 bd 90 3c c3 3e
       -0.35005116 0.06036818 -0.047139496 0.38132143
000200 d8 fc 0f 3d 36 a1 98 be f0 a0 f3 3d 02 44 db 3e
       0.03515324 -0.29810494 0.11895931 0.42825323
000210 08 76 ba 3e d0 5c 5e be 66 c8 8a 3e 28 56 0e be
       0.36418176 -0.21715093 0.27106017 -0.13900054
000220 10 c7 14 bd 00 76 03 bc 00 b0 d5 38 44 ff 7b 3e
       -0.036322653 -0.008023739 0.00010189414 0.24609095
000230 f9 7c 76 be 38 cf fb 3d f2 45 90 3e 18 f5 71 be
       -0.24071111 0.12295383 0.28178364 -0.23628652
000240 e9 6c 5e be 4c ab 88 be 3e 6a 96 3e 24 b3 2e 3e
       -0.21721233 -0.2669319 0.2937793 0.17060524
000250 00 5f c1 3e 54 e4 59 3e 80 ce 47 bd bd 77 db be
       0.37767792 0.21278507 -0.048780918 -0.4286479
000260 df 33 a5 be 62 64 ab be e8 c7 ee 3d 58 67 6b 3e
       -0.32266137 -0.33475024 0.11659223 0.22988641
000270 80 86 c4 3d 70 a9 d2 be 71 a4 82 be 18 b7 d3 3d
       0.09595966 -0.41144896 -0.25516084 0.10337657
000280 a8 71 8a 3e 09 96 63 be 7a f6 15 be 60 97 8f 3c
       0.27039838 -0.22225203 -0.14644805 0.017528236
000290 e0 06 4c 3e 58 a9 b1 bd 48 59 95 be a4 29 a9 3e
       0.19924498 -0.08674878 -0.2916968 0.33039582
0002a0 af 6f 78 be 70 b6 33 bd 60 d7 64 bc a0 2b 1e bc
       -0.24261354 -0.043875158 -0.013967365 -0.009653956
0002b0 88 4b ac bd 92 17 ad 3e c4 64 40 3e 40 03 a4 3e
       -0.08412844 0.33807045 0.18788439 0.3203373
0002c0 c1 06 df be b0 a8 b2 3e bf d7 91 be f4 2e 20 be
       -0.4355984 0.34894323 -0.28484914 -0.15642911
0002d0 3d 2d ce be a4 8d cd be 40 57 88 bc 66 37 8e be
       -0.4026889 -0.40147126 -0.016643167 -0.2777664
0002e0 b5 95 d3 be 68 2a 6a bd 06 52 02 be e0 f7 07 be
       -0.41325155 -0.057169348 -0.12726602 -0.1327815
0002f0 a0 12 f6 3d 3f 3a c9 be 2d 4a c8 be c4 23 3a 3e
       0.12015271 -0.3930225 -0.39119092 0.18177706
000300 6f 62 90 be 04 70 c1 be 48 27 5b bd 1c 46 00 3e
       -0.282001 -0.37780774 -0.05350426 0.12526745
000310 a0 87 c4 3c 68 c2 44 3d 54 b7 4e 3e 20 ef a0 3e
       0.023990452 0.048036963 0.20187122 0.31432438

bias f4 [20]
000000 00 00 00 00 00 00 00 00 00 00 00 00 00 00 00 00
       0.0 0.0 0.0 0.0
000010 00 00 00 00 00 00 00 00 00 00 00 00 00 00 00 00
       0.0 0.0 0.0 0.0
000020 00 00 00 00 00 00 00 00 00 00 00 00 00 00 00 00
       0.0 0.0 0.0 0.0
000030 00 00 00 00 00 00 00 00 00 00 00 00 00 00 00 00
       0.0 0.0 0.0 0.0
000040 00 00 00 00 00 00 00 00 00 00 00 00 00 00 00 00
       0.0 0.0 0.0 0.0

weight f4 [10, 20]
000000 82 d8 93 3e ec 9b a9 3e 0e cf ae 3e 64 ed 9c bd
       0.2887612 0.3312677 0.34142345 -0.07662466
000010 8c 9c a5 bd 18 7e e1 3d 1e f8 af be 5b bd 9e be
       -0.080864996 0.110103786 -0.34368986 -0.31003842
000020 f8 d7 5e bd 44 a5 a4 be bf 51 b1 be 00 c9 6a 3d
       -0.054405183 -0.32157338 -0.3463268 0.057320595
000030 ea 77 12 be 21 33 d2 be a0 c1 92 bd 9b ec b8 be
       -0.14303556 -0.41054633 -0.07165837 -0.36118016
000040 3b e6 e2 be 2c 43 d5 bd 80 ec e9 3c 1c fc f4 bd
       -0.44316277 -0.10413203 0.028555155 -0.119621485
000050 0c b1 42 be 40 08 80 3e 84 0b 65 be 4e f8 c8 be
       -0.1901285 0.25006294 -0.22367674 -0.3925194
000060 02 7e d8 3e 22 4b d7 be b9 24 cb be 8c d2 4f 3e
       0.42283636 -0.4204951 -0.39676455 0.20295161
000070 f8 18 c3 3d 88 c7 81 3d 20 dc 54 bc 08 ad 33 bd
       0.09526247 0.06336886 -0.012991935 -0.043866187
000080 b9 ab 9c be aa 6f 94 3e 28 3e 89 3e 88 ec dd 3e
       -0.30599764 0.28991443 0.26805234 0.43344522
000090 20 d2 1a be be 76 05 be 9c 69 dc bd f4 68 c9 3e
       -0.15119219 -0.13033578 -0.10762331 0.39337885
0000a0 84 ac 8b bd 81 f5 4c be c6 24 a1 3e 64 0b 34 3e
       -0.06820014 -0.20015527 0.31473368 0.1758247
0000b0 00 a0 43 be dc 29 1e 3e 04 02 1d 3e 7a 14 11 be
       -0.19104004 0.15445656 0.153328 -0.14167967
0000c0 d0 2d 19 bd cc 56 c0 be 42 04 bd be 60 60 e6 3c
       -0.037397206 -0.3756622 -0.3691731 0.028122127
0000d0 c4 ea 8b 3e a5 4a 50 be d0 09 7c be dc 01 8b be
       0.2732755 -0.20340975 -0.24613118 -0.27149856
0000e0 c0 73 bd bd 3d c4 c8 be d0 2e c1 3d 31 29 6f be
       -0.09250593 -0.39212218 0.09432757 -0.23355557
0000f0 ae 6e bb be c2 49 d5 3e 6c 54 ca 3e 31 a3 95 be
       -0.3660788 0.41657835 0.39517534 -0.29226068
000100 24 fe 51 3e c8 f0 d6 3e 2a 1b 4c be 52 6a dd 3e
       0.20507103 0.41980577 -0.19932237 0.43245178
000110 c4 c9 1c be 4c 5f a9 3e 70 b5 8f 3d dc 1f 44 3e
       -0.15311342 0.33080518 0.07017028 0.19152778
000120 f6 c1 91 3e f7 63 55 be 8c b3 b3 be 9c 91 3c 3e
       0.28468293 -0.20838915 -0.3509792 0.1841492
000130 29 1f bc be ea 79 0f be 38 99 e3 3e 56 3b 01 be
       -0.36742523 -0.1401135 0.44452834 -0.12620291
000140 00 e5 70 3c 5a 29 0f be b0 85 82 3e 00 27 9e 3c
       0.014703035 -0.13980618 0.2549262 0.019305706
000150 a4 68 d1 3e ee c0 df 3e b4 c0 d5 3e e4 13 e0 3e
       0.40900147 0.4370188 0.41748583 0.43765175
000160 c8 d8 53 3e b2 4b 93 be 6c 92 c2 bd 10 a1 d4 bc
       0.20688164 -0.28768688 -0.09500584 -0.025955707
000170 c0 4f db bd 9c 21 56 3e 60 0f 98 bc 86 b8 ae 3e
       -0.107085705 0.20911258 -0.018562019 0.34125155
000180 b8 2e 50 3d b9 ef 87 be 2e fe 8d be ac e8 35 3e
       0.050825804 -0.2655008 -0.27732986 0.17764539
000190 b0 63 a2 be e4 e0 53 3e 54 71 11 3e dc b7 d5 3e
       -0.3171668 0.20691258 0.14203387 0.41741836
0001a0 9a 66 bb be d4 e9 cb 3e f5 c6 60 be 24 45 38 3e
       -0.36601716 0.39826834 -0.21950896 0.17995125
0001b0 ec f5 1d be d2 85 3a be 87 bc dc be 33 a0 cd be
       -0.15425843 -0.18215111 -0.43112585 -0.40161285
0001c0 5c 6f 8e bd 00 c1 d5 be f4 47 28 3e 70 02 0c bd
       -0.06954834 -0.4174881 0.16433698 -0.034182012
0001d0 36 2f c2 3e b8 cf 89 3d e6 27 cc 3e 5c 56 a8 be
       0.37926644 0.06729072 0.3987419 -0.32878387
0001e0 5e a9 b4 be 46 b3 c7 3e fc 2b 99 3e 88 e3 0e 3e
       -0.35285467 0.39003962 0.2991637 0.13953984
0001f0 f8 f1 6b be a0 2b 71 3d 5f b7 75 be 50 b9 dd 3e
       -0.23041523 0.058879495 -0.23995732 0.43305445
000200 3e cf e1 3e bc 7f 05 3e 1e 89 b7 3e b8 ca 25 be
       0.44103426 0.13037008 0.358468 -0.16190612
000210 a0 ef cd 3e 9a c7 c7 3e 50 46 4e 3d 67 e6 d0 be
       0.40221882 0.3901947 0.050360024 -0.40800783
000220 3c a6 a9 3e ab 55 c5 be fa b7 a5 3e 9c 49 df bd
       0.3313464 -0.38541922 0.32366925 -0.10902712
000230 44 f0 23 3e 48 9f 1a be 5c 06 47 3e 00 10 75 ba
       0.16009623 -0.15099823 0.1943602 -0.00093483925
000240 10 22 06 be e6 dd be 3e f8 92 b4 3e 10 6c 94 3e
       -0.13098931 0.3727867 0.35268378 0.28988695
000250 78 58 12 3e bc f1 89 3e 20 bd a0 3e 60 89 ce 3e
       0.1429156 0.2694224 0.3139429 0.40339184
000260 f0 40 a1 bc a8 68 5d 3e 14 0a 9a be 46 53 c9 3e
       -0.019684285 0.21621954 -0.30085814 0.39321345
000270 c0 0c 6a 3d 14 1d 05 3e d8 28 a1 be 84 8a d2 3e
       0.057141066 0.12999374 -0.31476474 0.41121304
000280 46 6d d7 3e de 23 81 be 28 62 4e 3d 50 5a 9a 3c
       0.42075557 -0.25222677 0.050386578 0.018841892
000290 f2 c2 a7 3e 4c 00 93 be f6 6c be 3e 8e 8d c1 be
       0.3276592 -0.28711164 0.37192506 -0.3780331
0002a0 74 cb 9d be c4 2b 3e 3e b0 25 56 3d 08 18 1a 3e
       -0.30819285 0.18571383 0.052282035 0.1504823
0002b0 94 11 f0 bd 68 60 82 3e c8 86 d8 3d 04 ac 76 3e
       -0.11722103 0.25464177 0.105725825 0.24089056
0002c0 2c b5 be 3e ea 4a a1 3e f4 54 83 bd 90 80 b7 3c
       0.37247598 0.31502467 -0.06412688 0.02240017
0002d0 68 3f 76 bd 60 46 ae be a0 0a d0 3d a6 a8 82 3e
       -0.060119063 -0.34038067 0.101582766 0.25519294
0002e0 50 92 b1 bd ea 0b 3c be 94 02 6c 3e 4c 8c 94 3e
       -0.08670485 -0.1836392 0.23047858 0.29013288
0002f0 c0 d9 6e 3c a4 5b 93 3e 02 38 8e 3e b0 36 f5 3d
       0.014578283 0.28780854 0.27777106 0.119733214
000300 18 2d cd bd 10 80 f7 3d a0 a2 05 be 2c 0f b7 be
       -0.100183666 0.12084973 -0.13050318 -0.35753763
000310 50 59 d1 3c 40 c6 84 3d ee b1 a1 be c4 1e 49 3e
       0.025555283 0.06483126 -0.31581062 0.19640642

bias f4 [20]
000000 00 00 00 00 00 00 00 00 00 00 00 00 00 00 00 00
       0.0 0.0 0.0 0.0
000010 00 00 00 00 00 00 00 00 00 00 00 00 00 00 00 00
       0.0 0.0 0.0 0.0
000020 00 00 00 00 00 00 00 00 00 00 00 00 00 00 00 00
       0.0 0.0 0.0 0.0
000030 00 00 00 00 00 00 00 00 00 00 00 00 00 00 00 00
       0.0 0.0 0.0 0.0
000040 00 00 00 00 00 00 00 00 00 00 00 00 00 00 00 00
       0.0 0.0 0.0 0.0

weight f4 [10, 20]
000000 38 7a 29 3e 8c e0 d6 3e e0 10 2b be 14 48 da 3e
       0.16550529 0.4196819 -0.16705656 0.42633116
000010 5e 35 d4 be f0 28 c6 3d 27 f7 db be 60 2d 79 3c
       -0.41446966 0.09675777 -0.42962 0.015208572
000020 e8 55 b2 3e 80 42 95 bc aa 0a 28 be 68 0e a0 3d
       0.34831166 -0.018220186 -0.16410318 0.07815248
000030 aa d0 d9 be 24 78 4f 3e 30 a4 d0 3e 64 2b c8 be
       -0.4254201 0.20260674 0.40750265 -0.39095604
000040 00 30 5c 39 34 ab dd be ea 12 c5 be 8e 10 c0 3e
       0.00020998716 -0.4329468 -0.38490993 0.3751263
000050 98 47 ec bd ea 18 98 3e b5 1a 6d be ae e5 be be
       -0.11537093 0.29706508 -0.23154719 -0.37284607
000060 a2 50 08 be 7c 56 a8 bd 7e a4 d8 3e 3c 17 b9 3e
       -0.13312009 -0.082196206 0.42312998 0.3615054
000070 24 7b 57 3e 8e 0d ac be 08 c0 11 3d ea ce 16 be
       0.21043068 -0.3360409 0.035583526 -0.14727369
000080 ab f9 7a be 00 f8 24 3d 50 05 18 3e d8 d4 7f 3e
       -0.24509303 0.040275574 0.14845777 0.24983537
000090 4e d6 c6 be 40 a8 a6 3b db 3a b6 be fc 8e 37 be
       -0.38835377 0.005085975 -0.35591778 -0.17925638
0000a0 36 52 5b be 4c 67 d1 3e 54 7c b5 bd 4c b8 28 be
       -0.2141808 0.40899122 -0.08861604 -0.16476554
0000b0 7c 85 83 3e aa c4 d4 be 48 36 18 3e ea 81 9f be
       0.25687778 -0.41556293 0.14864457 -0.31153804
0000c0 e0 d5 ff bd f6 2f b4 3e a0 90 0b 3c c4 6b d1 3e
       -0.12491965 0.3519284 0.008518368 0.4090253
0000d0 68 aa 2f bd b4 b4 e2 bd 20 c1 a5 3e d5 99 58 be
       -0.04288712 -0.11069623 0.32373905 -0.21152432
0000e0 e2 3a 0c be 30 cb a7 3c 26 1d 63 be 20 50 92 bc
       -0.13694337 0.02048263 -0.22179088 -0.017860472
0000f0 3c 03 d2 be c8 50 1b 3e 44 af b4 be 00 b1 66 bc
       -0.41018093 0.15167534 -0.35289967 -0.014080286
000100 5a 07 21 be 0e c8 a7 be c0 e1 39 bc 00 ce 83 3d
       -0.1572546 -0.32769817 -0.011345327 0.06435776
000110 3e 9b cd be ec df d1 3e 3c 71 6f 3e 4a 74 8f 3e
       -0.40157503 0.4099115 0.23383039 0.2801841
000120 26 d8 90 be 90 c1 09 3e 50 34 38 be 56 83 34 be
       -0.28289908 0.13452744 -0.17988706 -0.17628226
000130 e2 7e d1 3e a4 b0 49 be 70 1a 92 3d c0 21 02 3e
       0.40917116 -0.1969629 0.07133949 0.12708187
000140 28 0a 15 3e c8 f1 14 be aa e4 20 be c0 e4 1e 3c
       0.14554656 -0.14545357 -0.15712228 0.009698093
000150 e0 16 2f 3e 28 9f dd be 54 26 cb bd 64 5d d5 be
       0.1709857 -0.4328549 -0.0991942 -0.41672814
000160 64 2e e1 3e 50 5d 63 3d b0 2f 93 be 60 5c e2 3c
       0.43980706 0.05550891 -0.2874732 0.027631938
000170 c8 70 d9 3e af 86 6f be d8 30 e2 be ac 00 c5 bd
       0.42468858 -0.23391221 -0.4417789 -0.09619269
000180 15 99 9e be b6 77 46 be ec 60 32 be d9 b3 c5 be
       -0.30976167 -0.19381604 -0.17419785 -0.38613775
000190 1e b9 6d be 1a 62 dc 3e a4 15 04 3e 80 b1 cd 3b
       -0.23215148 0.43043596 0.1289888 0.006277263
0001a0 f8 27 d8 bd f4 49 a2 bd 98 8b 45 3d 81 f3 4d be
       -0.105544984 -0.07924262 0.04822883 -0.2011242
0001b0 92 b0 e4 3e ee 67 b3 be 90 08 1d be 96 2e ab be
       0.44665962 -0.3504023 -0.15335298 -0.3343398
0001c0 08 ac 5a 3e fc fb 3c be 1d 8b de be f5 ae 74 be
       0.21354687 -0.184555 -0.4346551 -0.23894866
0001d0 ba c4 63 be f1 75 6e be 5e e3 bd 3e 60 ab 75 3e
       -0.22243014 -0.23287179 0.3708753 0.23991156
0001e0 ba d7 85 3e 40 be 8f be 20 76 80 be c4 51 54 3e
       0.2614115 -0.28074837 -0.25090122 0.20734316
0001f0 86 16 3e be 58 d4 c3 be 9a 47 06 be 22 61 2b be
       -0.1856328 -0.38247943 -0.13113251 -0.16736272
000200 7a 91 cf 3e f0 04 9e 3d 56 62 bb 3e 00 ce 18 3e
       0.40540677 0.077157855 0.36598462 0.14922333
000210 b6 0e aa 3e df 3f dc be 18 d5 fb 3d a5 02 60 be
       0.3321435 -0.4301748 0.12296504 -0.21876009
000220 78 fd 44 bd ac 4f d3 3e a8 c0 81 be 80 62 9e bc
       -0.04809329 0.41271722 -0.25342298 -0.019334078
000230 f0 cd 5a 3e a8 0e d9 bd 08 f7 c0 3d a6 af 51 be
       0.21367621 -0.105984986 0.094221175 -0.20477161
000240 20 ed 70 3e f4 c6 14 3e 7a 94 76 be 1c 4f 61 3e
       0.23527956 0.1452902 -0.24080077 0.22002834
000250 b8 b7 e2 3e 98 d8 3b bd 94 70 94 bd 2f 4e 81 be
       0.4428079 -0.045860857 -0.07248035 -0.25254962
000260 b8 9e 6d 3e fc d0 1d 3e 84 06 64 3e c4 c6 cb 3e
       0.23205078 0.15411752 0.2226811 0.39800084
000270 7b fc c3 be 52 00 aa be d0 11 b0 bd 50 2b 4d 3e
       -0.38278565 -0.3320337 -0.085971475 0.20036054
000280 b2 60 99 3e 54 47 6e 3e 00 e8 26 3a 00 68 e2 bd
       0.29956585 0.23269397 0.0006366968 -0.11054993
000290 d0 49 b3 3e e0 3f e3 3c 70 2c a9 bd e0 4f eb bc
       0.35017252 0.027740419 -0.08260429 -0.02872461
0002a0 d8 a2 a0 be 37 a7 7c be 68 68 cb bd 58 d2 9d be
       -0.3137424 -0.24673162 -0.09932023 -0.30824542
0002b0 cc e2 2b 3e ca 9e ac be 70 e2 8a 3e a8 8b 38 be
       0.16785735 -0.33714896 0.27125883 -0.18022025
0002c0 d9 ea 84 be 72 69 c2 3e a4 95 92 bd 74 a2 7a 3e
       -0.25960425 0.37971073 -0.07157448 0.24476033
0002d0 48 7e 37 be 14 78 7d 3e 45 6b e3 be e0 48 4b 3c
       -0.17919266 0.24752837 -0.44417778 0.0124075115
0002e0 e8 bf 66 3e fe 10 0e be 44 79 db bd 20 93 ca 3d
       0.22534144 -0.1387367 -0.10716489 0.09891343
0002f0 be df 9b 3e 89 24 e0 be d2 b2 d4 be 9b 92 6f be
       0.3044414 -0.43777874 -0.4154268 -0.2339577
000300 c4 a7 2b be ac 16 81 be 3c aa bd 3e 5f 59 8c be
       -0.16763216 -0.2521261 0.3704394 -0.27411935
000310 f0 51 23 bd e4 fc b9 be 38 50 fa 3d 90 5c 43 3e
       -0.039873064 -0.36325753 0.12222332 0.19078279

bias f4 [20]
000000 00 00 00 00 00 00 00 00 00 00 00 00 00 00 00 00
       0.0 0.0 0.0 0.0
000010 00 00 00 00 00 00 00 00 00 00 00 00 00 00 00 00
       0.0 0.0 0.0 0.0
000020 00 00 00 00 00 00 00 00 00 00 00 00 00 00 00 00
       0.0 0.0 0.0 0.0
000030 00 00 00 00 00 00 00 00 00 00 00 00 00 00 00 00
       0.0 0.0 0.0 0.0
000040 00 00 00 00 00 00 00 00 00 00 00 00 00 00 00 00
       0.0 0.0 0.0 0.0

weight f4 [10, 20]
000000 76 46 bd be 31 5a b0 be 31 21 89 be 00 08 4b 3e
       -0.3696782 -0.3444381 -0.26783136 0.1982727
000010 44 44 5b be 90 75 c7 3d 00 2d a6 3a 80 c6 4b bb
       -0.2141276 0.0973922 0.0012678206 -0.0031093657
000020 79 b5 75 be b1 42 7c be f0 c5 e2 3c 44 81 13 be
       -0.23995008 -0.24634816 0.027682275 -0.1440478
000030 8c 2e ba 3e c4 71 ce 3e f0 6c de bc 54 6f 55 3e
       0.36363637 0.4032117 -0.027151555 0.2084325
000040 c0 34 f8 3d a4 3b c1 3e 48 46 83 3e 70 bb 58 3e
       0.12119436 0.37740815 0.25639558 0.21165252
000050 b0 47 b1 bd 38 a8 c5 3d a0 18 6d 3d 56 44 0e be
       -0.086562514 0.09651226 0.057884812 -0.13893256
000060 9c db db 3e 00 24 b0 3d 23 f8 df be 04 fd 08 3e
       0.42940986 0.086006165 -0.43744 0.13377768
000070 1d 27 97 be 38 e5 b1 be 00 b5 28 3c 8b e7 a7 be
       -0.2952203 -0.34745193 0.01029706 -0.3279384
000080 9d e5 a7 be c0 4e a3 bc 6e 42 0b be 5e 51 39 be
       -0.3279237 -0.019935012 -0.1359956 -0.18097445
000090 dc 4e 84 be 68 55 b5 3d 06 3f b5 be 32 70 b3 be
       -0.25841415 0.088541806 -0.35399646 -0.35046536
0000a0 70 22 d7 be 9c 33 2d be 46 ed b3 3e 80 2a 7b 3e
       -0.4201846 -0.16914219 0.35141963 0.24527931
0000b0 e0 28 38 bd e0 9a d3 3d c2 f3 c5 3e 10 81 d0 3e
       -0.044960856 0.103322744 0.38662535 0.40723467
0000c0 08 b9 32 3e 27 a2 a5 be f0 52 dc 3e 29 b4 87 be
       0.17453396 -0.32350275 0.43032026 -0.2650464
0000d0 a4 ef 14 be 92 46 a2 be 68 59 ef bd f8 89 28 3e
       -0.1454454 -0.31694466 -0.11686975 0.16458881
0000e0 62 cc a0 be 14 27 e0 3e 8d 9f 4a be 30 81 25 3d
       -0.31405932 0.43779814 -0.19787426 0.040406406
0000f0 c4 bf cb 3e 84 7d c0 bd bc 4b 85 3e 7f 7c 83 be
       0.39794743 -0.0939894 0.26034343 -0.2568092
000100 a4 93 24 3e e6 11 4d be 44 1e 09 3e d3 fe 6a be
       0.16071945 -0.20026359 0.13390452 -0.2294877
000110 2a 5e 46 be 90 04 d1 bc 60 4d 90 bd 2d 11 74 be
       -0.19371858 -0.02551487 -0.07046008 -0.23834677
000120 f5 7c 60 be b9 0e b7 be 06 67 97 3e 0c 13 02 be
       -0.21922667 -0.3575342 0.29570788 -0.12702578
000130 80 e7 bc 3e c7 77 cf be 7a 07 b7 3e 2e 5b b4 3e
       0.3689537 -0.4052107 0.35747892 0.35225815
000140 a4 56 7d 3e 80 34 de 3d 8a f7 61 be 68 a8 62 3e
       0.24740082 0.10849857 -0.22067085 0.22134554
000150 b4 ed 1f be 38 08 82 3d 57 4b cd be e0 57 ae 3e
       -0.1561802 0.06349224 -0.40096542 0.34051418
000160 b8 64 b7 3d ab ad b5 be c4 60 40 3e 54 df 0f 3e
       0.089547575 -0.3548406 0.18786913 0.14050037
000170 6a c7 b2 be 0c b6 ad be f8 a0 f6 3d 78 d8 84 3d
       -0.34917766 -0.33927953 0.12042421 0.06486601
000180 d8 05 8f 3e f0 2e d4 3d cc dd 70 3e aa 4f b4 3e
       0.27934146 0.10360515 0.23522109 0.3521703
000190 0c 12 ce bd 08 f8 dd 3e a8 b7 ae be bc 16 d9 bd
       -0.10062036 0.43353295 -0.34124494 -0.10600039
0001a0 30 fc 9d 3d b8 4b 8d 3e 80 e1 a0 3e fe 35 9e be
       0.077141166 0.2759683 0.31422043 -0.30900568
0001b0 9f b9 6c be f6 04 9f 3e 2a 78 2a be c0 45 7f 3d
       -0.23117684 0.31058472 -0.16647401 0.06232238
0001c0 e0 dc 56 3d 14 bf 64 3e 00 54 a0 3e a8 92 0a bd
       0.052456737 0.22338516 0.31314087 -0.03383127
0001d0 ee 48 c8 3e c0 d3 3a 3e 00 80 71 3d 00 47 ce 3b
       0.3911814 0.18244839 0.05895996 0.006295085
0001e0 98 b0 26 3e 0c a2 84 bd 80 a2 b1 be 10 19 33 bd
       0.16278303 -0.064762205 -0.3469429 -0.043725073
0001f0 48 a8 4b 3e 9e 62 9b be 18 9c af 3e 00 e5 c5 bd
       0.19888413 -0.30348676 0.34298778 -0.09662819
000200 4f 4d 4d be d6 af 10 be f8 42 ca bd 70 97 55 3e
       -0.20049022 -0.14129576 -0.098760545 0.2085855
000210 56 27 94 3e 94 1e 47 3e c8 45 c0 bd 28 a5 f3 3d
       0.2893626 0.19445258 -0.0938831 0.118967354
000220 18 92 d2 be 6c 4e ce be 2d ed 6c be 4f cc b8 be
       -0.41127086 -0.40294206 -0.2313735 -0.36093375
000230 ea 9d 8c 3e 36 72 06 be 00 6e 07 3d 38 3b 97 bd
       0.2746423 -0.13129506 0.03306389 -0.07384342
000240 f6 17 cb 3e d2 25 95 3e 4e 5d cd be 40 cf a7 bc
       0.39666718 0.29130417 -0.40110248 -0.020484567
000250 c2 53 30 be ca 47 cd be 4d 90 be be 2a f1 9c 3e
       -0.17219451 -0.40093833 -0.37219468 0.30652744
000260 de 37 49 be f2 5c d0 3e cc c7 36 3e dc cd db be
       -0.19650218 0.40695912 0.17849654 -0.42930496
000270 8c b3 d0 be b8 12 5b bd e2 fc cc 3e 9c 4c f0 bd
       -0.40761983 -0.05348465 0.40036684 -0.11733362
000280 e8 f9 51 3e 98 9f d1 3e 28 db 53 bd 4c 1e 92 3e
       0.20505488 0.40942073 -0.051722676 0.2853874
000290 e4 87 9e be a0 ce 38 bd c0 36 61 3d 90 3f a5 3e
       -0.3096305 -0.045118928 0.054983854 0.32275057
0002a0 a8 ca 89 3e db f2 94 be 90 06 08 bd 1a 56 8c 3e
       0.26912427 -0.29091534 -0.033209383 0.2740944
0002b0 98 58 52 3e ac 68 a4 3e ad 16 d6 be a8 b0 c0 be
       0.20541608 0.32111108 -0.41814175 -0.37634778
0002c0 3c 65 c6 bd a2 7d 0f be 5e 4d 46 be 3e c4 ca 3e
       -0.09687278 -0.14012769 -0.1936545 0.39602846
0002d0 e2 c6 56 be 2e 1a cd 3e 62 66 c8 3e be ac a3 be
       -0.20974305 0.40059036 0.39140612 -0.3196773
0002e0 a0 d0 a6 3d 60 c4 49 3d a4 10 ae 3e 30 dd db 3e
       0.08145261 0.049259543 0.3399707 0.4294219
0002f0 47 61 cc be 00 27 48 3d c8 72 2b 3e 18 70 16 3e
       -0.39917967 0.04886532 0.16743004 0.14691198
000300 80 1d 1d bb 98 b2 93 bd 8c 23 5e 3e 67 f2 74 be
       -0.0023973882 -0.072117984 0.21693248 -0.23920594
000310 e2 e5 1b be 48 be 12 3e 60 09 5a bc b0 88 d0 3d
       -0.15224412 0.14330399 -0.013307899 0.10182321

bias f4 [20]
000000 00 00 00 00 00 00 00 00 00 00 00 00 00 00 00 00
       0.0 0.0 0.0 0.0
000010 00 00 00 00 00 00 00 00 00 00 00 00 00 00 00 00
       0.0 0.0 0.0 0.0
000020 00 00 00 00 00 00 00 00 00 00 00 00 00 00 00 00
       0.0 0.0 0.0 0.0
000030 00 00 00 00 00 00 00 00 00 00 00 00 00 00 00 00
       0.0 0.0 0.0 0.0
000040 00 00 00 00 00 00 00 00 00 00 00 00 00 00 00 00
       0.0 0.0 0.0 0.0

weight f4 [10, 20]
000000 3d 3c d9 be 56 2c a4 be 80 77 f7 3b 18 c6 89 be
       -0.4242877 -0.32065076 0.0075520873 -0.26908946
000010 d4 ce a2 3e fb b3 8c be 3c 09 11 3e 72 14 9c 3e
       0.31798422 -0.27481064 0.14163679 0.3048435
000020 e0 e9 7d 3c 80 61 0f 3e a0 73 ef 3d 4e cb 88 be
       0.015497655 0.14002037 0.116919756 -0.2671761
000030 40 10 ae 3d f2 c0 de 3e d8 4d ac 3e 22 e2 9d 3e
       0.08499193 0.4350658 0.3365314 0.30836588
000040 b4 9e b3 be 20 82 1b 3e 38 7c 48 be 2f 44 ba be
       -0.35082018 0.15186357 -0.19578636 -0.36380145
000050 b6 cb ad 3e 9a 37 d4 3e 70 f7 48 3d e8 3c 19 bd
       0.33944482 0.4144867 0.0490641 -0.0374116
000060 f0 40 93 be aa 49 4e be b0 91 b5 bc b8 19 e4 be
       -0.2876048 -0.20145288 -0.022164196 -0.44550872
000070 84 f1 94 bd f0 0f 4d bd 7a 21 40 be e6 f4 cf be
       -0.07272628 -0.050064027 -0.1876277 -0.4061653
000080 58 46 f4 3d 65 24 d0 be 20 f3 85 be b3 51 d2 be
       0.119274795 -0.40652767 -0.26162052 -0.41077957
000090 44 7e f8 bd b0 e4 e4 3d 6c d0 11 3e bc a1 a9 be
       -0.12133458 0.11176431 0.14239663 -0.33131206
0000a0 38 87 fb 3d 70 71 8a bc b3 6b ae be b7 33 c2 be
       0.1228165 -0.016899794 -0.34066543 -0.3793008
0000b0 66 0f 01 be 46 f6 8e 3e c4 96 89 3e c4 9f 2d be
       -0.1260353 0.27922267 0.26872838 -0.16955477
0000c0 d6 34 a6 3e a4 92 47 3e 7a 31 ba be 06 92 de be
       0.32462186 0.19489533 -0.36365873 -0.43470782
0000d0 a2 3a a0 3e 00 2f 4f 3e 3c 1a 14 3e 03 84 b0 be
       0.31294733 0.20232773 0.14463133 -0.34475717
0000e0 91 aa d3 be 38 b4 30 3e b6 07 c2 be dd 71 ab be
       -0.4134107 0.17256248 -0.37896508 -0.33485308
0000f0 54 b3 c0 3e 48 c1 b7 bd 2c 80 c1 3e e8 2d a7 3d
       0.37636817 -0.08972412 0.377931 0.08163053
000100 f2 dc db be 5a d3 ba 3e 54 af b7 bd 5e da af 3e
       -0.42942005 0.36489373 -0.08968988 0.34346288
000110 40 a9 75 3e 80 b2 8e bc 28 50 c0 be 8e 76 65 be
       0.23990345 -0.0174191 -0.37561154 -0.22408506
000120 c4 1e 83 bd 80 51 e8 bc 2c 8f ec bd 5c 73 81 bd
       -0.064023525 -0.028359175 -0.11550745 -0.06320831
000130 f4 bf 42 3e 58 f5 ad 3e 88 6a 3b be de 4c 9e be
       0.19018537 0.33976245 -0.18302357 -0.3091802
000140 d4 37 54 be 20 84 3a 3c cc 2e e7 bd d2 f0 a6 3e
       -0.20724422 0.01138404 -0.11288223 0.32605606
000150 60 98 9b 3e 38 e3 7b 3e 42 1b 82 be 3c a4 09 3e
       0.3038969 0.24598396 -0.2541142 0.13441557
000160 84 4d 15 3e 78 27 c4 be e4 8a 7a 3e d4 32 3e 3e
       0.14580351 -0.38311362 0.24467045 0.18574077
000170 70 61 0b bd 10 c7 5f 3d 10 0e 5d 3e 80 9a ea bb
       -0.03402847 0.0546332 0.21587396 -0.007159531
000180 55 5d ab be 9c 61 ce 3e fa a7 03 be 16 a7 e0 be
       -0.33469644 0.40308845 -0.12857047 -0.43877476
000190 0d c7 8d be 38 4f be be 6b 86 c7 be b8 65 dc 3d
       -0.27690926 -0.37169814 -0.3896974 0.10761589
0001a0 bc 4f 22 3e 9b fb bb be ce 6d 19 be 98 fd df bd
       0.15850729 -0.36715397 -0.14983293 -0.10937041
0001b0 96 1a 9c be c8 65 28 3e 58 b6 64 3e 18 16 11 be
       -0.30489033 0.16445076 0.22335184 -0.14168584
0001c0 28 53 a3 be 7c 49 3e 3e bc c6 2b 3e 0e 0d 22 be
       -0.3189938 0.1858272 0.1677503 -0.15825292
0001d0 28 68 54 3e d0 57 c9 bc e0 ab 67 bc a8 ee 27 3e
       0.20742857 -0.024578005 -0.014140099 0.16399634
0001e0 6c 19 37 3e c0 0b 3f 3c 64 9e 9d 3e f0 81 e4 3e
       0.17880791 0.011660516 0.30784905 0.44630384
0001f0 08 66 34 be f8 d3 f8 3d 20 38 45 3d de 93 c7 3e
       -0.17617047 0.12149805 0.048149228 0.3898
000200 be d6 b8 3e 00 d7 ad ba c0 f4 a9 3e 28 cd 56 3e
       0.36101335 -0.0013262928 0.33194542 0.20976698
000210 11 fc c6 be 6c 34 e0 bd e0 97 b3 3e ff c7 c7 be
       -0.38864186 -0.10947499 0.3507681 -0.39019772
000220 2a 4d 86 3e 78 5e 29 3e e1 28 d7 be bb 64 b8 be
       0.26230747 0.16539943 -0.42023376 -0.3601435
000230 78 5d e3 be 46 a3 95 be 8e 8a 11 be d2 47 96 be
       -0.44407248 -0.2922613 -0.1421301 -0.2935167
000240 68 ef 5f bd 58 ef 6c bd 2f 0e 7b be 36 0a 1e be
       -0.054671675 -0.057845443 -0.2451713 -0.15433583
000250 32 3e bf be 4e f7 3d be 20 5f fb bd ac c5 8b 3e
       -0.3735214 -0.1855137 -0.12274003 0.2729925
000260 40 d8 ce 3e e0 81 e4 bc 20 60 eb bc b8 88 da 3e
       0.4039936 -0.02789396 -0.02873236 0.42682433
000270 18 44 a3 3d 10 a9 1e 3e 10 2f ae 3e 30 75 8b 3d
       0.07971972 0.1549418 0.3402028 0.06809461
000280 c7 e1 76 be ae 72 90 be f0 a1 b5 bc 00 90 6f 3e
       -0.24109565 -0.28212494 -0.022171944 0.23394775
000290 f3 76 d0 be 50 d6 fe bc 68 48 15 bd c4 81 96 3e
       -0.4071575 -0.031108052 -0.036446005 0.29395878
0002a0 18 0e d2 3d 90 39 75 bd e0 34 01 bd 24 00 37 3e
       0.102565944 -0.05986935 -0.031544566 0.17871147
0002b0 f6 35 8d 3e 34 b7 80 be a8 4c af 3e 48 d5 37 bd
       0.2758023 -0.25139773 0.34238172 -0.044881135
0002c0 b2 a6 36 be e4 c9 e4 3e 2c aa 31 3e f8 a9 93 3d
       -0.17837027 0.4468528 0.17350072 0.07210153
0002d0 08 a1 9f 3e 74 f4 45 be 64 3c c1 3e 12 65 8e 3e
       0.31177545 -0.19331533 0.37741387 0.27811486
0002e0 72 81 31 be 84 e7 33 3e 8c d1 7c 3e 98 16 95 3e
       -0.17334536 0.17568785 0.24689311 0.291188
0002f0 b0 73 b5 3e 18 dd 75 3e dc 5d 96 bd a8 dd 9b 3e
       0.35439825 0.24010122 -0.07342121 0.30442548
000300 82 69 3d be 80 de ed bb 2a b6 c6 3e 54 5a e3 bd
       -0.1849728 -0.00725919 0.38810855 -0.11101213
000310 00 a3 f8 3a 40 78 bb bc d5 02 c7 be aa c1 2a be
       0.0018969476 -0.022884488 -0.38869348 -0.1667544

bias f4 [20]
000000 00 00 00 00 00 00 00 00 00 00 00 00 00 00 00 00
       0.0 0.0 0.0 0.0
000010 00 00 00 00 00 00 00 00 00 00 00 00 00 00 00 00
       0.0 0.0 0.0 0.0
000020 00 00 00 00 00 00 00 00 00 00 00 00 00 00 00 00
       0.0 0.0 0.0 0.0
000030 00 00 00 00 00 00 00 00 00 00 00 00 00 00 00 00
       0.0 0.0 0.0 0.0
000040 00 00 00 00 00 00 00 00 00 00 00 00 00 00 00 00
       0.0 0.0 0.0 0.0

weight f4 [10, 20]
000000 60 49 41 3e 9b dd c5 be b4 a0 6f 3e de dd 8c be
       0.18875647 -0.38645634 0.23401147 -0.2751302
000010 e0 aa 7b 3e 24 18 88 bd 54 cb 8e 3e 6c 1a d5 3e
       0.24576902 -0.066452295 0.27889502 0.4162172
000020 98 85 29 bd ab bc de be b8 35 cc 3d f4 8d e1 3e
       -0.04138717 -0.43503317 0.099711835 0.44053614
000030 2a f4 cd be a5 29 5c be f8 f1 9a 3d d4 c2 d4 be
       -0.40225345 -0.21500261 0.07565683 -0.41554892
000040 7e 97 b7 be 0a 5c af be 2a f5 9c 3e c6 80 87 be
       -0.35857767 -0.34249908 0.30655795 -0.26465434
000050 5c 9f 64 3e e0 60 50 3e 78 d5 7b bd b6 4e ce 3e
       0.22326416 0.20349455 -0.061482877 0.40294427
000060 28 6d ad bd 40 92 8d be 2d 6e 59 be a8 10 09 be
       -0.084680855 -0.27650642 -0.21233435 -0.1338526
000070 6e 15 98 be 5e ec 9e be 78 f7 87 3e 05 fe c7 be
       -0.2970385 -0.3103971 0.2655599 -0.3906099
000080 08 18 59 3e 36 c1 10 be f2 b9 57 be c8 0b a6 3e
       0.21200573 -0.14136204 -0.21067026 0.32430863
000090 30 2e da 3c 16 9d 9f be 08 a3 b6 bd 0b 30 92 be
       0.026633352 -0.31174535 -0.089178145 -0.2855228
0000a0 6a b4 95 be 36 b8 85 3e 6a 8d ce 3e cc 4c a7 3e
       -0.29239208 0.26117104 0.40342265 0.3267578
0000b0 10 b0 43 3e 26 6d 8b 3e 80 a5 12 bd 28 29 93 bd
       0.19110131 0.2723171 -0.035802364 -0.07185584
0000c0 7a e6 3c be c0 23 25 bc 98 d8 d4 3e 78 eb 85 be
       -0.18447295 -0.010079324 0.41571498 -0.2615621
0000d0 3c 39 41 be 7c 44 be be 36 c0 80 3e f9 c0 d2 be
       -0.1886949 -0.37161624 0.25146645 -0.4116285
0000e0 98 bc fc 3d 62 c4 d4 3e d0 27 cf 3c 80 dc 91 3e
       0.12340659 0.41556078 0.025287539 0.2848854
0000f0 2b 6c ab be 14 a1 9c be 00 ee 4d be c0 bd 1a 3e
       -0.33480963 -0.30591643 -0.20110321 0.15111446
000100 76 c2 99 be 1c 9d 7b 3e cc 33 c7 bd e2 88 b4 3e
       -0.30031174 0.24571651 -0.09726676 0.35260683
000110 d0 71 41 3e 00 7b 05 be 44 99 0e 3e f4 3a 04 3e
       0.18891072 -0.13035202 0.13925654 0.12913114
000120 c0 df 28 be 8c af 9a 3e 94 a7 00 be 90 71 77 3d
       -0.16491604 0.30212057 -0.12563926 0.060411036
000130 ff a5 e3 be e0 3a 27 be e0 c2 d2 be 70 e6 9b 3c
       -0.44462582 -0.16331053 -0.41164303 0.01903078
000140 0e e5 37 be ba 40 90 3e 7c f2 d8 be 60 cb 6d 3d
       -0.17958471 0.28174382 -0.423725 0.05805528
000150 00 5e 2d 3a 0a ff 66 be 48 1d 59 bd eb af 62 be
       0.00066134334 -0.22558227 -0.05300644 -0.2213742
000160 c8 3a b1 3d 60 44 47 bc 00 5b 47 3d bb 41 e3 be
       0.0865379 -0.012162298 0.04867077 -0.44386086
000170 38 bc 8a 3e 29 08 e0 be a3 9c 55 be a7 4a e3 be
       0.27096725 -0.43756226 -0.20860533 -0.44392893
000180 cc 39 c3 3e 24 d1 dc be 00 81 2f bb 7e 2d de be
       0.38130033 -0.43128312 -0.002677977 -0.43394083
000190 22 54 9a 3e 3e f8 d9 3e 18 ca dd bd 55 95 9b be
       0.30142313 0.42572206 -0.10829562 -0.3038737
0001a0 e0 ee ee 3c 62 c9 ae 3e 70 f6 fb 3d 00 a2 b6 3e
       0.029166639 0.34138018 0.123028636 0.3567047
0001b0 ac b5 a4 3e bf c5 4a be 1c df e4 3e 70 f2 c7 3d
       0.32169855 -0.19801997 0.4470147 0.09763038
0001c0 0b 03 84 be 84 67 dc 3e 8b a8 74 be f8 35 86 bd
       -0.25783572 0.43047726 -0.23892419 -0.065532625
0001d0 89 c6 9d be 98 89 1e bd ae c4 e0 be a1 fa bb be
       -0.30815533 -0.03870544 -0.43900055 -0.36714652
0001e0 a6 13 8f 3e 98 01 6d 3e 60 25 91 be 60 f9 03 bd
       0.27944678 0.23145139 -0.28348827 -0.032220244
0001f0 c0 aa e6 3c 90 19 22 bd 80 e3 e4 3e cc cf cf 3e
       0.028157592 -0.03957516 0.4470482 0.40588224
000200 ca a5 aa 3e 2a 48 93 3e fc 31 0e 3e 94 16 1d be
       0.33329612 0.28765994 0.13886255 -0.15340644
000210 67 ad a9 be e0 a2 97 be 6c 07 27 be 1c b1 da bd
       -0.33140108 -0.2961645 -0.16311425 -0.10678312
000220 c6 58 5f be d4 16 96 3e f8 ff 18 be 80 82 16 3e
       -0.21811208 0.2931429 -0.14941394 0.1469822
000230 24 f7 61 3e 20 e6 b0 be 34 87 c2 be 60 e2 3e be
       0.22066933 -0.3455057 -0.37993777 -0.18641043
000240 42 5d a5 3e 9a 27 da be 70 62 21 3d 9c ad 9c be
       0.32297713 -0.4260834 0.039400518 -0.30601203
000250 be 0c 9c 3e 40 1c 6b 3d a9 83 6c be 38 17 a9 3d
       0.30478472 0.05739999 -0.230971 0.08256382
000260 ad 5f b4 be b0 36 4b bd b0 d1 d5 bc 7e 52 c8 be
       -0.35229245 -0.0496127 -0.026100963 -0.39125437
000270 48 48 d8 3d b0 d1 32 3e 10 6f 57 bd 91 88 89 be
       0.105606616 0.17462802 -0.05259615 -0.26862004
000280 08 7f a2 be b4 95 f5 bd f2 f3 92 be b8 a6 e1 3d
       -0.31737542 -0.11991444 -0.2870174 0.11018127
000290 f2 cc 81 be b4 0b 3c 3e 68 0a ac be a0 53 b0 3d
       -0.25351673 0.1836384 -0.3360169 0.086097
0002a0 e8 f6 57 3d 8d 00 ba be fb fb d7 be b8 6f c4 3e
       0.052725703 -0.36328545 -0.42184433 0.38366485
0002b0 91 54 c7 be 5c a0 af bd c0 0a c0 3d 32 11 dc be
       -0.38931707 -0.08575508 0.093770504 -0.4298187
0002c0 be 2a 86 be 3c 76 db 3e d0 94 63 bd 72 10 3d be
       -0.26204485 0.42863643 -0.05556184 -0.18463305
0002d0 0e 77 e4 be a4 8f b6 3e f2 2f 36 be af c3 7c be
       -0.44622082 0.35656464 -0.17791727 -0.24684022
0002e0 58 11 90 3e cc d4 0d be 28 78 f7 3d 0c b0 5d be
       0.28138232 -0.13850707 0.12083465 -0.21649188
0002f0 5e 1c c3 3e f4 60 b0 3e 7a 86 7e be 8c 66 33 be
       0.3810758 0.3444897 -0.24855986 -0.17519587
000300 f8 e3 c4 bd c8 71 c1 3e 1b 45 72 be 20 42 2b bc
       -0.09613794 0.3778212 -0.23659174 -0.010452777
000310 5a 81 2e be c1 45 67 be 00 44 8c be ec 24 21 be
       -0.17041531 -0.22585203 -0.2739563 -0.15736741

bias f4 [20]
000000 00 00 00 00 00 00 00 00 00 00 00 00 00 00 00 00
       0.0 0.0 0.0 0.0
000010 00 00 00 00 00 00 00 00 00 00 00 00 00 00 00 00
       0.0 0.0 0.0 0.0
000020 00 00 00 00 00 00 00 00 00 00 00 00 00 00 00 00
       0.0 0.0 0.0 0.0
000030 00 00 00 00 00 00 00 00 00 00 00 00 00 00 00 00
       0.0 0.0 0.0 0.0
000040 00 00 00 00 00 00 00 00 00 00 00 00 00 00 00 00
       0.0 0.0 0.0 0.0
