models/CiteSeer_Trained_Model.pt (torch, 299039 bytes, 4 tensors)

weight f4 [3703, 20]
00000000: db13 243e eedf f83d 1226 8abe 77ad 76be
00000010: e9a7 a03e 9365 87be 125f 0bbe 41bc bdbe
00000020: 5bc0 833e 6ae0 30be 2b17 863e e64c 6a3e
00000030: a386 8ebe 1dd7 9dbe f1df ca3d ba35 ba3e
00000040: 7fcb 99be ad12 46be 15f1 bebc 1ae5 283a
00000050: 4fc2 a73c e2d7 6cbe dcdb 933e 3fa8 66be
00000060: bd9d a1be 95b4 fb3c aecd 9abe ceb5 803e
00000070: 785b 2a3e 2c3b 51bd da75 54be 641c 7e3e
00000080: 5c2a 9bbe a9d1 8abe 1c38 8e3e 1df5 8ebe
00000090: 99ea 153e cffb 5cbe 7e8a 603e 39d6 773e
000000a0: f0fb 84be 6b25 40be 105a 923e 56b3 83be
000000b0: f967 62be 69d1 833e 8d64 a9be c245 8e3e
000000c0: b2c6 95be 304b 903e 16fa 95be e019 943e
000000d0: 718d b2be bd05 34be b3bd 8a3e 732b 97be
000000e0: 0ca7 a13e b133 50be 71b1 b53e c83e 873e
000000f0: fa85 023e b03e e83d da6b aa3e 3b34 20be
00000100: 2fd2 9d3e c378 c1bd 19bc a4be 869d 043e
00000110: 7b4f 97bd 466d 493e ba5c 9bbd ac0e 21be
00000120: b73d 33be 6c7a 31be 1f29 853e 0eb3 3abe
00000130: 307e 153d 0b9f 973e b70f 8fbe a039 953e
00000140: 619f 3fbe 1deb 18be 4f02 ccbd 1c9d d3bd
00000150: 9860 96be 9619 8b3e 1c80 91bd 2f39 853e
00000160: 8fb0 0abe 3ebf 873e 1e38 9dbe bf26 193e
00000170: 7970 d6bd a7ce 3d3e de3f 623e a55b 80be
00000180: 21b4 993e 9b17 03be 532a 633e 9e22 4e3e
00000190: 62d6 703e fc42 86be 4e10 9f3e d7e2 5cbe
000001a0: c0e7 6c3e ece2 88be 4ede 72be b332 9fbe
000001b0: 9491 6d3e 654a 96be 57e9 803e 47d1 943e
000001c0: d1bc 72be 99c9 59be 7a3d 663e a87f ba3e
000001d0: 3ae6 83be 011f 56be e04a 9cbe bcba b73e
000001e0: 96c7 0ebe b991 25be cd91 733e c048 52be
000001f0: a79e a7bd 0705 cb3d c5e4 56be 7948 363e
00000200: 17c1 123e 6fe6 fb3d 1f2b 53be d1b1 5f3e
00000210: 1a3a 82be 79a6 a9be 84f5 333e d54a 6dbe
00000220: 50c0 073e 7faa 4fbe 38bb 2e3e 519a 2d3e
00000230: dca2 153e e90e fdbd 3af4 fd3d 5338 21bd
00000240: aa6d ec3d 45dd edbd ee6d 88bd f05e b63c
00000250: 8e5d fe3d 8582 fbbd 139d cb3d 9bce a7bd
00000260: 3a61 6bbd 480a 4fbd ff09 ed3d 1fbe f43d
00000270: a321 fcbd 58e2 57bd 5c14 e3bd bd5f 30bd
00000280: 4a76 ca3c baa6 dc3c 0265 d93c 0ee9 923c
00000290: ae0d d93c 9e42 e43c fc20 973c f450 4c3c
000002a0: 3cb1 973c 7003 383b 0030 8f3b 17fa 1e3d
000002b0: 60cd 953b 6860 5e3c 3853 ad3c 0f61 93bc
000002c0: 30b3 75bb e0c4 5e3b 7aa4 acbc c818 873b
000002d0: aedb 723e 7252 90be 6802 873e 3d38 60be
000002e0: 8820 853e 101c 75be ed64 a4be 114b 85be
000002f0: df09 5a3e 6513 87be bb8d 823e 375f 853e
00000300: 845c 64be 399c 6bbe 96c0 803e 02a8 ad3e
00000310: e33b 97be 3f9d 64be 5e5f a5be e1f7 a43e
00000320: 9255 ff3d 7abd 033e 3f31 62be ae6d f43d
00000330: 5f2b 7dbe f842 863e c673 7e3e 469e 6b3e
00000340: 527d 903e 6aa0 82be e228 c13b bc62 8ebd
00000350: 293a 6d3e f74e 283e 9f68 a73e f157 46be
00000360: fd55 1cbe f018 43bd 70ac 943e d031 1f3e
00000370: fadc 6dbe c05c 0b3d c504 7c3d 15da 8dbe
00000380: 8bd7 9a3e c7dd 933e 976a 903e 019b 8abe
00000390: 071c 413e 55d6 e6bd 64d2 993e 5a04 843e
000003a0: b89d 55be 4d9e 77be 182c a0be 7853 933e
000003b0: fd71 883e ad75 0bbe 00d5 46be 4eae 88be
000003c0: 5752 55be 14c9 f5bd da6e 713e 0560 523e
000003d0: f1c8 14be 2987 553e bf8d c53d 0cea 6fbe
000003e0: ab03 b43e 5c64 c7bd ad0e 5fbe 6e9c 3d3e
000003f0: 1939 483e 41a6 403e 9e08 5fbe 739d 1bbe
0.160232 0.12152086 -0.2698217 -0.24089609 0.31378105 -0.26444682 -0.13610485 -0.3705769
0.25732693 -0.17273107 0.2618955 0.22880897 -0.27837095 -0.3082818 0.09905995 0.36369115
-0.30038068 -0.19343062 -0.023308316 0.000644283 0.020478396 -0.23129228 0.28878677 -0.22525118
-0.31565657 0.030725757 -0.30235046 0.25138706 0.16636455 -0.05108182 -0.20748082 0.24815518
-0.30305755 -0.27113083 0.27777183 -0.27921382 0.14640273 -0.21580432 0.2192783 0.24202813
-0.25973463 -0.18764274 0.28584337 -0.2572276 -0.22109975 0.25745705 -0.33084527 0.27787596
-0.29253155 0.28182364 -0.29292363 0.2892599 -0.34873536 -0.17580314 0.27097854 -0.29525337
0.3157276 -0.20332219 0.3548694 0.26415086 0.1274642 0.11340082 0.3328541 -0.15644924
0.3082442 -0.094468616 -0.32174757 0.12950715 -0.073882066 0.19670591 -0.075860456 -0.15728253
-0.17504011 -0.17331856 0.26007935 -0.18232366 0.036497295 0.29613528 -0.27941677 0.29145527
-0.18713142 -0.14933439 -0.09961378 -0.103327006 -0.2937057 0.27167958 -0.07104513 0.2602019
-0.13543914 0.26513094 -0.30706877 0.14956187 -0.10470671 0.18535863 0.22094676 -0.2506992
0.3002024 -0.12801974 0.22184114 0.20130393 0.2351928 -0.2622298 0.31067127 -0.21570908
0.2313528 -0.26735628 -0.23717615 -0.31093368 0.23200065 -0.29353634 0.25178024 0.29065916
-0.2370484 -0.2126831 0.22484389 0.3642552 -0.25761586 -0.20910265 -0.30525875 0.35884655
-0.13943323 -0.1616887 0.23786087 -0.20535564 -0.081845574 0.09913068 -0.20985706 0.17801084
0.1433147 0.12299811 -0.20621918 0.21845175 -0.25434953 -0.3313482 0.17574126 -0.23173077
0.13256955 -0.20279883 0.17063606 0.16953398 0.14612907 -0.123563595 0.12400098 -0.039360356
0.11544354 -0.116144694 -0.066615924 0.022262067 0.12420188 -0.12280754 0.09942069 -0.08193704
-0.05746577 -0.050546914 0.11574172 0.11950325 -0.12311103 -0.052706093 -0.110878676 -0.043060053
0.024714608 0.02693497 0.026537422 0.017933395 0.02649578 0.027863797 0.018448345 0.012470473
0.01851713 0.002807822 0.0043697357 0.038812723 0.0045716017 0.01357279 0.021157846 -0.017990617
-0.0037490837 0.0033991858 -0.021074522 0.004122827 0.23716614 -0.281879 0.26369023 -0.21896453
0.26001382 -0.23936486 -0.3210825 -0.26033834 0.21292828 -0.26381984 0.25498757 0.26049206
-0.22300917 -0.23008813 0.2514693 0.33917242 -0.29537877 -0.2232561 -0.32299322 0.32220367
0.12467493 0.12865248 -0.22089098 0.11934982 -0.24723576 0.26222968 0.24848852 0.23009595
0.28220612 -0.2551301 0.005894766 -0.06952426 0.23166718 0.16436373 0.32697007 -0.19369484
-0.15267177 -0.047631204 0.2903781 0.15546346 -0.23228827 0.034024 0.061527986 -0.27705446
0.3024257 0.2888014 0.28206322 -0.27071384 0.18858348 -0.11271349 0.30043328 0.2578457
-0.20860946 -0.2418148 -0.3128364 0.2877462 0.26649466 -0.13619108 -0.1941719 -0.26695484
-0.20832191 -0.12001243 0.23577443 0.20544441 -0.14529778 0.20852341 0.096461765 -0.23429126
0.35159048 -0.09735939 -0.21782942 0.18516704 0.19553031 0.18813421 -0.21780631 -0.15196781

bias f4 [20]
00000000: 3757 023e 22d8 de3d 0fdc 893e 4fbc 0e3e
00000010: 7889 603e 494e 8a3d ac80 6f3d a918 c53d
00000020: 4ccb 253e 2477 163e a9ca ea3d d9f1 9e3d
00000030: 6aa6 fd3d 9378 053e f333 2a3e eeba 053e
00000040: 57fe b93d 50c2 e43d f7df c23d 2ba6 293e
0.12728582 0.10881068 0.26925704 0.13939022 0.2192744 0.06753213 0.05847232 0.09623844
0.16190833 0.14693886 0.114644356 0.077609725 0.123852566 0.13034277 0.1662138 0.1305959
0.090817146 0.11169875 0.09515374 0.16567294

weight f4 [20, 6]
00000000: 7e68 3dbf 404e 203f 849c 0d3f 9b57 49bf
00000010: e718 993e eadb 2cbf 4c60 47bf 418c 123f
00000020: f2f9 0f3f 1867 3cbf f864 e1be 7d69 333f
00000030: 3b1c d33e a5ff 4bbf 7ec3 913e 2f1f 1c3f
00000040: 85dc 7f3e ed49 3cbf 030e 36bf 1c3e 423f
00000050: 0fee 433f 56e1 4f3f 2068 0cbf d0d0 f0be
00000060: a5f4 dbbe 6758 49bf bf01 d33e f3c7 19bf
00000070: 80b7 ee3e 0e4c 453f d882 2c3f 96c8 afbe
00000080: 915d 20bf 71f8 133f 5346 07bf 1f6a 393f
00000090: 3dde 18bf d099 583f 79e0 11bf 30bc 113f
000000a0: dec2 e4be 2071 403f b8c0 123f a9b3 0e3f
000000b0: 23b7 51bf c97d 0ebf b60d 29bf 81cf 51bf
000000c0: 7ee0 d7be bdac b0be 90c1 2dbf 65ca 043f
000000d0: b3d2 503f c4c0 b7be 5601 063f 553b 46bf
000000e0: 5ca9 ac3e 1a20 32bf 69e0 38bf c20e 0c3f
000000f0: 978a 4fbf a1d2 1abf 0ebf 46bf 9d16 1fbf
00000100: 5a34 c43e df92 1a3f d74f 1e3f 940b cbbe
00000110: 2c49 26bf 839e 333f efb8 d73e b5cf 0b3f
00000120: 9b0a a7be 0753 2a3f e635 083f 628e 4e3f
00000130: cc7f d3be 21cf 56be 29e2 fdbe fc21 333f
00000140: bd22 3e3e bd60 4d3f 78cb 4fbf 766d 41bf
00000150: 592d 303f 4645 b53e e0b1 22bf a987 45bf
00000160: a684 973e ab6a 39bf cc4b 13bf 8ab7 26bf
00000170: 1c36 15bf cdad 1dbf 8116 793e 093c 233f
00000180: b3c4 473f add4 4abf b027 26bf 7408 023f
00000190: 52bb 30bf 99e0 b63e bd6a 3cbf 69dd ed3e
000001a0: 3d8c 483f f40d febe 4fb4 0bbf fcc3 8b3e
000001b0: 22f5 253f f1a0 513f f661 cabe 006c 36bf
000001c0: 755c a1be 13a9 473f 48bb 523f 7a76 3f3f
000001d0: f3ab 003f 0e9a 32bf b410 f13e 02ed f8be
-0.7398757 0.626194 0.5531695 -0.786493 0.2990181 -0.6752306 -0.7788131 0.5724526
0.5624076 -0.7359481 -0.44022346 0.7008284 0.41232476 -0.7968696 0.2846946 0.6098508
0.24986465 -0.735503 -0.7111513 0.7587602 0.76535124 0.8120321 -0.5484638 -0.4703431
-0.42960086 -0.78650516 0.4121227 -0.60070723 0.46624374 0.77069175 0.6738715 -0.34332722
-0.6264277 0.57800967 -0.5284168 0.7242755 -0.5971411 0.846097 -0.56983143 0.56927776
-0.44679922 0.75172615 0.57325315 0.5574289 -0.8192007 -0.5566068 -0.66036546 -0.8195725
-0.4216346 -0.3450679 -0.6787348 0.5187133 0.815715 -0.35889256 0.5234579 -0.77434283
0.3372296 -0.69580233 -0.7221742 0.5471002 -0.81070846 -0.60477644 -0.77635276 -0.6214388
0.3832119 0.6038036 0.61840576 -0.3965727 -0.649554 0.70163745 0.4213328 0.5461381
-0.3262528 0.6653294 0.5320724 0.8068601 -0.4130844 -0.20977451 -0.4958661 0.6997373
0.18567939 0.80225736 -0.81169844 -0.7555765 0.68819195 0.35404414 -0.63552666 -0.77160126
0.2959339 -0.7242839 -0.5753753 -0.6512381 -0.5828569 -0.61593324 0.24324991 0.6376348
0.78034514 -0.7923077 -0.6490431 0.5079415 -0.6903583 0.3571823 -0.7360037 0.46457985
0.78338987 -0.4962002 -0.54572004 0.27297962 0.6482717 0.818862 -0.39527863 -0.71258545
-0.31515852 0.7799236 0.8231702 0.74790156 0.50262374 -0.6976632 0.47083056 -0.48618323

bias f4 [6]
00000000: 5e25 2dbc 2e9e eebc c457 f2bc e444 c63d
00000010: 55fe aa3d 9ac4 b6bd
-0.010567991 -0.02912816 -0.029582866 0.096811086 0.08349291 -0.089242175
