models/Cora_Trained_Model.pt (torch, 117535 bytes, 4 tensors)

weight f4 [1433, 20]
000000 ce a1 9c be 2e c2 20 bc 96 29 01 bf 3a 38 c6 3e
       -0.30592197 -0.009811921 -0.5045408 0.38714772
000010 21 d7 fb be 1e a4 f6 be e0 32 10 3f e7 ea 8e bd
       -0.49187568 -0.48172086 0.5632763 -0.06978398
000020 ca 30 84 3e 7f 52 dc 3e 5e 94 8f 3e e8 20 65 3e
       0.25818473 0.4303169 0.28042883 0.22375834
000030 29 e9 ca 3e 09 95 d4 be bf a5 0c bf 20 43 e2 be
       0.39631012 -0.41519955 -0.5494041 -0.44191837
000040 52 aa a6 bc 31 9f fe 3e a9 0c be be 3f 06 03 3f
       -0.020344887 0.49730828 -0.37119034 0.51181406
000050 c3 e0 af 3e 2f 26 19 bf 97 7c e4 3e 86 99 4f 3e
       0.34351167 -0.5982389 0.44626305 0.20273408
000060 aa a5 56 be 73 19 e9 be a5 0d 76 3e ea 0d 93 3e
       -0.20961633 -0.4552723 0.24028642 0.28721553
000070 c3 0f 9b bc 12 67 c1 be 2a 74 12 be 9c 09 f5 3e
       -0.018928414 -0.3777395 -0.14302126 0.47858894
000080 a4 78 77 3e dd bc d6 be 78 2c 09 3f 7c 12 8b be
       0.24167114 -0.41940966 0.5358348 -0.2716254
000090 dc 82 81 3e ca 36 bd 3e 00 f3 08 3e 89 69 9d 3e
       0.2529515 0.36955863 0.13373947 0.3074458
0000a0 cb b5 08 3f 62 2d 19 3f 01 b8 80 3e 13 9b ef 3e
       0.53402394 0.59834874 0.25140384 0.46798
0000b0 e8 7d aa 3e 43 02 ef be ca 64 ff 3e 40 2c 33 3e
       0.33299184 -0.46681413 0.49881583 0.17497349
0000c0 b6 78 30 3e af 90 11 bf 31 9d 34 3e c7 3f 2d bf
       0.17233548 -0.56861395 0.17638089 -0.6767544
0000d0 5c 6e 35 3e 39 cb ac be 09 2b 0e 3f 43 18 76 be
       0.1771788 -0.33748797 0.55534416 -0.24032693
0000e0 65 db fb 3e e3 84 ce 3e 39 a6 d9 be ee 57 42 3e
       0.49190822 0.4033576 -0.4250963 0.18978855
0000f0 15 a9 7a 3e d1 1f e3 3e 79 89 b5 3e 01 85 3c 3e
       0.24478562 0.44360211 0.35456446 0.18410112
000100 4f 31 8a 3e a6 20 b3 3e b4 12 87 be 26 9d 23 be
       0.26990744 0.34985846 -0.26381457 -0.15977916
000110 fa cc b3 3e d5 9c d9 be 4a 13 64 3e 85 08 ea be
       0.35117322 -0.42502466 0.22272983 -0.45709625
000120 1d 7b f6 3e f5 c7 9c be 7b f8 a1 3e ba 6a 9f 3e
       0.48140803 -0.30621305 0.31634888 0.31136113
000130 c5 15 97 3e 19 af 93 be db b5 89 be a8 00 5d 3d
       0.29508796 -0.28844526 -0.26896557 0.053955704
000140 ab d7 c0 be 4f 5b eb be 41 c7 ab be bb a9 bb 3e
       -0.37664542 -0.459681 -0.33550456 0.36652932
000150 64 72 c6 be 2b 2b ea be 1f 1f ab 3e a6 0a d4 be
       -0.38759148 -0.4573606 0.3342218 -0.41414374
000160 3a 95 bc 3e f9 09 e3 3e 97 16 de 3e a0 24 ef 3e
       0.368326 0.44343546 0.4337661 0.4670763
000170 09 ba f5 3e 01 e4 bb be c7 45 cf be 9f 6b 86 be
       0.47993496 -0.3669739 -0.40482923 -0.26253983
000180 b6 2c f6 be 9c 95 cc 3e 9f 14 99 be f5 55 e1 3e
       -0.48080987 0.39957893 -0.29898545 0.44010893
000190 69 a4 a5 3e 0f ea dd 3e 64 e2 0a bf 26 8c 3f be
       0.32351997 0.43342635 -0.54251695 -0.18705806
0001a0 d6 00 be 3a a8 e5 4e be bd 45 62 bc d4 57 98 bd
       0.0014496099 -0.20204794 -0.013810572 -0.07438627
0001b0 8d bc 6c be be 6f 7d 3e 83 1a 5b be 85 04 58 be
       -0.23118801 0.24749658 -0.21396832 -0.21095474
0001c0 e4 f9 75 be cb 86 e3 3e b5 38 e9 be 57 cc 96 3e
       -0.24021107 0.44438776 -0.45551077 0.29452774
0001d0 aa a9 3f 3e 5c 6f fc 3d 69 13 3a 3e a1 d3 3c be
       0.18717065 0.123259276 0.18171467 -0.18440105
0001e0 74 2d b2 3e 46 a5 de 3e 9b cc a8 3d 76 1a 06 3e
       0.34800303 0.4348547 0.082421504 0.13096032
0001f0 dd c6 97 3e 01 aa b3 3d 85 4e 07 bf 27 33 b6 be
       0.29643908 0.0877266 -0.52854186 -0.355859
000200 22 e2 88 3e 7d b3 48 bb a0 a0 d1 3e 00 aa fb be
       0.26735026 -0.0030624561 0.4094286 -0.49153137
000210 c8 f4 61 be 9e c4 40 3e 28 fd d7 3e 79 d5 b9 3e
       -0.22066033 0.18825004 0.4218533 0.3629568
000220 f0 c7 9a 3e 63 64 c8 be 48 e5 7d be 7b 1d eb be
       0.30230665 -0.3913909 -0.24794495 -0.4592093
000230 f5 d6 c1 3e ea 10 d7 3e 69 64 fc 3e c9 1b 8e 3e
       0.37859312 0.42005092 0.49295357 0.27755573
000240 29 fd 37 be 35 a9 91 be c9 03 a7 3e 8e 0c c0 3e
       -0.17967667 -0.28449407 0.32620075 0.37509578
000250 12 fd 26 be 8a 78 04 bf ea ee d0 be 46 d0 ba be
       -0.16307476 -0.5174643 -0.40807277 -0.36487025
000260 9c 74 7d 3e 7e 19 51 be 82 d8 05 3f f1 62 81 be
       0.24751514 -0.20419881 0.5228349 -0.252708
000270 5c c8 74 3e 18 06 a7 3e 7c 88 3f 3e 8f 08 5c 3e
       0.23904556 0.32621837 0.18704408 0.2148764
000280 72 95 89 bf d6 6b 3f bf 2f 64 3c bf a8 64 54 3f
       -1.0748732 -0.7477392 -0.7359037 0.8296609
000290 6b 1a 36 bf a6 ca 36 bf 92 c9 68 3f 98 cd 5b bf
       -0.7113406 -0.71402967 0.9093257 -0.85860586
0002a0 a4 db 2b 3f 25 3b 70 3f eb f0 17 3f 98 15 5e 3f
       0.6713202 0.9384025 0.59351987 0.867517
0002b0 f9 12 ff 3e a6 db 68 bf 3b 84 5c bf 17 d1 04 bf
       0.49819162 -0.90960157 -0.8613927 -0.51881546
0002c0 4c 25 8a bf 12 11 32 3f 2a 19 56 bf c7 d8 20 3f
       -1.0792632 0.695573 -0.8363215 0.62830776
0002d0 9c 78 0b 3f d4 d1 04 3f 5b 38 06 3f 3d cd d9 3e
       0.5448091 0.5188267 0.5242974 0.42539397
0002e0 29 f4 d8 be 17 fd 1b bf 14 2f cc 3e 2f b5 10 3f
       -0.4237378 -0.6093306 0.39879668 0.56526464
0002f0 a0 5c 55 3e ca db 2b bf 19 c3 0d bf 42 95 d4 be
       0.20836115 -0.67132246 -0.5537582 -0.41520125
000300 48 e3 ae 3e 10 22 d8 be 17 55 18 3f c9 70 00 bf
       0.34157777 -0.42213488 0.59504837 -0.50172096
000310 5a fb de 3e a4 f7 a5 3e 94 aa 95 be 54 5a ee 3e
       0.4355114 0.32415497 -0.29231703 0.4655329
000320 ed da 87 3e cc 21 cd 3e 8d 21 cb 3e 86 12 58 3e
       0.26534215 0.40064847 0.39674035 0.21100816
000330 5f 1d 72 be 82 d3 61 3e 21 bb a8 3e d9 56 a7 3e
       -0.23644017 0.2205334 0.32955268 0.32683447
000340 de 11 7f 3e 92 97 d3 be ff 12 dd be 6b 64 b8 be
       0.2490916 -0.41326576 -0.43178555 -0.36014113
000350 5b ca 54 3e b3 90 31 bd 97 90 57 3e 4a b6 30 be
       0.20780317 -0.043350887 0.2105125 -0.17257038
000360 83 5c 6b 3e 2a 9b 05 3e 4d fc 37 be 28 14 9f 3e
       0.22984509 0.13047472 -0.17967339 0.31070065
000370 32 19 f8 3e 9e 0a b5 3e 49 2a af be 53 4f ce 3e
       0.48456722 0.35359663 -0.3421195 0.40294895
000380 a2 e0 6b be ab 6f ae 3c 87 a3 9f be 6a 90 92 3e
       -0.2303491 0.021293482 -0.3117945 0.28625804
000390 e7 c7 b4 3e f3 9e 17 3e 39 16 b1 be 89 8f ca be
       0.35308763 0.14806728 -0.34587267 -0.39562634
0003a0 ca ba 3f 3e 99 fb 6d 3e da 30 52 be 52 e8 8e 3e
       0.18723598 0.23240508 -0.20526448 0.2791162
0003b0 2f 4c c3 3e 4f ca 5e be ad 5c ff be e8 4c 66 3e
       0.3814406 -0.21756862 -0.49875394 0.22490275
0003c0 3c 72 51 bf ef c4 94 3c 4b 04 06 bc c7 91 b9 3e
       -0.8181493 0.018160312 -0.008179734 0.36244032
0003d0 df 81 27 3f ee af 1c 3f 24 65 a2 3e 49 11 23 bf
       0.6543254 0.6120595 0.3171779 -0.6369825
0003e0 d8 8c d4 3e b1 06 85 3e 62 e9 33 3f df a2 9e be
       0.41513705 0.25981668 0.7027799 -0.30983636
0003f0 e5 1d 2c 3f 54 e4 b3 be 9a 76 92 be b4 83 5f 3d
       0.67233115 -0.35135138 -0.2860611 0.05456896

bias f4 [20]
000000 0d 49 05 3e cf f6 2f 3e 14 55 24 3e 15 68 5a 3e
       0.13016148 0.17183994 0.1604808 0.21328767
000010 80 fd 34 3e db 2a 7b 3e d9 ea 54 3e 89 38 15 3e
       0.17674828 0.24528067 0.20792712 0.14572348
000020 8e 4c a4 3e c7 9b b1 3e 33 92 bb 3e 49 e9 a0 3e
       0.32089657 0.3468916 0.3663498 0.31427982
000030 f1 d4 8d 3e 43 f7 3e 3e 33 9b 38 3e 74 24 43 3e
       0.27701524 0.1864901 0.18027954 0.19056875
000040 fa 1e fc 3d cf 9e 6b 3e b5 6a 46 3e 38 cd 75 3e
       0.12310596 0.230098 0.19376643 0.24004066

weight f4 [20, 7]
000000 cc 46 05 bf 56 a2 81 3f 38 17 59 3f 5c d7 2c bf
       -0.5206115 1.0127666 0.84801054 -0.6751611
000010 af d6 a9 be fc d8 26 bf ff 89 68 3f 46 81 0c bf
       -0.33171603 -0.6517484 0.90835565 -0.54884756
000020 d3 8e 68 3f 56 64 66 3f be b1 46 bf 3b e4 8a 3f
       0.9084293 0.8999685 -0.77614963 1.08509
000030 dd 01 2a bf 83 0d 23 bf 05 50 82 3f 04 02 28 3f
       -0.66409093 -0.6369249 1.018067 0.65628076
000040 d6 86 52 bf 0e 58 2e 3f 54 53 71 bf ef 0d 8d bf
       -0.82236993 0.6810311 -0.94267774 -1.1019877
000050 b5 97 24 3f df b5 cd be 7e d7 56 3f 67 ea 4a 3f
       0.64293987 -0.4017782 0.83922565 0.7926392
000060 e6 8d 28 bf 29 60 d3 be e4 b5 78 3f 58 fe 7c bf
       -0.6584152 -0.41284302 0.97152543 -0.988256
000070 07 31 8e 3f df 4b 36 bf 1c 3f 64 3f 43 da 0e 3f
       1.1108712 -0.7120952 0.891588 0.5580179
000080 b2 b5 82 bf 74 ee 7b bf dd 7f 8d bf cc 9f 52 3f
       -1.0211699 -0.98410726 -1.1054646 0.8227508
000090 65 69 31 bf 81 b3 5f bf 9c b9 61 3f e4 62 33 3f
       -0.69301444 -0.87383276 0.8817384 0.7007277
0000a0 a6 76 2c bf cb 3e 59 bf f9 2f 58 bf b1 f4 2d 3f
       -0.67368543 -0.8486144 -0.844482 0.67951494
0000b0 7f 28 59 3f 28 9c 7e 3f 42 8d 53 bf 14 0c 63 3f
       0.8482742 0.99457026 -0.8263742 0.88690305
0000c0 74 7f 29 bf 83 c6 86 bf 73 7f 74 3f 54 86 52 bf
       -0.66210103 -1.0529331 0.9550697 -0.8223622
0000d0 10 cc 71 3f a3 03 67 3f 0f b3 2f bf bd 8a 0c bf
       0.94452 0.90239924 -0.68632597 -0.548992
0000e0 0a 73 8c 3f 5e 42 ea 3e 02 ca 7a bf 4a 45 90 bf
       1.0972607 0.4575376 -0.9796449 -1.1271145
0000f0 9f 36 8b 3f 48 ef 62 3f 3e a3 34 bf 4e 02 66 bf
       1.0876044 0.88646364 -0.7056159 -0.89847267
000100 83 bc 41 bf fd 78 08 3f 90 9c e1 3e b5 03 3f 3f
       -0.7567827 0.53309613 0.4406476 0.7461503
000110 54 45 24 3f d2 e6 6f bf b2 c0 84 3f 2b c4 66 bf
       0.64168286 -0.9371158 1.0371306 -0.9014308
000120 cc 6d e0 3e 42 fb 83 bf 2f bf 70 bf 93 56 5d 3f
       0.43833768 -1.0311053 -0.94041723 0.86460227
000130 83 61 39 3f ab 9f 82 bf 66 81 59 bf 7a 21 80 bf
       0.72414416 -1.0204977 -0.8496307 -1.0010216
000140 b3 0e 4a 3f 08 2a 87 bf c4 74 2f 3f 2f d5 83 3f
       0.7892868 -1.0559702 0.68537545 1.0299433
000150 4e 60 74 3f 78 3b 23 3f b8 a0 60 bf ea 50 2b 3f
       0.9545945 0.6376262 -0.8774524 0.6692034
000160 53 a8 16 3f a0 85 48 3f 25 2a 47 bf 04 ab 44 bf
       0.5885059 0.78328896 -0.7779868 -0.7682345
000170 d7 84 41 bf f0 f5 4f 3f 52 a2 5d 3f d4 ed 28 3f
       -0.7559332 0.81234646 0.86575806 0.65987897
000180 0b d8 68 bf c9 a8 2f bf 7e 9a 5e 3f 66 fd 14 3f
       -0.90954655 -0.6861692 0.86954486 0.58199155
000190 de e6 57 bf 9a 6e 50 bf eb e2 63 bf 4a ed 5c bf
       -0.8433665 -0.81418765 -0.89018124 -0.86299574
0001a0 9e 1b 55 3f 51 aa 62 3f f4 dd 83 bf 5e fa 51 3f
       0.83245265 0.8854113 -1.030211 0.82022655
0001b0 5b 94 9a bf a8 cd ed 3e 45 5e 85 bf 84 1d 07 3f
       -1.2076524 0.46445966 -1.0419394 0.5277941
0001c0 23 7a 45 bf fb f3 4f 3f 7a f6 16 3f 93 c9 81 bf
       -0.7713949 0.8123166 0.58969843 -1.013964
0001d0 d6 ba e2 be 62 31 61 bf 5a 30 40 3f f8 76 78 bf
       -0.4428317 -0.8796598 0.7507378 -0.9705653
0001e0 5a f0 b4 3e 91 98 17 3f 34 00 5a bf 5b 10 6c bf
       0.35339624 0.5921717 -0.8515656 -0.92212456
0001f0 e8 b1 31 3f 28 c8 7b 3f 2e 9e 47 bf 13 ba 04 bf
       0.6941209 0.9835229 -0.7797574 -0.51846427
000200 06 cf 4b 3f d8 b8 77 3f 12 20 15 bf 35 5e 3d bf
       0.7961277 0.96766424 -0.5825206 -0.73971874
000210 6b 5e 7a 3f b1 cb 6f bf e0 da 3e 3f f8 99 74 bf
       0.9780032 -0.93670183 0.74552727 -0.9554744
000220 0b c5 20 3f 04 d8 33 3f 62 ca 3c 3f f7 8b 52 bf
       0.62800664 0.7025149 0.7374631 -0.8224482

bias f4 [7]
000000 55 bd b4 3d b6 8c 09 be e2 6e 09 be 72 87 8f bc
       0.08825175 -0.13432583 -0.13421205 -0.01752064
000010 e8 56 4e 3e 37 74 aa bd 6c 3c 8d 3e
       0.2015034 -0.083229475 0.2758516
