models/Mutag_Trained_Model.pt (torch, 335905 bytes, 368 tensors)

weight f4 [10, 20]
0	0xbe827836	-0.2548234
1	0xbea652c6	-0.32485026
2	0xbd754118	-0.05987653
3	0xbe288056	-0.16455206
4	0x3d53c148	0.051698
5	0xbed95b30	-0.42452383
6	0xbe48de16	-0.19615969
7	0xbebe39ff	-0.37153623
8	0x3e1ab124	0.15106636
9	0x3e7e1c40	0.24815464
10	0xbd8d58f8	-0.06901735
11	0x3e73f990	0.2382567
12	0xbd945360	-0.07242465
13	0xbd049400	-0.032367706
14	0xbd9c95e8	-0.0764578
15	0xbe38df10	-0.18053842
16	0x3e5031e8	0.20331538
17	0xbe6be38f	-0.23036025
18	0x3e12e55c	0.14345306
19	0x3e95be96	0.29246968
20	0x3e69126c	0.22760934
21	0x3e7fd914	0.24985152
22	0x3e7a4988	0.24442112
23	0xbd91e800	-0.071243286
24	0x3e2e8610	0.17043328
25	0xbdb86e14	-0.09005371
26	0xbe83dbbb	-0.2575358
27	0x3e9e1b3c	0.30880153
28	0x3e932cb2	0.28745037
29	0xbe912790	-0.28350496
30	0x3da92030	0.082580924
31	0x3dc35870	0.095383525
32	0x3d0ee208	0.03488353
33	0x3e1ab810	0.15109277
34	0x3ee3dc38	0.4450395
35	0x3da1cad0	0.079000115
36	0xbe92843b	-0.2861651
37	0xbed088e8	-0.4072945
38	0x3dc0fb28	0.09422904
39	0xbeaafbaa	-0.3339513
40	0x3e4647d0	0.19363332
41	0xbd0c1c98	-0.034206957
42	0xbea4b19a	-0.3216675
43	0xbe9a49c2	-0.30134398
44	0xbdba75ac	-0.091044754
45	0xbe1d3c5e	-0.1535506
46	0xbe56d209	-0.2097856
47	0xbda1dd1c	-0.079035014
48	0xbe36d9a0	-0.17856455
49	0xbe82f5be	-0.2557811
50	0xbc907570	-0.017634124
51	0xbe1abf94	-0.15112144
52	0xbecf1732	-0.40447384
53	0xbebb9831	-0.3663955
54	0xbe166928	-0.14688551
55	0x3d5608e0	0.052254558
56	0xbe2aa4a6	-0.16664371
57	0x3ec30402	0.38088995
58	0x3eab4f30	0.33458853
59	0xbedc2e28	-0.43003964
60	0x3edabfea	0.42724544
61	0xbeaa2748	-0.33233094
62	0xbd96e758	-0.07368344
63	0xbe8dc5c8	-0.27689958
64	0x3e89c4a6	0.26907843
65	0xbd9746bc	-0.073865384
66	0x3d4c2208	0.049837142
67	0x3b9571c0	0.004560679
68	0x3e8455ec	0.25846803
69	0xbd822724	-0.06355122
70	0x3e6b13f8	0.22956836
71	0x3e6ae5a0	0.22939157
72	0x3c40eec0	0.011775672
73	0x3e6ed954	0.23325092
74	0xbe554800	-0.20828247
75	0x3dede900	0.11616707
76	0xbdafbbb4	-0.085807234
77	0x3e4497dc	0.19198555
78	0xbea4dd6f	-0.3220019
79	0x3d6a8dc0	0.05726409
80	0x3ebf4b0c	0.37361944
81	0xbebbf636	-0.36711282
82	0xbe4fb711	-0.20284678
83	0xbedfa0b5	-0.43677297
84	0x3eb5515e	0.3541364
85	0x3edd8b28	0.4327023
86	0x3ebaafaa	0.36462146
87	0xbe070396	-0.13184962
88	0x3ea9dec0	0.33177757
89	0x3ea71490	0.32632875
90	0xbd6ca208	-0.057771713
91	0x3ddc7a68	0.10765535
92	0xbb961600	-0.0045802593
93	0xbdb92aa8	-0.09041339
94	0xbe9aa66c	-0.30205095
95	0xbe848924	-0.2588588
96	0xbeaa2f9e	-0.33239454
97	0x3e11992c	0.14218587
98	0x3e1db9a8	0.15402853
99	0x3bdd8540	0.0067602694
100	0xbe767956	-0.24069723
101	0xbeb3a36c	-0.35085618
102	0x3e719468	0.23591769
103	0x3ed6b940	0.4193821
104	0x3eb43f7a	0.3520468
105	0xbeb4dcac	-0.3532461
106	0xbb095700	-0.0020956397
107	0x3e9df9f8	0.30854774
108	0x3ee09b9e	0.43868726
109	0x3e8e9b32	0.2785278
110	0xbec1f17c	-0.3787955
111	0xbd4dd3b8	-0.05025074
112	0xbd1487f0	-0.036262453
113	0xbe155600	-0.14583588
114	0x3e800646	0.25004786
115	0xbd7d1d58	-0.061795563
116	0x3dd34068	0.10315019
117	0xbee1aeb8	-0.44078612
118	0x3e14006c	0.14453286
119	0x3e50f864	0.20407254
120	0x3e3a6be4	0.1820522
121	0x3ed3d872	0.41376072
122	0xbe86dfd8	-0.26342654
123	0x3c3d8920	0.011568338
124	0xbe3ec65e	-0.18630359
125	0x3edfc64c	0.43705976
126	0x3e3d220c	0.18470019
127	0xbe076d56	-0.13225302
128	0x3d81c480	0.063363075
129	0x3e87480a	0.2642215
130	0x3de92e20	0.11385751
131	0xbea244b8	-0.31693053
132	0xbe2b5b04	-0.16733938
133	0x3e441980	0.19150352
134	0x3dcbc398	0.09949416
135	0xbe8a22fa	-0.2697981
136	0x3e5c6f3c	0.21526808
137	0xbd05cf00	-0.032668114
138	0xbe5c606d	-0.21521159
139	0x3e99cc08	0.30038476
140	0x3df9d7a8	0.12199336
141	0xbe329738	-0.17440498
142	0xbe244e86	-0.1604558
143	0xbebba2b2	-0.36647564
144	0xbedee492	-0.4353376
145	0xbea6a1f3	-0.32545432
146	0x3ed9a706	0.4251024
147	0x3ed8878a	0.42290908
148	0x3e9c0f18	0.30480266
149	0x3eaf886a	0.34283763
150	0xbeab50ac	-0.33459985
151	0x3dd1b088	0.10238749
152	0x3c929760	0.017894447
153	0x3e252c5c	0.16130203
154	0x3ebd4924	0.36969864
155	0x3e395d80	0.18102074
156	0x3ea732f8	0.32656074
157	0x3e8e31bc	0.2777232
158	0x3e06eb40	0.13175678
159	0xbe3e303e	-0.1857309
160	0x3e2aa7fc	0.16665643
161	0x3ed58cc2	0.41708952
162	0xbe61d640	-0.22054386
163	0xbec9e58d	-0.39432946
164	0xbd8914a8	-0.06693393
165	0x3e514548	0.20436585
166	0xbe3b5c02	-0.18296817
167	0xbd35bd40	-0.044369936
168	0x3c7a2200	0.015266895
169	0xbe40e134	-0.18835908
170	0x3e729520	0.23689699
171	0x3d832a60	0.06404567
172	0xbdaa1cb0	-0.08306253
173	0xbe849744	-0.25896657
174	0xbde1670c	-0.11005983
175	0x3dc62828	0.09675628
176	0xbdcba7e0	-0.09944129
177	0xbed552ba	-0.41664678
178	0xbe6630d5	-0.22479565
179	0x3e3f0c28	0.18656981
180	0xbc53b440	-0.012921393
181	0xbe8ce183	-0.27515802
182	0xbe9d82c0	-0.30763817
183	0x3e944d70	0.2896533
184	0x3edb2b92	0.4280668
185	0xbeb5392a	-0.35395175
186	0x3ebb90d0	0.3663392
187	0xbe1b363a	-0.15157405
188	0xbe467e56	-0.19384131
189	0xbeda1414	-0.42593443
190	0x3ea87170	0.32899046
191	0xbe9e8769	-0.30962685
192	0x3e28f2d4	0.16498882
193	0x3e2f3fc0	0.17114162
194	0x3ed94824	0.4243785
195	0x3eb78422	0.35842997
196	0x3dfb8598	0.1228134
197	0x3e561c8c	0.20909327
198	0x3dc9c280	0.09851551
199	0xbebb8c27	-0.36630365

bias f4 [20]
0	0x00000000	0.0
1	0x00000000	0.0
2	0x00000000	0.0
3	0x00000000	0.0
4	0x00000000	0.0
5	0x00000000	0.0
6	0x00000000	0.0
7	0x00000000	0.0
8	0x00000000	0.0
9	0x00000000	0.0
10	0x00000000	0.0
11	0x00000000	0.0
12	0x00000000	0.0
13	0x00000000	0.0
14	0x00000000	0.0
15	0x00000000	0.0
16	0x00000000	0.0
17	0x00000000	0.0
18	0x00000000	0.0
19	0x00000000	0.0

weight f4 [10, 20]
0	0x3ed11d18	0.4084251
1	0x3d645c20	0.05575192
2	0x3ed6c0fc	0.4194411
3	0x3d457bb8	0.04821369
4	0xbe86730a	-0.26259643
5	0xbe29b140	-0.16571522
6	0xbe8166d6	-0.2527377
7	0x3e85aa3c	0.2610644
8	0x3e425438	0.1897744
9	0xbd13cda0	-0.03608477
10	0x3eaccb2a	0.33748752
11	0x3ed9fdcc	0.42576444
12	0x3e03b218	0.12860906
13	0x3ee1c5dc	0.44096267
14	0xbea099ae	-0.31367248
15	0xbe1fe952	-0.15616348
16	0x3e5b2988	0.21402562
17	0xbd7dab98	-0.061931223
18	0x3ceabfe0	0.028655946
19	0xbe0aa462	-0.1353927
20	0xbecdb542	-0.4017735
21	0xbe9b3e56	-0.30320996
22	0x3d4723f0	0.048618257
23	0xbeb77ec2	-0.35838896
24	0xbe1b19ee	-0.1514661
25	0xbe83186e	-0.25604576
26	0x3e6c486c	0.23074502
27	0xbd4662e8	-0.048434168
28	0xbd4a1580	-0.04933691
29	0x3ca918a0	0.020641625
30	0xbeb633a5	-0.35586277
31	0x3da63dc8	0.081172526
32	0xbe8aa630	-0.27079916
33	0xbcd0ab90	-0.025472432
34	0x3deabb80	0.11461544
35	0xbdbf6180	-0.093447685
36	0x3e502c38	0.20329368
37	0x3ea0a1e2	0.31373507
38	0xbeb67481	-0.3563576
39	0x3de0fa80	0.10985279
40	0xbed04f39	-0.40685442
41	0x3ead58e0	0.3385687
42	0x3d9f9f08	0.07794005
43	0x3ee090a2	0.43860346
44	0x3b14cd00	0.0022705197
45	0x3df9ba70	0.12193763
46	0xbe468206	-0.19385538
47	0x3d33c300	0.04388714
48	0xbd9f7984	-0.07786849
49	0xbeb98e83	-0.3624154
50	0x3ee106b8	0.43950438
51	0x3e275328	0.16340315
52	0x3eb804ea	0.3594125
53	0x3ea4ced6	0.32189053
54	0x3c24ebe0	0.010066003
55	0x3e4c5be4	0.19956928
56	0xbe2035ca	-0.15645519
57	0x3e73777c	0.23776048
58	0xbec90884	-0.3926431
59	0xbca43350	-0.020043999
60	0x3edeff66	0.4355423
61	0xbea8fb2a	-0.33004123
62	0xbe8a93d9	-0.27065924
63	0x3ea750e8	0.32678914
64	0xbeb3f9de	-0.3515157
65	0xbe69c4cf	-0.22828983
66	0xbea2d5a9	-0.31803635
67	0x3e53cd44	0.20683771
68	0xbd884a10	-0.06654751
69	0xbdbff8ec	-0.0937365
70	0xbe6deaf8	-0.23234165
71	0xbe03bcac	-0.12864941
72	0x3eb771ca	0.35829002
73	0x3ed8a448	0.42312837
74	0x3edf3b8e	0.43600124
75	0xbed99d1a	-0.4250267
76	0xbd1ccb60	-0.03827989
77	0x3ca8a2a0	0.020585358
78	0xbed7e3af	-0.42165896
79	0xbedb7e0a	-0.42869598
80	0x3e9d9c76	0.30783433
81	0xbe830fab	-0.2559789
82	0x3e672294	0.22571784
83	0xbeb0c58f	-0.34525725
84	0xbe91feee	-0.28514808
85	0x3d6a9b40	0.057276964
86	0x3e8fba4e	0.28071827
87	0x3e0e21fc	0.13880152
88	0x3db6dc60	0.08928752
89	0xbec538e6	-0.38519973
90	0x3d580ce8	0.052746683
91	0x3e17ddec	0.1483075
92	0x3e474460	0.19459677
93	0x3e6993fc	0.22810358
94	0xbd07b370	-0.03313011
95	0xbe88c964	-0.2671615
96	0x3ece6a5e	0.40315527
97	0x3e8a45ca	0.2700637
98	0xbeb40334	-0.35158694
99	0xbc46b240	-0.012127459
100	0xbe86e1bd	-0.263441
101	0xbc892aa0	-0.016743958
102	0xbd87ad04	-0.06624797
103	0x3da9cbf8	0.08290857
104	0xbe4a886f	-0.19778608
105	0xbe4fef34	-0.20306093
106	0x3e5fb61c	0.21846813
107	0x3dd90b20	0.10597825
108	0xbebd5717	-0.36980507
109	0xbd40fc30	-0.047115505
110	0x3e1fbb80	0.1559887
111	0x3e7a80b4	0.24463159
112	0xbe067058	-0.13128793
113	0xbd7fd780	-0.062461376
114	0xbeac611c	-0.3366784
115	0xbdee0148	-0.11621338
116	0x3d6f7d90	0.058469355
117	0xbd42c838	-0.047554225
118	0xbed9af76	-0.4251668
119	0x3eb52788	0.35381722
120	0x3dfeb0e0	0.1243608
121	0x3ec92de0	0.39292812
122	0x3e9171e8	0.28407216
123	0x3d016da8	0.031598717
124	0x3df5e7f0	0.12007129
125	0xbe9da164	-0.30787194
126	0x3eb23214	0.34803832
127	0x3b3eac80	0.0029094517
128	0x3eaad762	0.3336745
129	0x3e46b70c	0.19405764
130	0xbdc0a1fc	-0.09405896
131	0xbe3b0258	-0.18262613
132	0xbd010578	-0.031499356
133	0x3e252164	0.16126019
134	0x3d87c060	0.066284895
135	0xbee05b32	-0.43819577
136	0xbe99b8be	-0.3002376
137	0xbe996ce8	-0.299659
138	0x3c98c610	0.018649131
139	0x3dc2c590	0.09510338
140	0xbe758f67	-0.23980485
141	0xbea35ada	-0.31905252
142	0x3e56d4b8	0.20979583
143	0xbebd0d1b	-0.3692406
144	0x3e68112c	0.226628
145	0x3d860be8	0.0654524
146	0x3b00d400	0.0019657612
147	0xbec30a9f	-0.3809404
148	0xbe3e8be4	-0.18608052
149	0xbebc9087	-0.36829016
150	0xbe5c45b8	-0.2151097
151	0x3e150d3c	0.1455583
152	0xbcdb9b70	-0.026807517
153	0xbec2b844	-0.3803121
154	0x3e833cea	0.2563241
155	0x3ce2afb0	0.027671665
156	0x3ebaa0a8	0.36450696
157	0xbde14730	-0.10999906
158	0xbeba747e	-0.36417
159	0x3e7ea68c	0.2486822
160	0xbddbecec	-0.10738549
161	0x3e468380	0.19386101
162	0xbd40a790	-0.0470348
163	0x3e3de980	0.18546104
164	0x3d8d6d28	0.069055855
165	0x3e19b528	0.15010512
166	0xbeafcddb	-0.34336743
167	0xbebf3793	-0.37347087
168	0xbd950068	-0.07275468
169	0xbec7e4ae	-0.39041656
170	0xbec85f6f	-0.3913531
171	0xbdf5ec1c	-0.12007925
172	0xbd062368	-0.03274861
173	0x3e63e320	0.2225461
174	0xbdfe2c7c	-0.124108285
175	0xbeb6a0d9	-0.35669592
176	0xbdbb3900	-0.09141731
177	0xbe9c87f0	-0.30572462
178	0x3e971610	0.2950902
179	0xbebc777a	-0.36809903
180	0x3e6f2f20	0.2335782
181	0x3c904150	0.017609268
182	0xbe59f1af	-0.21283601
183	0x3e82fd86	0.25584048
184	0xbe842d59	-0.25815848
185	0x3ca5f8a0	0.020260155
186	0xbd7d6da8	-0.061872154
187	0x3e06a348	0.13148224
188	0xbcf61250	-0.030038029
189	0xbec3f8f7	-0.38275883
190	0xbea01af9	-0.31270579
191	0xbe912792	-0.28350502
192	0x3eaa70e4	0.33289254
193	0x3eb970fa	0.36219007
194	0x3e5edc40	0.21763706
195	0x3ecf7c7a	0.40524656
196	0xbec8f38f	-0.3924832
197	0x3e8be2d2	0.27321488
198	0x3e84ff76	0.2597615
199	0xbedf9a13	-0.43672237

bias f4 [20]
0	0x00000000	0.0
1	0x00000000	0.0
2	0x00000000	0.0
3	0x00000000	0.0
4	0x00000000	0.0
5	0x00000000	0.0
6	0x00000000	0.0
7	0x00000000	0.0
8	0x00000000	0.0
9	0x00000000	0.0
10	0x00000000	0.0
11	0x00000000	0.0
12	0x00000000	0.0
13	0x00000000	0.0
14	0x00000000	0.0
15	0x00000000	0.0
16	0x00000000	0.0
17	0x00000000	0.0
18	0x00000000	0.0
19	0x00000000	0.0

weight f4 [10, 20]
0	0xbe6b89af	-0.23001741
1	0xbe59eebc	-0.21282476
2	0x3ddf9b28	0.109182656
3	0xbed893e8	-0.42300344
4	0x3d83f840	0.06443834
5	0xbcca4ff0	-0.02469632
6	0xbe2f76f8	-0.17135227
7	0x3ea4e970	0.3220935
8	0xbe75ab82	-0.23991206
9	0xbb677280	-0.003531605
10	0xbe9d5b98	-0.30733943
11	0x397cb000	0.00024098158
12	0x3e011450	0.12605405
13	0x3eca3992	0.39497048
14	0xbe0c5206	-0.13703164
15	0x3e1d6dbc	0.15373892
16	0x3cd0b190	0.025475293
17	0x3db1fe90	0.08691132
18	0x3d1e7368	0.03868428
19	0x3da8f450	0.08249724
20	0x3d3c04f8	0.045903176
21	0x3db88fe8	0.09011823
22	0xbe2bbeb0	-0.1677196
23	0x3e9341fe	0.28761286
24	0x3e02f108	0.12787259
25	0xbec899cc	-0.39179838
26	0x3d96f618	0.073711574
27	0x3ea22d72	0.31675297
28	0xbcee2de0	-0.02907461
29	0x3e81f3a8	0.25381207
30	0x3ca39990	0.019970685
31	0x3edefed4	0.43553793
32	0xbedeb14d	-0.43494645
33	0x3ee248a8	0.44196057
34	0x3ec76fce	0.38952488
35	0xbe523fca	-0.20532146
36	0x3e20f5a8	0.1571871
37	0xbe00a598	-0.12563169
38	0xbdb33f80	-0.08752346
39	0x3da39338	0.07987064
40	0x3e2c3500	0.16817093
41	0x3e6a6940	0.22891712
42	0xbed9425c	-0.4243344
43	0x3e33e278	0.1756686
44	0xbe3cd3fc	-0.1844024
45	0x3e58f034	0.2118538
46	0x3cd09410	0.025461227
47	0x3e6ce1d0	0.23133016
48	0x3e25710c	0.16156405
49	0x3e70dac0	0.23520947
50	0x3edc3c8a	0.43014938
51	0x3d50c7a0	0.050971627
52	0x3e80cd70	0.25156736
53	0xbd5e3db0	-0.05425805
54	0x3e991f22	0.29906565
55	0xbee43da1	-0.4457827
56	0x3e4bdc10	0.19908166
57	0xbe8ae582	-0.27128226
58	0xbecca376	-0.3996846
59	0x3ee041ee	0.438003
60	0xbe9fb4c3	-0.31192598
61	0xbdac00cc	-0.083985895
62	0xbe9f1829	-0.3107312
63	0x3c4a2a40	0.012339175
64	0x3ed741d6	0.42042416
65	0x3e98969a	0.298024
66	0xbe80abec	-0.25131166
67	0x3ea0fbc0	0.3144207
68	0x3e20f5f0	0.15718818
69	0xbebd3414	-0.36953795
70	0xbe462428	-0.1934973
71	0xbe57703d	-0.2103891
72	0xbb495a80	-0.0030724108
73	0x3e34afd4	0.17645198
74	0xbece78cc	-0.40326536
75	0x3eb06730	0.34453726
76	0x3dab0428	0.08350402
77	0x3e1e7ae0	0.1547656
78	0x3e05e21c	0.13074535
79	0xbe9e4e7d	-0.30919257
80	0xbeddac98	-0.4329574
81	0x3d3cdff0	0.046112
82	0xbe8e58fe	-0.2780227
83	0x3ea7a1ae	0.3274054
84	0xbe333002	-0.17498782
85	0x3dca8308	0.098882735
86	0xbe6e3e1c	-0.2326588
87	0x3e8fde6e	0.28099388
88	0xbd81bac0	-0.06334448
89	0xbec1ecea	-0.37876064
90	0xbe8b5990	-0.27216768
91	0x3e409d9c	0.18810123
92	0x3e299e7c	0.16564363
93	0x3eb5d772	0.35515934
94	0xbe624195	-0.2209533
95	0xbe0a44ee	-0.13502857
96	0xbe745690	-0.23861146
97	0xbe5eb9bc	-0.2175054
98	0xbed1e3d0	-0.4099412
99	0x3da8dba0	0.08245015
100	0xbdd65288	-0.1046496
101	0xbe18ae7c	-0.1491031
102	0x3dc2c120	0.09509492
103	0x3e38a564	0.18031842
104	0x3e966eca	0.293814
105	0xbec46fd6	-0.38366574
106	0x3b47d680	0.0030492842
107	0x3d32d880	0.0436635
108	0xbe35d7a6	-0.17758045
109	0x3eb028ee	0.34406227
110	0x3bbb9b80	0.005725324
111	0xbdb33358	-0.087500274
112	0x3edab6aa	0.42717487
113	0x3ecc7374	0.39931834
114	0x3e2c3878	0.16818416
115	0xbc9965b0	-0.018725246
116	0x3e875a8a	0.26436263
117	0x3e54b520	0.20772219
118	0xbee26f28	-0.4422543
119	0x3ec48a52	0.3838678
120	0x3e241968	0.16025317
121	0x3e501714	0.20321304
122	0xbeb7e28a	-0.35915023
123	0x3ed8d118	0.42347026
124	0xbe84b24c	-0.2591728
125	0xbc80a8c0	-0.015705466
126	0xbdc51dd8	-0.09624833
127	0xbecf4a97	-0.40486595
128	0x3eca0e12	0.3946386
129	0x3eab09ec	0.33406007
130	0x3c1c9c00	0.009558678
131	0xbe209c3e	-0.15684602
132	0x3e8b5950	0.27216578
133	0x3e271a20	0.1631856
134	0x3ecb73fc	0.39736927
135	0x3d3f21e0	0.046663165
136	0xbd1bc010	-0.038024962
137	0xbe9a2a82	-0.30110556
138	0x3edfbe2e	0.43699783
139	0xbe3fce6e	-0.1873109
140	0xbe611eef	-0.21984456
141	0xbe1b6cdc	-0.15178245
142	0xbebe62be	-0.3718471
143	0x3e5b1404	0.21394354
144	0xbece0561	-0.4023848
145	0xbe4fca33	-0.20291977
146	0xbe0b7b76	-0.13621315
147	0xbe073e98	-0.13207471
148	0x3ecdf096	0.40222615
149	0x3e20b3d4	0.15693599
150	0x3e8d695c	0.27619445
151	0xbee4101b	-0.44543537
152	0x3e1efdec	0.15526551
153	0x3e8726f0	0.26396894
154	0xbca313f0	-0.019906968
155	0xbeb0428a	-0.34425765
156	0xbee26b5c	-0.44222534
157	0xbdd486d4	-0.10377279
158	0xbe19c524	-0.1501661
159	0xbdca3ee4	-0.09875277
160	0x3e379904	0.17929465
161	0xbe74dd54	-0.23912555
162	0x3e9cae38	0.30601668
163	0x3e73d4c4	0.23811632
164	0xbd359c80	-0.044338703
165	0x3e781350	0.24226117
166	0x3df743b8	0.12073463
167	0x3d8adda0	0.06780553
168	0x3ded04a0	0.11573148
169	0xbe8abc68	-0.27096868
170	0x3e975110	0.29554033
171	0xbece45ef	-0.4028773
172	0x3e9d350c	0.30704534
173	0x3e5d4da0	0.21611643
174	0x3ec8540e	0.3912663
175	0xbee0429b	-0.43800816
176	0xbe509249	-0.20368303
177	0xbe8f387e	-0.27972788
178	0x3de1cb88	0.11025149
179	0xbd72db10	-0.059290946
180	0x3e509a80	0.20371437
181	0xbedbbd1e	-0.42917722
182	0xbed8fa58	-0.42378497
183	0xbe1ccf32	-0.15313414
184	0xbea97a34	-0.33101046
185	0xbedd7746	-0.4325506
186	0x3dbf3de8	0.093379796
187	0xbdc81adc	-0.09770748
188	0xbe7de2b2	-0.24793509
189	0xbd1aec98	-0.03782329
190	0x3eb65d24	0.35617936
191	0x3e4450d4	0.19171458
192	0x3e0d59c4	0.13803774
193	0xbe455258	-0.19269693
194	0xbeac1141	-0.33606914
195	0xbe20766e	-0.15670177
196	0x3e84e7e6	0.25958174
197	0x3e3aba64	0.18235165
198	0xbea40562	-0.32035357
199	0xbebc01ee	-0.36720222

bias f4 [20]
0	0x00000000	0.0
1	0x00000000	0.0
2	0x00000000	0.0
3	0x00000000	0.0
4	0x00000000	0.0
5	0x00000000	0.0
6	0x00000000	0.0
7	0x00000000	0.0
8	0x00000000	0.0
9	0x00000000	0.0
10	0x00000000	0.0
11	0x00000000	0.0
12	0x00000000	0.0
13	0x00000000	0.0
14	0x00000000	0.0
15	0x00000000	0.0
16	0x00000000	0.0
17	0x00000000	0.0
18	0x00000000	0.0
19	0x00000000	0.0

weight f4 [10, 20]
0	0x3e9b3b64	0.3031875
1	0xbe9465e6	-0.28983992
2	0x3d174050	0.036926568
3	0xbed515e6	-0.4161827
4	0x3ec35590	0.38151217
5	0xbde29448	-0.11063439
6	0xbdebe714	-0.11518684
7	0xbe21cce6	-0.15800819
8	0xbd5cbf08	-0.05389312
9	0x3dcc96d0	0.09989703
10	0x3e7ae2e0	0.24500608
11	0xbe0b65d8	-0.13613069
12	0xbe08bf16	-0.13354144
13	0x3dee33f0	0.11631
14	0xbb15c800	-0.0022854805
15	0x3e890436	0.26761025
16	0x3d2a7c10	0.04162222
17	0xbe581230	-0.21100688
18	0xbe956674	-0.29179728
19	0xbdea8354	-0.1145083
20	0x3e9e647a	0.30936033
21	0x3ec41c16	0.38302678
22	0xbe4430fa	-0.19159308
23	0x3e625958	0.22104394
24	0xbe1aa95e	-0.15103671
25	0xbecb45f3	-0.39701805
26	0xbbeec4c0	-0.007286638
27	0x3d92bc70	0.07164848
28	0x3ebd7034	0.36999667
29	0xbde12b60	-0.10994601
30	0xbe92586e	-0.28583091
31	0xbea432b4	-0.32069933
32	0xbda238f4	-0.07921019
33	0xbe6a3e08	-0.22875226
34	0xbe370076	-0.1787127
35	0xbea1ceb8	-0.31603026
36	0x3ea9273a	0.3303774
37	0xbe38ab5e	-0.18034121
38	0xbddbbc58	-0.10729283
39	0xbea1a8d0	-0.31574106
40	0xbd1541f0	-0.036439836
41	0xbde420b4	-0.1113905
42	0x3e1af6a0	0.15133142
43	0x3dddb678	0.10825819
44	0x3e94d54a	0.29068977
45	0xbe13afe6	-0.14422569
46	0xbdeb50b4	-0.11490002
47	0x3e8b1d60	0.2717085
48	0x3d61ffd0	0.055175602
49	0xbe3d8b78	-0.18510234
50	0x3dc73e28	0.09728652
51	0x3e9705b0	0.29496527
52	0x3bccd8c0	0.0062514246
53	0xbe8a0e67	-0.26964113
54	0x3e986146	0.29761714
55	0x3e059da8	0.13048422
56	0x3ec71984	0.38886654
57	0x3d6a9000	0.057266235
58	0xbe951cc1	-0.291235
59	0xbe09880a	-0.13430801
60	0x3c586dc0	0.01320976
61	0x3e2f3db8	0.17113388
62	0xbe8d23c0	-0.27566338
63	0x3ed2b852	0.4115625
64	0x3e17bd3c	0.14818281
65	0x3ed42120	0.41431522
66	0xbdf80490	-0.12110245
67	0xbeb1daea	-0.3473733
68	0xbda37a90	-0.07982361
69	0xbd93c818	-0.07215899
70	0x3df98828	0.12184173
71	0x3d69aa30	0.05704707
72	0xbe21068a	-0.1572515
73	0xbdfb91d4	-0.12283674
74	0x3e4b59ec	0.19858521
75	0x3d90e2d8	0.07074517
76	0x3eab5656	0.33464307
77	0xbe887bdc	-0.26656997
78	0x3e7bee98	0.24602735
79	0x3d8adb58	0.06780118
80	0x3db3fcf0	0.087884784
81	0x3eabb884	0.33539212
82	0xbedb0eaa	-0.42784625
83	0x3d53ea78	0.05173728
84	0xbd116ce8	-0.03550425
85	0x3e2de0c8	0.16980278
86	0xbbe71240	-0.007051736
87	0x3e56ab6c	0.2096383
88	0x3e360264	0.1777435
89	0xbe3a07b8	-0.18167007
90	0x3e0fe914	0.14053756
91	0x3ec7f8b6	0.3905694
92	0x3e897cd8	0.2685306
93	0x3e404f08	0.18780148
94	0x3eadf294	0.33974135
95	0x3e8ef614	0.27922118
96	0xbe3adf84	-0.18249327
97	0x3e27d710	0.16390634
98	0x3e589910	0.21152139
99	0xbe8c359a	-0.27384645
100	0x3e180dcc	0.14849013
101	0xbe2b1b02	-0.16709521
102	0x3e01c70c	0.12673587
103	0x3e419954	0.18906146
104	0x3d2093d0	0.039203465
105	0xbeb857c1	-0.3600445
106	0xbea9bc7d	-0.33151618
107	0xbeda44b4	-0.4263054
108	0xbea8097d	-0.3281974
109	0x3e3dfbf4	0.18553144
110	0xbe8300ee	-0.25586647
111	0x3e1c49d8	0.15262544
112	0x3ee04bda	0.4380787
113	0x3d11dc00	0.0356102
114	0xbe9cccd2	-0.30625015
115	0xbe195f82	-0.1497784
116	0x3ec0fbb4	0.37692034
117	0x3e9e5a52	0.30928284
118	0xbead895c	-0.3389386
119	0xbea80d2e	-0.32822555
120	0xbe41d858	-0.18930185
121	0xbe83f828	-0.25775266
122	0x3d8c1bf8	0.06841272
123	0xbe901b02	-0.28145605
124	0xbd5c5010	-0.05378729
125	0x3d387b18	0.045039266
126	0xbc9617b0	-0.018321842
127	0x3e81097c	0.25202549
128	0x3eb9b416	0.36270207
129	0x3ddcffe0	0.10790992
130	0x3e86b296	0.26308125
131	0xbea8bccf	-0.3295655
132	0xbecf7663	-0.4052001
133	0xbe9fabb3	-0.31185684
134	0x3df21700	0.11820793
135	0xbeb36146	-0.3503515
136	0xbeae77e8	-0.34075856
137	0x3ecd7344	0.40127003
138	0x3e9da076	0.30786484
139	0xbe6c950c	-0.23103732
140	0x3d5cfe90	0.053953707
141	0xbeb6ebd5	-0.357268
142	0x3ecf8c8e	0.40536922
143	0xbe8c25f6	-0.27372712
144	0xbe9f5846	-0.31122035
145	0xbe08db58	-0.13364923
146	0x3e8143fe	0.25247186
147	0x3e99177a	0.29900724
148	0x3cdad650	0.02671352
149	0xbed05bad	-0.40694943
150	0x3e6c4488	0.23073018
151	0xbea2e954	-0.3181864
152	0x3e7c5c10	0.24644494
153	0x3ed1612c	0.4089445
154	0xbe8e6c06	-0.2781679
155	0x3e3b8540	0.1831255
156	0x3ea7499e	0.32673353
157	0xbdb537ec	-0.08848557
158	0xbd8faef4	-0.070157915
159	0x3ec27dc8	0.37986588
160	0x3add0400	0.0016862154
161	0xbe90fb0c	-0.28316534
162	0xbea172f3	-0.31533012
163	0xbea79e03	-0.3273774
164	0x3d295340	0.04133916
165	0xbe96d120	-0.29456425
166	0x3d9a9778	0.075484216
167	0xbe9daa5c	-0.30794036
168	0x3e843140	0.25818825
169	0x3e1e77f8	0.15475452
170	0x3e19946c	0.14998025
171	0x39de3c00	0.00042387843
172	0xbd654838	-0.055977076
173	0x3ea6b5ea	0.32560664
174	0x3ecfde56	0.40599316
175	0x3ea1be62	0.31590563
176	0xbe83671a	-0.25664598
177	0x3edd05a0	0.43168354
178	0x3e805038	0.25061202
179	0x3eb359b6	0.35029382
180	0xbe01626e	-0.12635204
181	0x3ee16bea	0.44027644
182	0xbde9b170	-0.11410797
183	0x3ec20a56	0.3789851
184	0xbe585fce	-0.21130297
185	0x3e2c8f0c	0.16851443
186	0xbe06aa42	-0.13150886
187	0xbbc8e580	-0.006130874
188	0x3e83378e	0.25628322
189	0x3e7e7cf4	0.24852353
190	0x3ebd3f3a	0.369623
191	0xbe83145c	-0.2560147
192	0x3d560a38	0.05225584
193	0xbe9c9e57	-0.30589554
194	0xbd8e232c	-0.06940302
195	0x3cdb5ea0	0.02677852
196	0x3e4fb040	0.20282078
197	0xbea0c2a4	-0.313985
198	0xbee44ac8	-0.44588304
199	0x3db13a30	0.086536765

bias f4 [20]
0	0x00000000	0.0
1	0x00000000	0.0
2	0x00000000	0.0
3	0x00000000	0.0
4	0x00000000	0.0
5	0x00000000	0.0
6	0x00000000	0.0
7	0x00000000	0.0
8	0x00000000	0.0
9	0x00000000	0.0
10	0x00000000	0.0
11	0x00000000	0.0
12	0x00000000	0.0
13	0x00000000	0.0
14	0x00000000	0.0
15	0x00000000	0.0
16	0x00000000	0.0
17	0x00000000	0.0
18	0x00000000	0.0
19	0x00000000	0.0

weight f4 [10, 20]
0	0xbe29dbae	-0.16587707
1	0x3da31098	0.079621494
2	0xbe4fcda3	-0.20293288
3	0x3d03b0c0	0.032150984
4	0xbec68d84	-0.38779843
5	0x3df60400	0.12012482
6	0x3e1fdf80	0.15612602
7	0xbe87f4a1	-0.26553825
8	0x3e9d2eb2	0.30699688
9	0x3eb39b10	0.3507924
10	0xbdb28c70	-0.087181926
11	0xbe1942b4	-0.14966851
12	0x3d713080	0.058884144
13	0x3e602414	0.21888763
14	0xbe9237e6	-0.28558272
15	0xbee220b2	-0.4416557
16	0xbec8712f	-0.39148852
17	0x3e9bd804	0.30438244
18	0x3ec00222	0.37501627
19	0x3e10bf80	0.14135551
20	0x3eb49bfc	0.35275257
21	0xbdc49180	-0.095980644
22	0xbeb48dad	-0.3526434
23	0xbeca0bc1	-0.39462093
24	0x3e781004	0.2422486
25	0x3e7d31c4	0.24726015
26	0x3c6a0f80	0.014285922
27	0x3e9808e2	0.29694277
28	0xbebc83a3	-0.3681918
29	0x3e076010	0.13220239
30	0x3e814d3c	0.25254238
31	0x3d09f698	0.033682436
32	0x3ea5d72e	0.32390732
33	0x3ea06870	0.3132968
34	0xbce66470	-0.028124064
35	0xbeb06739	-0.34453753
36	0xbea0cd25	-0.31406513
37	0xbe44e262	-0.19226983
38	0xbc86e810	-0.016468078
39	0x3ee1331a	0.439843
40	0x3e9032bc	0.28163707
41	0xbe760cb5	-0.24028285
42	0xbe80d5f8	-0.25163245
43	0xbe6d1e70	-0.23156142
44	0xbec8fc8d	-0.3925518
45	0x3daad508	0.08341414
46	0xbed89f7a	-0.4230917
47	0x3e4237d8	0.18966615
48	0x3c885470	0.016641825
49	0xbda717ac	-0.08158812
50	0xbe769881	-0.24081613
51	0x3ba84880	0.005135596
52	0x3ec9b19a	0.39393312
53	0x3e0063dc	0.12538093
54	0x3dff9ca8	0.12481052
55	0x3eb877d0	0.3602891
56	0xbe8034c1	-0.25040248
57	0xbe8811ea	-0.26576167
58	0xbe0aa352	-0.13538864
59	0xbe19659e	-0.1498017
60	0x3e29f248	0.16596329
61	0x3e956d52	0.29184967
62	0xbea3c8ea	-0.31989223
63	0xbeb5a514	-0.35477507
64	0xbeb77ce0	-0.3583746
65	0xbeb45980	-0.35224533
66	0x3e392310	0.18079782
67	0x3e2dc7ac	0.169707
68	0x3d616550	0.05502826
69	0x3e3ffee4	0.18749577
70	0x3e4e4c2c	0.20146245
71	0x3e915538	0.2838533
72	0xbcb0ef60	-0.021598518
73	0x3d238910	0.039925635
74	0x3e2de378	0.16981304
75	0xbebcff16	-0.36913365
76	0x3ee2d2ba	0.44301397
77	0xbdf2630c	-0.11835298
78	0x3e8910dc	0.26770675
79	0xbeb299bc	-0.34882915
80	0x3eb924ba	0.36160833
81	0x3ec4bff8	0.3842771
82	0xbe3802f0	-0.1796987
83	0x3e8c8c2c	0.27450693
84	0x3df21fd8	0.1182248
85	0xbd431348	-0.04762581
86	0xbeb293a6	-0.34878272
87	0x3e928708	0.28618646
88	0xbeced342	-0.40395552
89	0x3ea5ef1a	0.32408983
90	0xbec9183d	-0.39276305
91	0x3e35751c	0.17720455
92	0xbe9994c3	-0.2999631
93	0xbec7c630	-0.39018393
94	0x3d29f650	0.041494668
95	0x3e4833c8	0.19551003
96	0xbe78fca4	-0.24315125
97	0x3e594808	0.21218884
98	0x3ebf81d6	0.37403744
99	0xbe1c9246	-0.15290174
100	0xbd8314bc	-0.06400439
101	0x3e173054	0.1476453
102	0xbe82433e	-0.25441927
103	0xbe943418	-0.28945994
104	0xbe85643d	-0.26053038
105	0x3ecdbbf4	0.4018246
106	0xbea46fca	-0.32116538
107	0x3c26b8c0	0.010175884
108	0x3e50ed94	0.20403129
109	0xbd302518	-0.043004125
110	0xbdee5968	-0.11638147
111	0xbe739dd2	-0.23790672
112	0x3de95c20	0.113945246
113	0x3e9bff7e	0.30468363
114	0x3ebce8e6	0.36896437
115	0xbddadfa4	-0.10687187
116	0x3e47ac74	0.1949938
117	0xbe004b0c	-0.12528628
118	0x3e00b6f8	0.12569797
119	0xbeda8ca3	-0.42685422
120	0xbd41e7f8	-0.047340363
121	0xbe820250	-0.2539239
122	0xbe3f7d38	-0.18700111
123	0x3c929090	0.017891198
124	0xbe051d3a	-0.1299943
125	0x3d9ffe00	0.078121185
126	0x3ed97bd6	0.42477292
127	0x3e5ea1f8	0.21741474
128	0xbd9ba3cc	-0.07599601
129	0xbe986a78	-0.2976873
130	0x3e8c909e	0.27454084
131	0xbe577809	-0.21041884
132	0x3ec7d3fe	0.39028925
133	0x3eb2648a	0.3484233
134	0x3eb6deac	0.3571676
135	0xbe6f37bd	-0.23361106
136	0xbe60ecaa	-0.2196528
137	0xbde0c1b8	-0.10974449
138	0x3ed9f690	0.42570925
139	0xbc4f2fc0	-0.012645662
140	0x3e9a22c2	0.30104643
141	0x3e990db2	0.2989326
142	0xbdfde600	-0.12397385
143	0x3e9a1664	0.30095208
144	0x3e200804	0.15628058
145	0xbe91839f	-0.2842073
146	0x3d8b7d10	0.06810963
147	0x3e3aeca0	0.18254328
148	0xbe76606b	-0.24060218
149	0x3ed3cf3a	0.4136904
150	0x3da0b7c0	0.078475475
151	0xbe72a1c6	-0.23694524
152	0x3ed84958	0.42243457
153	0x3e8bec38	0.27328658
154	0x3e834446	0.25638026
155	0xbec03766	-0.37542266
156	0x3ed191bc	0.409315
157	0x3e7cd4e0	0.2469058
158	0x3e0ca784	0.13735777
159	0xbe664274	-0.22486287
160	0xbec1d286	-0.3785593
161	0xbedb66a3	-0.42851743
162	0x3e2ad260	0.16681814
163	0xbd2cb2a8	-0.042162567
164	0x3e83cdaa	0.25742847
165	0x3ea3ed48	0.3201697
166	0xbe14ffa8	-0.1455065
167	0xbe736347	-0.2376834
168	0x3e41ab18	0.18912923
169	0x3dc72930	0.09724653
170	0x3e93c256	0.28859204
171	0xbed3f870	-0.4140048
172	0x3d230bb8	0.039806098
173	0xbdb6099c	-0.088885516
174	0xbec3e1ed	-0.38258305
175	0xbe8f0b6c	-0.27938402
176	0xbe904cf6	-0.28183717
177	0xbebdac6d	-0.37045613
178	0x3e059f3c	0.13049024
179	0x3e3bb878	0.18332088
180	0x3eaf3d6e	0.34226555
181	0x3edc3f56	0.4301707
182	0x3e8ec78a	0.2788661
183	0x3eb3969e	0.3507585
184	0x3e09fe34	0.13475877
185	0xbe38ee1a	-0.18059579
186	0x3c9a5b00	0.01884222
187	0xbec04183	-0.3754998
188	0xbedbf371	-0.4295917
189	0xbe76f8e8	-0.24118388
190	0xbebbddc8	-0.36692643
191	0xbd824600	-0.06361008
192	0x3ee2a50e	0.44266552
193	0xbe924e1a	-0.28575212
194	0xbea319ca	-0.31855613
195	0x3c119580	0.008885741
196	0xbeb0a1e4	-0.34498513
197	0x3e5b484c	0.21414298
198	0xbe52ca38	-0.20584953
199	0xbda5dc30	-0.08098638

bias f4 [20]
0	0x00000000	0.0
1	0x00000000	0.0
2	0x00000000	0.0
3	0x00000000	0.0
4	0x00000000	0.0
5	0x00000000	0.0
6	0x00000000	0.0
7	0x00000000	0.0
8	0x00000000	0.0
9	0x00000000	0.0
10	0x00000000	0.0
11	0x00000000	0.0
12	0x00000000	0.0
13	0x00000000	0.0
14	0x00000000	0.0
15	0x00000000	0.0
16	0x00000000	0.0
17	0x00000000	0.0
18	0x00000000	0.0
19	0x00000000	0.0

weight f4 [10, 20]
0	0xbbc3fec0	-0.0059812963
1	0x3ea59d0c	0.3234638
2	0x3c41fa60	0.011839479
3	0xbec172d5	-0.37782922
4	0x3e26e63c	0.16298765
5	0x3e0536ec	0.13009232
6	0xbeb68b62	-0.35653216
7	0x3cde58e0	0.027141988
8	0xbe96186c	-0.29315507
9	0x3cd43290	0.025903016
10	0xbec683f6	-0.38772553
11	0x3ed1dc80	0.4098854
12	0x3e78c2dc	0.24293083
13	0x3ebb4b7c	0.36581028
14	0x3dfcf4d8	0.12351388
15	0x3ed119d2	0.40840012
16	0x3e166fdc	0.14691108
17	0xbeca50ba	-0.39514714
18	0xbe90aef0	-0.28258467
19	0x3eba32e4	0.3636695
20	0x3ebe8a4a	0.3721488
21	0xbde61790	-0.11234963
22	0x3ddd36d8	0.10801476
23	0xbec55543	-0.38541612
24	0x3db7de88	0.08977991
25	0xbedaf6ed	-0.42766514
26	0x3e5229e8	0.20523798
27	0xbe9991d0	-0.2999406
28	0x3e311db8	0.17296493
29	0x3cce34a0	0.025171578
30	0xbe563ad3	-0.20920877
31	0xbe2d25f0	-0.16909003
32	0x3dca7e38	0.098873556
33	0x3ec88798	0.3916595
34	0xbd3fecb8	-0.046856612
35	0x3ed1089c	0.4082688
36	0x3e4fda84	0.20298201
37	0xbe19e764	-0.15029675
38	0x3e4a1cb8	0.19737518
39	0x3cfb54d0	0.03068009
40	0xbe96374a	-0.29339057
41	0x3edb9e72	0.42894322
42	0x3d9210f8	0.07132143
43	0xbdc14db8	-0.09438652
44	0xbed34452	-0.41263062
45	0xbcff7340	-0.031182885
46	0x3e95b722	0.29241282
47	0xbc2a08e0	-0.0103780925
48	0xbec342c1	-0.38136867
49	0xbe31613a	-0.17322245
50	0xbe814d26	-0.25254172
51	0x3dc5be98	0.096554935
52	0xbea6801c	-0.32519615
53	0x3dede698	0.11616248
54	0xbe449280	-0.1919651
55	0xbeabd097	-0.3355758
56	0x3d1d64d0	0.03842622
57	0xbebb0907	-0.36530325
58	0xbe4c67ce	-0.19961473
59	0xbebc7de8	-0.3681481
60	0xbd8e9a44	-0.069630176
61	0x3ea3f4c8	0.3202269
62	0xbc667200	-0.014065266
63	0x3e727714	0.23678237
64	0xbc3ec0e0	-0.011642665
65	0x3ed8cdac	0.42344415
66	0xbd5369d8	-0.051614612
67	0x3e9dae74	0.3079716
68	0xbc988fa0	-0.018623173
69	0xbd25e518	-0.040501684
70	0x3e3ef1e4	0.18646961
71	0xbed918f9	-0.42401865
72	0x3ea971b6	0.33094567
73	0xbe25a2a8	-0.1617533
74	0xbd5189e0	-0.05115688
75	0xbe6fb1d0	-0.23407674
76	0xbe6934d6	-0.22774062
77	0xbe657113	-0.22406416
78	0xbed809cd	-0.42194977
79	0xbed903c0	-0.42385674
80	0xbe13c79e	-0.14431617
81	0xbdd7f77c	-0.10545251
82	0xbce22ca0	-0.02760917
83	0x3ec26a5e	0.37971777
84	0x3e7edc98	0.24888837
85	0xbec0268c	-0.3752941
86	0xbca14470	-0.019685954
87	0x3e2d8070	0.16943526
88	0xbe9656d3	-0.29363117
89	0x3e81a7a4	0.25323212
90	0xbdadc434	-0.084846884
91	0xbe7e4173	-0.24829654
92	0x3d46aed8	0.048506588
93	0x3e4d7358	0.20063531
94	0xbebbc79a	-0.3667572
95	0x3e8eae70	0.2786746
96	0xbea40154	-0.32032263
97	0xbeaa51a8	-0.33265424
98	0x3e9c8ae2	0.3057471
99	0x3eddde54	0.43333685
100	0x3e0d9948	0.13828003
101	0x3ed55d84	0.4167291
102	0xbec308be	-0.38092607
103	0x3d239230	0.039934337
104	0x3e81a976	0.253246
105	0x3ed7c7f4	0.4214474
106	0xbd5880b0	-0.0528571
107	0xbe75937f	-0.23982047
108	0xbec41436	-0.3829667
109	0x3e9b1ed6	0.30296963
110	0x3ee08e84	0.4385873
111	0xbecbe7d2	-0.39825302
112	0xbeaa625e	-0.33278173
113	0xbe9ac01c	-0.30224693
114	0x3eb724f6	0.35770386
115	0xbd6049f8	-0.054758042
116	0xbe3e6a20	-0.18595171
117	0x3dc9af00	0.09847832
118	0x3ec0a9ae	0.37629455
119	0x3e840010	0.25781298
120	0x3e8354b6	0.25650567
121	0x3de78fc0	0.11306715
122	0x3ea059f2	0.31318623
123	0x3eb595a4	0.3546573
124	0x3e8537f8	0.26019263
125	0x3ea2ea5e	0.31819433
126	0xbe370be8	-0.17875636
127	0xbe1bb474	-0.15205556
128	0xbe32bef4	-0.17455655
129	0x3d3c4ac0	0.045969725
130	0xbd43ef50	-0.047835648
131	0x3e158e18	0.14604986
132	0xbeaf05db	-0.34184155
133	0x3e951cf6	0.29123658
134	0x3ec7835c	0.38967407
135	0xbe9403a4	-0.28909028
136	0xbe16c2b4	-0.14722711
137	0x3ec5c840	0.3862934
138	0x3c27f840	0.0102520585
139	0xbdebe5d4	-0.115184456
140	0x3e5a4364	0.2131477
141	0xbe7785c7	-0.24172126
142	0xbe97950c	-0.296059
143	0xbe7b7f0c	-0.24560183
144	0x3e4b0ce0	0.1982913
145	0xbdea51b4	-0.11441365
146	0x3e00bafc	0.12571329
147	0xbd510c80	-0.05103731
148	0xbd9a3a40	-0.075306416
149	0xbeaaa1e5	-0.3332664
150	0x3ec0ee90	0.3768201
151	0xbe449162	-0.19196084
152	0x3eb7ac80	0.35873795
153	0x3ea9bdf0	0.33152723
154	0xbdfd088c	-0.12355146
155	0x3e5a578c	0.21322459
156	0x3e01d014	0.12677032
157	0x3e463080	0.19354439
158	0xbed41d4c	-0.41428602
159	0xbedb95d0	-0.42887735
160	0x3eb866e8	0.3601601
161	0xbe9eb844	-0.3099996
162	0x3ee12af8	0.43978095
163	0x3de8cf58	0.11367673
164	0x3eaed1bc	0.3414439
165	0x3d790550	0.060796082
166	0xbece4f89	-0.40295056
167	0xbe383efe	-0.1799278
168	0x3ed4ee0a	0.4158786
169	0xbe27ef46	-0.1639987
170	0xbe876a56	-0.26448315
171	0xbd5b1878	-0.053490132
172	0x3daf4808	0.08558661
173	0x3bb11840	0.005404502
174	0xbea7972d	-0.32732525
175	0x3e84b356	0.25918072
176	0x3e88d7ce	0.26727146
177	0x3c65d740	0.01402837
178	0xbe95b94e	-0.2924294
179	0xbe06ab5c	-0.13151306
180	0xbeb3f900	-0.3515091
181	0x3e9dc786	0.30816287
182	0xbed9e64b	-0.42558512
183	0xbe30bae2	-0.1725879
184	0xbeb1d2ad	-0.34731045
185	0xbdbede6c	-0.09319767
186	0xbc766580	-0.015038848
187	0xbea9788c	-0.33099782
188	0x3ebd4004	0.36962903
189	0xbe3001c6	-0.17188177
190	0x3e311e28	0.1729666
191	0x3ed8c6a2	0.42339045
192	0xbe3dc3e8	-0.18531764
193	0x3ebeac76	0.37240952
194	0x3e8f6b08	0.28011346
195	0xbe65726e	-0.22406933
196	0x3ec5f9fe	0.3866729
197	0xbebed412	-0.37271172
198	0x3d1f7318	0.03892812
199	0xbe894b6b	-0.26815352

bias f4 [20]
0	0x00000000	0.0
1	0x00000000	0.0
2	0x00000000	0.0
3	0x00000000	0.0
4	0x00000000	0.0
5	0x00000000	0.0
6	0x00000000	0.0
7	0x00000000	0.0
8	0x00000000	0.0
9	0x00000000	0.0
10	0x00000000	0.0
11	0x00000000	0.0
12	0x00000000	0.0
13	0x00000000	0.0
14	0x00000000	0.0
15	0x00000000	0.0
16	0x00000000	0.0
17	0x00000000	0.0
18	0x00000000	0.0
19	0x00000000	0.0

weight f4 [10, 20]
0	0x3eded4b2	0.4352165
1	0xbc9ab0a0	-0.01888305
2	0xbeb891ab	-0.36048636
3	0x3edd1a94	0.4318434
4	0x3ed328a4	0.41241944
5	0x3e085d2c	0.13316792
6	0xbeb1f704	-0.3475877
7	0x3e822588	0.2541926
8	0x3ec54a94	0.3853346
9	0x3df129c8	0.11775547
10	0x3eda670e	0.4265675
11	0x3e7452f8	0.23859775
12	0xbdc6636c	-0.09686932
13	0x3e133fd4	0.14379817
14	0x3edeff52	0.4355417
15	0x3d9b90e0	0.07595992
16	0xbeb20da7	-0.3477604
17	0xbed80ed7	-0.42198822
18	0x3ee18928	0.44049954
19	0xbede6348	-0.4343512
20	0x3e94f7b2	0.29095227
21	0x3ea2557e	0.3170585
22	0xbe4758d4	-0.19467479
23	0x3e944aa2	0.2896319
24	0x3d0c1de0	0.03420818
25	0xbb93b140	-0.004507214
26	0x3ea2f022	0.31823832
27	0x3cc76180	0.024338484
28	0x3de518c8	0.11186367
29	0xbe9b41d0	-0.30323648
30	0xbc842020	-0.0161286
31	0x3ecb023a	0.39650136
32	0x3df45200	0.11929703
33	0x3ed8bf06	0.4233324
34	0xbe3f089c	-0.18655628
35	0x3ec079f8	0.37593055
36	0x3ecf255a	0.40458184
37	0x3eacdd2e	0.33762497
38	0xbec73c2e	-0.389131
39	0xbe959a12	-0.2921911
40	0xbec6dde8	-0.38841176
41	0x3ed0d7e2	0.40789706
42	0xbd757be8	-0.05993262
43	0x3ec833e8	0.391021
44	0xbe8ac246	-0.27101344
45	0xbebb265b	-0.365527
46	0xbe03c87e	-0.1286945
47	0xbeabd391	-0.3355985
48	0x3edd65ea	0.43241817
49	0x3dfbdda8	0.12298137
50	0xbe8962e0	-0.26833248
51	0x3e43e774	0.19131261
52	0xbceae170	-0.02867195
53	0xbc3256c0	-0.010884941
54	0xbdd88ae4	-0.10573366
55	0x3e25678c	0.16152781
56	0x3e5b9000	0.2144165
57	0xbe5489a0	-0.20755625
58	0x3cde94d0	0.027170569
59	0xbe14fc4e	-0.14549372
60	0x3e9878a2	0.29779536
61	0x3e510e68	0.20415652
62	0xbdc07808	-0.09397894
63	0x3e1e63ac	0.1546771
64	0xbe8cd846	-0.27508754
65	0x3d932d68	0.07186395
66	0xbe7c24c8	-0.24623406
67	0x3ea5d0da	0.32385904
68	0xbdf44d1c	-0.1192877
69	0x3d97d588	0.07413775
70	0xbe534143	-0.20630364
71	0x3e5e5444	0.21711832
72	0xbeaada9d	-0.33369914
73	0x3d7d9e80	0.061918736
74	0xbe8015b8	-0.2501657
75	0x3e264470	0.16237044
76	0x3e0c8e14	0.13726074
77	0x3e9ab13a	0.30213338
78	0xbea56502	-0.32303625
79	0xbeb180a6	-0.34668463
80	0xbd5363f8	-0.05160901
81	0xbd41e320	-0.047335744
82	0xbedcb07e	-0.43103403
83	0xbe694076	-0.22778496
84	0xbe6624ed	-0.22475024
85	0xbe252b20	-0.16129732
86	0x3ed6a918	0.41925883
87	0x3e2f8f58	0.17144525
88	0x3de72bf0	0.11287677
89	0xbe801af4	-0.25020564
90	0xbe431ba4	-0.19053513
91	0x3d990dc0	0.07473326
92	0xbec4a0f2	-0.38404042
93	0xbe2237f2	-0.15841654
94	0xbe8a43a2	-0.27004725
95	0x3eca772a	0.3954404
96	0xbe7ad0bf	-0.24493693
97	0xbed4e459	-0.41580465
98	0xbea6ad42	-0.3255406
99	0xbed8e87a	-0.42364866
100	0x3eac3e46	0.3364126
101	0x3e7bbc20	0.24583483
102	0x3e0f1cc8	0.13975823
103	0x3eb7fc5e	0.35934728
104	0x3ec47fc6	0.38378733
105	0x3eda5ef2	0.42650563
106	0xbe0a621c	-0.13513988
107	0x3e9d20d4	0.30689108
108	0x3e2af464	0.1669479
109	0x3e805178	0.25062156
110	0x3ec92534	0.39286196
111	0x3daa9f18	0.08331126
112	0x3db6ca20	0.08925271
113	0xbed3ae14	-0.4134375
114	0xbd53a150	-0.05166751
115	0x3eb410fc	0.35169208
116	0xbd6c7a68	-0.057733923
117	0xbe082dfa	-0.13298789
118	0xbca8f2d0	-0.020623595
119	0x3ebb224e	0.3654961
120	0xbe934270	-0.28761625
121	0x3e5b612c	0.21423787
122	0x3cc22f20	0.023704112
123	0xbdc778c0	-0.09739828
124	0x3e5094a4	0.20369202
125	0x3e753568	0.23946154
126	0xbe2fa404	-0.17152411
127	0xbc020e60	-0.007937998
128	0xbc687f40	-0.014190495
129	0xbe5c5069	-0.21515049
130	0xbea59730	-0.3234191
131	0xbed4fa9c	-0.4159745
132	0x3edc93d2	0.43081528
133	0xbea134e0	-0.31485653
134	0x3e2163bc	0.15760702
135	0xbe9022e2	-0.28151613
136	0x3e0355c0	0.1282568
137	0xbe5a89f9	-0.21341695
138	0x3e2c822c	0.16846532
139	0xbdd36284	-0.10321525
140	0x3df44a38	0.119282186
141	0x3e417410	0.1889193
142	0xbec9c8ce	-0.39411014
143	0xbb8ac280	-0.004234612
144	0x3e3bcf70	0.1834085
145	0xbea52c28	-0.3226025
146	0xbedbb432	-0.42910916
147	0xbeb6ebf2	-0.35726887
148	0x3c2851e0	0.010273427
149	0xbe5c6339	-0.21522225
150	0xbe55071d	-0.20803495
151	0x3ec7ac6e	0.3899874
152	0xbeae791c	-0.34076774
153	0x3e2307c4	0.15920931
154	0x3e8179d6	0.25288266
155	0x3d1535d8	0.036428303
156	0x3e2ed2a0	0.17072535
157	0x3d1390d0	0.036026776
158	0xbea8bcb8	-0.3295648
159	0xbea814ad	-0.32828274
160	0x3e9798ea	0.29608852
161	0x3ea11cb4	0.3146721
162	0xbeae48cc	-0.34039915
163	0x3e34d440	0.17659092
164	0x3d7ef600	0.062246323
165	0xbdb7c54c	-0.08973178
166	0x3e919d00	0.28440094
167	0x3e9d8a88	0.30769753
168	0x3e16e9f0	0.14737678
169	0x3e1838c4	0.14865404
170	0x3e44cf98	0.19219816
171	0xbe634925	-0.22195871
172	0x3eda42de	0.4262914
173	0x3e328364	0.17432934
174	0xbeac6258	-0.3366878
175	0xbe9e5186	-0.30921572
176	0x3c862a20	0.016377509
177	0x3e9b36be	0.30315202
178	0xbe95fe26	-0.29295462
179	0x3e883742	0.26604658
180	0x3d7b9bf0	0.06142801
181	0x3e44ee00	0.19231415
182	0xbec57603	-0.38566598
183	0xbea6efa4	-0.32604706
184	0xbe2ff8bc	-0.17184728
185	0xbde7c9a4	-0.11317757
186	0xbe96fbc6	-0.29488963
187	0xbeac21bd	-0.3361949
188	0xbe90e9eb	-0.28303465
189	0x3e0a4b68	0.13505328
190	0x3d5ba000	0.053619385
191	0xbd435558	-0.047688812
192	0xbedad7ab	-0.42742667
193	0xbe774d2d	-0.24150534
194	0xbb9cd980	-0.00478667
195	0x3eb3e89a	0.35138398
196	0x3e0f07e4	0.13967854
197	0xbdde78bc	-0.10862872
198	0xbe4758ea	-0.19467512
199	0x3ebf3edc	0.37352645

bias f4 [20]
0	0x00000000	0.0
1	0x00000000	0.0
2	0x00000000	0.0
3	0x00000000	0.0
4	0x00000000	0.0
5	0x00000000	0.0
6	0x00000000	0.0
7	0x00000000	0.0
8	0x00000000	0.0
9	0x00000000	0.0
10	0x00000000	0.0
11	0x00000000	0.0
12	0x00000000	0.0
13	0x00000000	0.0
14	0x00000000	0.0
15	0x00000000	0.0
16	0x00000000	0.0
17	0x00000000	0.0
18	0x00000000	0.0
19	0x00000000	0.0

weight f4 [10, 20]
0	0xbee14329	-0.43996552
1	0xbe1ad694	-0.15120918
2	0xbeacb86a	-0.33734447
3	0xbe62a972	-0.22134951
4	0xbe78f09f	-0.2431054
5	0xbeb22a4a	-0.3479789
6	0xbe3a055c	-0.18166107
7	0xbde73430	-0.11289251
8	0xbeb61a5e	-0.35566992
9	0xbe946d8a	-0.28989822
10	0xbdd2abec	-0.10286698
11	0x3eaedcfe	0.3415298
12	0xbdf8a9ac	-0.12141737
13	0xbe739961	-0.23788978
14	0xbe884092	-0.26611763
15	0xbec189e8	-0.37800527
16	0x3eacbff4	0.337402
17	0x3e2594f0	0.16170096
18	0x3e920c9c	0.28525245
19	0x3ead9fa2	0.33910853
20	0x3ecd0ede	0.40050405
21	0x3e70cf94	0.23516685
22	0x3eadce70	0.33946562
23	0x3e81279e	0.25225538
24	0x3e0f9c58	0.14024484
25	0xbb800f00	-0.003908038
26	0xbe452c06	-0.19255075
27	0xbe95840e	-0.29202312
28	0x3ec10bc8	0.377043
29	0x3ea76f54	0.32702124
30	0x3dbd1e28	0.092342675
31	0xbec956e2	-0.393241
32	0xbea4362b	-0.32072577
33	0x3e2d049c	0.1689629
34	0x3e252a0c	0.16129321
35	0xbe854430	-0.26028585
36	0xbcc61420	-0.024179518
37	0x3e1c45c0	0.15260983
38	0x3c04f080	0.00811398
39	0x3e88eca6	0.26743048
40	0x3e3ea488	0.18617451
41	0x3d323c08	0.04351428
42	0x3e89b3b6	0.2689492
43	0x3eb8081c	0.35943687
44	0x3e2e9d1c	0.1705212
45	0xbdc666b0	-0.09687555
46	0xbdc51984	-0.09624007
47	0xbe88b923	-0.26703748
48	0xbe43eec8	-0.19134057
49	0x3ec649d4	0.387282
50	0x3e9540ec	0.29151094
51	0xbebb4824	-0.36578476
52	0xbe7a7e2b	-0.24462192
53	0xbcdc6bf0	-0.026906937
54	0xbed7ea49	-0.42170933
55	0x3e84d7c6	0.25945872
56	0xbe7bf89f	-0.2460656
57	0x3e977370	0.2958026
58	0x3e6f1370	0.23347259
59	0xbe99f284	-0.30067837
60	0xbeba39ad	-0.36372128
61	0xbdb9c050	-0.09069884
62	0xbc858590	-0.01629904
63	0x3d2d17d0	0.042259037
64	0x3eac8d72	0.33701664
65	0xbe27f67c	-0.1640262
66	0xbe4c13fb	-0.19929497
67	0x3e141be4	0.14463764
68	0x3d1c2b18	0.038127035
69	0x3e8a01bc	0.26954448
70	0x3d22e8f8	0.039772958
71	0x3dfac948	0.122454226
72	0xbd54e860	-0.051979423
73	0xbd8797b8	-0.06620735
74	0xbe90885e	-0.2822904
75	0x3ec667ea	0.38751155
76	0x3e0fd1f4	0.14044935
77	0xbe910b8b	-0.2832912
78	0x3d3157c8	0.043296605
79	0x3ecc244a	0.39871436
80	0xbde3270c	-0.11091432
81	0xbe97c476	-0.29642075
82	0x3cf08860	0.029361904
83	0x3ec7e280	0.39039993
84	0x3e7836ac	0.24239606
85	0x3d7fb100	0.06242466
86	0xbd744d98	-0.05964431
87	0xbe056822	-0.13028005
88	0xbdaf9b78	-0.08574575
89	0x3e2de950	0.16983533
90	0x3aa49300	0.0012556016
91	0xbdc8f9a0	-0.09813237
92	0x3da403c8	0.08008534
93	0x3e16fa90	0.1474402
94	0xbeadd00c	-0.3394779
95	0x3e98ac7c	0.29819095
96	0xbcc94f50	-0.024573952
97	0xbe4171a0	-0.18891001
98	0xbec33ba8	-0.38131452
99	0xbeaeaa3a	-0.34114248
100	0x3de1d878	0.11027616
101	0x3ea6151e	0.32437986
102	0x3e3cc1f0	0.18433356
103	0xbeb0c9f0	-0.34529066
104	0xbe848118	-0.2587974
105	0x3e07e1cc	0.13269728
106	0xbe3ec098	-0.18628156
107	0x3e7cb560	0.24678564
108	0x3eca7746	0.39544123
109	0x3e28557c	0.1643886
110	0x3e034a1c	0.12821239
111	0xbeb28ec5	-0.3487455
112	0x3edf7fb4	0.43652117
113	0x3e42c464	0.1902023
114	0x3e646220	0.22303057
115	0x3e6e4d80	0.23271751
116	0x3e9dfca0	0.308568
117	0xbe387eac	-0.18017071
118	0x3e956296	0.29176778
119	0xbeba4336	-0.36379403
120	0xbeddf7e0	-0.43353176
121	0x3e988264	0.2978698
122	0x3dbd8cc0	0.092553616
123	0xbe657b1c	-0.22410244
124	0xbe804d5c	-0.2505902
125	0x3bd9e000	0.0066490173
126	0x3e85bbb0	0.26119757
127	0xbd77c678	-0.06049201
128	0xbd06d908	-0.03292182
129	0x3e8e1fcc	0.27758634
130	0xbebf61d9	-0.3737934
131	0x3e0897cc	0.13339156
132	0x3ec583c2	0.38577086
133	0xbe431ce6	-0.19053993
134	0x3e599308	0.21247494
135	0xbe42340c	-0.18965167
136	0xbd062718	-0.032752126
137	0x3cf26880	0.029590845
138	0xbea64f70	-0.3248248
139	0xbd230bb0	-0.039806068
140	0xbe9e628d	-0.30934563
141	0xbe8952aa	-0.2682088
142	0x3ecb517c	0.39710605
143	0x3ebd7f6a	0.37011272
144	0xbd078d88	-0.03309396
145	0xbed31a1d	-0.4123086
146	0x3e4393e4	0.19099385
147	0xbe9c289e	-0.30499738
148	0xbbc94ec0	-0.006143421
149	0x3e17dedc	0.14831108
150	0x3eb6ce84	0.35704434
151	0xbdb38c00	-0.08766937
152	0x3ed83d82	0.42234427
153	0x3eb9a4e0	0.36258602
154	0x3ec893a8	0.39175153
155	0xbe594ef0	-0.21221519
156	0xbe02dbca	-0.12779155
157	0xbdcd9e94	-0.10040012
158	0x3e75b074	0.23993093
159	0xbdfdddec	-0.12395844
160	0xbd14a200	-0.036287308
161	0xbe4f5707	-0.20248042
162	0xbd551988	-0.0520263
163	0xbe7b8f87	-0.2456647
164	0x3dbca388	0.092108786
165	0xbe98f610	-0.2987523
166	0xbd4204f0	-0.04736799
167	0xbec8d597	-0.39225456
168	0x3e8607fc	0.26177967
169	0x3e317d08	0.17332852
170	0x3d2097a0	0.0392071
171	0xbe9fd1e0	-0.3121481
172	0xbc489a40	-0.012243807
173	0x3ec2abf6	0.3802182
174	0xbed42349	-0.4143317
175	0xbe83dbb8	-0.2575357
176	0xbe714891	-0.23562838
177	0x3d7f4630	0.062322795
178	0x3db4d440	0.08829546
179	0x3e196474	0.14979726
180	0xbe8bd4e2	-0.27310854
181	0x3c8758e0	0.016521871
182	0xbe211ec6	-0.15734395
183	0xbe8be91b	-0.27326283
184	0xbe7f228a	-0.2491552
185	0x3eb22414	0.3479315
186	0xbe18f038	-0.14935386
187	0xbe85a11f	-0.26099488
188	0xbeceb9c5	-0.40376106
189	0xbcdbd3b0	-0.026834339
190	0x3dbbff28	0.091795266
191	0x3e8f81f4	0.28028834
192	0x3b8129c0	0.0039417446
193	0x3e31db30	0.1736877
194	0xbdcc5b14	-0.09978309
195	0x3ebaaaf8	0.36458564
196	0xbcb6c070	-0.022308558
197	0x3e8cc788	0.2749598
198	0xbe518ea3	-0.20464568
199	0x3edff82a	0.43744022

bias f4 [20]
0	0x00000000	0.0
1	0x00000000	0.0
2	0x00000000	0.0
3	0x00000000	0.0
4	0x00000000	0.0
5	0x00000000	0.0
6	0x00000000	0.0
7	0x00000000	0.0
8	0x00000000	0.0
9	0x00000000	0.0
10	0x00000000	0.0
11	0x00000000	0.0
12	0x00000000	0.0
13	0x00000000	0.0
14	0x00000000	0.0
15	0x00000000	0.0
16	0x00000000	0.0
17	0x00000000	0.0
18	0x00000000	0.0
19	0x00000000	0.0

weight f4 [10, 20]
0	0xbeb2b8da	-0.34906656
1	0x3ee305fc	0.44340503
2	0xbe5d8c7b	-0.2163562
3	0x3e7c818c	0.24658793
4	0xbead5639	-0.33854845
5	0x3edbd34a	0.42934638
6	0xbe89bc96	-0.26901692
7	0xbee4cb70	-0.4468646
8	0x3dece840	0.11567736
9	0xbe19c6de	-0.15017268
10	0xbc8bd890	-0.017071038
11	0xbe767cdc	-0.24071068
12	0xbed57e51	-0.41697934
13	0x3ed0727a	0.4071234
14	0x3d807fa0	0.062743425
15	0xbd461cf8	-0.04836747
16	0x3d03dee0	0.032194972
17	0xbe539869	-0.20663609
18	0x3ed7c4e6	0.4214241
19	0x3e048828	0.12942564
20	0xbe0f9c9a	-0.14024583
21	0x3d9b5fc0	0.07586622
22	0x3e9216a6	0.28532904
23	0xbe676d5c	-0.22600311
24	0x3defb888	0.117051184
25	0xbe035f6a	-0.12829366
26	0xbdfdc6a8	-0.12391406
27	0x3db56360	0.08856845
28	0x3e67332c	0.22578114
29	0x3ed2e312	0.41188866
30	0xbede0394	-0.43362105
31	0xbd46ddb0	-0.04855126
32	0xbe351772	-0.17684725
33	0x3ddd2658	0.10798329
34	0xbebe0b3c	-0.37117946
35	0xbec82ccb	-0.39096674
36	0x3e99d744	0.30047047
37	0x3ea9d9e4	0.3317405
38	0x3dca4620	0.098766565
39	0xbe60d174	-0.219549
40	0x3ed00d08	0.40634942
41	0xbe9d2916	-0.3069541
42	0x3ed6c6de	0.419486
43	0x3e7ee55c	0.24892181
44	0xbec38e5b	-0.38194546
45	0xbe76760e	-0.24068472
46	0x3ca48f70	0.020087928
47	0x3e41d750	0.18929791
48	0xbe32f876	-0.17477593
49	0x3daa4650	0.08314192
50	0xbe9bf013	-0.304566
51	0x3ec9579a	0.39324647
52	0x3ca67410	0.020319015
53	0xbe9a29d6	-0.30110043
54	0xbe9765b0	-0.2956977
55	0x3ecba30c	0.39772832
56	0x3e539304	0.20661551
57	0x3eded2b4	0.4352013
58	0xbd171168	-0.036881834
59	0x3ee4f6b4	0.4471947
60	0x3ddff0a8	0.109345734
61	0xbeb4b521	-0.3529444
62	0x3ed61360	0.41811657
63	0x3e79c454	0.243913
64	0xbc127180	-0.008938193
65	0xbdd6d97c	-0.104907006
66	0xbdf90cf4	-0.12160674
67	0x3e471d30	0.19444728
68	0xbd8bd43c	-0.0682759
69	0x3db48f30	0.08816373
70	0xbe9cf4ed	-0.30655614
71	0xbdb92518	-0.09040278
72	0xbe92effe	-0.28698725
73	0xbd8366fc	-0.06416127
74	0xbe89486f	-0.26813075
75	0xbe865540	-0.26236916
76	0x3e4b2520	0.19838381
77	0xbe0be2e8	-0.13660777
78	0xbe6a0413	-0.22853117
79	0x3e17a900	0.14810562
80	0x3e8318f0	0.25604963
81	0xbd1e3600	-0.038625717
82	0xbebb445c	-0.36575592
83	0xbd638408	-0.055545837
84	0xbd8e44a0	-0.06946683
85	0xbe0643fc	-0.13111871
86	0xbd5bb618	-0.053640455
87	0xbe236e42	-0.15960029
88	0xbc070360	-0.008240551
89	0xbe72cd3d	-0.23711105
90	0xbe6f71fd	-0.23383327
91	0xbe98a38c	-0.29812276
92	0x3bb47940	0.005507618
93	0x3eb29bbc	0.3488444
94	0xbded8be8	-0.115989506
95	0x3da6b868	0.081406415
96	0xbd33f910	-0.043938696
97	0x3e4325f4	0.19057447
98	0x3e182cfc	0.1486091
99	0x3e2b5688	0.16732228
100	0xbe9b7d1b	-0.30368885
101	0xbc6e59e0	-0.014547795
102	0x3e707d24	0.23485237
103	0x3eb792c6	0.35854167
104	0x3ebf2226	0.3733074
105	0x3eb53164	0.35389245
106	0x3d0d05f0	0.03442949
107	0x3e8fc46e	0.2807955
108	0xbe2f62aa	-0.17127481
109	0xbd1c6f30	-0.038191974
110	0xbe6496e4	-0.22323185
111	0x3ed784a0	0.42093372
112	0x3d605f70	0.054778516
113	0xbe639c89	-0.22227682
114	0xbe1c20c4	-0.15246874
115	0xbe7e7933	-0.24850921
116	0x3e1a5620	0.15071917
117	0x3db29c78	0.0872125
118	0x3dee8080	0.11645603
119	0xbea51522	-0.32242686
120	0xbd94cb94	-0.07265392
121	0xbeafb40f	-0.3431706
122	0x3de73578	0.11289495
123	0x3ea25728	0.3170712
124	0x3eae3da4	0.34031403
125	0xbe8f505c	-0.27990997
126	0x3c1177c0	0.008878648
127	0x3e8d7e54	0.27635443
128	0xbea4c0b3	-0.32178268
129	0x3ddc8d00	0.10769081
130	0x3ed3d0de	0.4137029
131	0xbd3a8b40	-0.045542955
132	0xbe005da6	-0.12535724
133	0xbd965f14	-0.073423535
134	0xbc5aa6a0	-0.013345391
135	0xbeb3b9ec	-0.35102785
136	0x3e8a8c7e	0.27060312
137	0xbeae0dec	-0.33994997
138	0x3aa4a100	0.0012560189
139	0x3ee0e040	0.4392109
140	0xbe5c3e17	-0.2150806
141	0x3dd849b0	0.1056093
142	0x3dd13ce0	0.10216689
143	0xbd8c95c4	-0.06864503
144	0x3d834fb0	0.064116836
145	0x3e0cc584	0.13747221
146	0x3d22e1f8	0.03976628
147	0x3ece2782	0.40264517
148	0x3d095ce8	0.033535868
149	0x3e46e17c	0.19421953
150	0x3ebec802	0.3726197
151	0x3ea3bb20	0.31978703
152	0xbe87c9cb	-0.26521143
153	0x3dfcb9c0	0.123401165
154	0x3e2c1900	0.16806412
155	0xbe6b0d7f	-0.22954367
156	0x3e26c7f0	0.16287208
157	0xbe1c8a5c	-0.15287155
158	0xbe87fcee	-0.26560158
159	0x3ed8f012	0.4237066
160	0x3e49d3d0	0.19709706
161	0xbe94fc36	-0.29098672
162	0x3e0d5668	0.13802493
163	0x3eac1190	0.3360715
164	0xbed73f77	-0.42040607
165	0xbecd9ae1	-0.40157226
166	0x3e504a1c	0.2034077
167	0x3e55a8e4	0.20865208
168	0xbeb1e08a	-0.34741622
169	0xbc4bc9c0	-0.012438238
170	0x3e8e00b0	0.277349
171	0x3e1c1a40	0.15244389
172	0xbeb3ef9c	-0.35143745
173	0x3ead172c	0.3380674
174	0xbee3df51	-0.44506314
175	0x3ecaee24	0.39634812
176	0x3d3e6618	0.046484083
177	0x3de3eb68	0.111288846
178	0x3e911a4a	0.2834037
179	0x3ede7d62	0.43455034
180	0xbedba587	-0.42899725
181	0x3e799fcc	0.24377364
182	0xbed81663	-0.4220458
183	0x3e743e7c	0.23851961
184	0x3e06f634	0.13179857
185	0x3d9ddce8	0.0770815
186	0xbd07c768	-0.033149153
187	0x3e123524	0.14278084
188	0x3eacc68e	0.33745235
189	0x3b8fc200	0.0043871403
190	0x3ed8251c	0.42215812
191	0xbe9b2b70	-0.30306578
192	0xbe4f2e7c	-0.20232576
193	0x3df54eb0	0.11977899
194	0x3ebc12a2	0.36732966
195	0x3dfc8100	0.12329292
196	0xbe99e0bf	-0.3005428
197	0xbea5b0a6	-0.32361335
198	0xbb94c340	-0.004539877
199	0xbe1549f4	-0.14578992

bias f4 [20]
0	0x00000000	0.0
1	0x00000000	0.0
2	0x00000000	0.0
3	0x00000000	0.0
4	0x00000000	0.0
5	0x00000000	0.0
6	0x00000000	0.0
7	0x00000000	0.0
8	0x00000000	0.0
9	0x00000000	0.0
10	0x00000000	0.0
11	0x00000000	0.0
12	0x00000000	0.0
13	0x00000000	0.0
14	0x00000000	0.0
15	0x00000000	0.0
16	0x00000000	0.0
17	0x00000000	0.0
18	0x00000000	0.0
19	0x00000000	0.0
