models/Reddit_Trained_Model.pt (torch, 53919 bytes, 4 tensors)

weight f4 [602, 20]
0	0x3cc908be	0.024540301
1	0xbd84905e	-0.06472848
2	0xbc823022	-0.015892092
3	0x3d69620c	0.05697827
4	0xbd845bc2	-0.06462814
5	0xbe01f24c	-0.12690085
6	0xbb03b84d	-0.0020098865
7	0xbdac3859	-0.08409185
8	0x3d97103f	0.073761456
9	0xbd9c3391	-0.07627023
10	0x3d94590c	0.07243547
11	0x3d74a176	0.059724294
12	0xbd183aae	-0.037165336
13	0xbda9941e	-0.08280204
14	0x3d04ebfb	0.03245161
15	0xbb52d2b7	-0.0032169053
16	0x3d5ecbe9	0.054393683
17	0xbdd1c474	-0.102425486
18	0xbddfee91	-0.10934175
19	0xbd3ec1b1	-0.046571437
20	0x3d92f54b	0.07175692
21	0xbdbc3506	-0.09189801
22	0xbd1b2a57	-0.037882175
23	0x3cda64fc	0.026659481
24	0xbd1c2075	-0.03811689
25	0x3cd9a7d1	0.026569279
26	0x3d6635ab	0.056203526
27	0x3d12c1c6	0.035829328
28	0xbdd1dcc6	-0.10247187
29	0x3d6d5799	0.057944868
30	0xbd47536a	-0.048663534
31	0xbdd3a221	-0.10333658
32	0x3d063088	0.032761127
33	0x3d65f36e	0.056140356
34	0xbc32b9e5	-0.0109085785
35	0xbcfd8f33	-0.030952072
36	0xbca09825	-0.019603798
37	0xbddb767d	-0.10715959
38	0xbd9b3bf6	-0.07579796
39	0x3d0b2ee9	0.033980284
40	0xbd72b5f0	-0.05925554
41	0x3c904f11	0.017615827
42	0xbd833311	-0.064062245
43	0xbd9fddf4	-0.07806006
44	0x3db3e8d2	0.08784641
45	0x3d2c34af	0.04204243
46	0x3d7c2f31	0.061568443
47	0xbc239616	-0.009984514
48	0x3d94e65d	0.07270501
49	0x3cd555c2	0.02604187
50	0xbd0aad24	-0.033856526
51	0x3c7cbf8f	0.0154265305
52	0xbda4bc99	-0.08043785
53	0x3d0782f2	0.033083864
54	0xba38bf32	-0.0007047533
55	0xbd968cb8	-0.07351059
56	0xbd574f49	-0.052565847
57	0x3d81da8c	0.06340513
58	0xbdbb98ec	-0.09160027
59	0xbccb4aae	-0.024815883
60	0xbd6edbb0	-0.05831498
61	0xbd115258	-0.03547892
62	0x3d73aaf0	0.05948919
63	0xba512b5e	-0.00079791795
64	0xbd6b3f41	-0.05743337
65	0xbd3ac143	-0.045594465
66	0xbd5b7954	-0.053582504
67	0x3addb05c	0.0016913521
68	0x3ca9b421	0.020715775
69	0xbc65d391	-0.014027492
70	0xbd775250	-0.060381234
71	0xbb910bf3	-0.0044264733
72	0x3db4b09d	0.08822749
73	0xbc0242ff	-0.007950543
74	0xbd2f6979	-0.042825196
75	0xbd8a6976	-0.06758396
76	0xbd94da29	-0.07268173
77	0xbd2f29b1	-0.04276437
78	0xbdd0b304	-0.101903945
79	0xbd8b602c	-0.06805453
80	0xbc6a1e29	-0.014289417
81	0x3d03c3fe	0.032169335
82	0xbd3b5be0	-0.045741916
83	0xbd7750fe	-0.060379975
84	0xbc99fb23	-0.01879651
85	0xbd942c02	-0.07234956
86	0x3db57f77	0.088622026
87	0xbc9bca8f	-0.019017486
88	0xbdcf18a7	-0.10112124
89	0xbd4bf8e9	-0.049797926
90	0x3d97195a	0.07377882
91	0x3d8f275e	0.069899306
92	0x3ce37541	0.027765872
93	0x3db428bb	0.08796831
94	0x3d0c85e0	0.03430736
95	0xbd824a27	-0.063618
96	0x3ba2acc5	0.0049644434
97	0x3d24a494	0.040196016
98	0xbd18e112	-0.03732402
99	0xbcd26fe7	-0.025688125
100	0xbd92f949	-0.071764536
101	0xbd93640c	-0.07196817
102	0x3db20140	0.08691645
103	0xbc14c6fb	-0.009080644
104	0x3cbaa956	0.022785824
105	0xbdadde54	-0.08489671
106	0xbd6ca044	-0.05777003
107	0x3cc9e97d	0.024647469
108	0xbbebbf65	-0.007194447
109	0x3d418af4	0.047251657
110	0xbd471853	-0.04860718
111	0x3dc6a6dd	0.096997954
112	0x3c626cff	0.013819932
113	0xbd983daa	-0.074336365
114	0x3b348f8a	0.0027551376
115	0x3cbaf96a	0.022824008
116	0xbdabcb59	-0.08388395
117	0x3d69c04f	0.057068165
118	0xbde17700	-0.110090256
119	0x3bfc17d5	0.0076932707
120	0xbd95d588	-0.073161185
121	0xbc16661b	-0.009179617
122	0x3c80613d	0.015671367
123	0x3cdfb5ba	0.027308334
124	0xbd6c82c4	-0.057741895
125	0x3d8b0bbe	0.06789349
126	0xbd79b82e	-0.060966663
127	0x3c97772f	0.018489448
128	0xbcb38777	-0.02191518
129	0xbda4b9bf	-0.08043241
130	0xbcdc8b5d	-0.026921922
131	0x3da54d87	0.08071428
132	0x3d5f6a45	0.054544706
133	0xbd110f0f	-0.03541475
134	0x3d83ba37	0.06432002
135	0xbd78b1cb	-0.06071643
136	0xbc21224f	-0.00983484
137	0x3db52c9a	0.08846398
138	0x3dc4e3e3	0.096137784
139	0xbd06f1cb	-0.032945435
140	0x3dbe4a72	0.09291543
141	0x3d952986	0.072833106
142	0xbd5d290a	-0.053994216
143	0x3cd0ddb3	0.02549634
144	0xbce912c9	-0.02845134
145	0x3ca839cc	0.020535372
146	0xbaa3e504	-0.0012504165
147	0x3d0f4453	0.03497727
148	0x3ccc57dd	0.02494424
149	0x3d82dad8	0.063893974
150	0x3c58e642	0.0132384915
151	0xbad8b633	-0.0016533792
152	0x3c849fa5	0.016189406
153	0x3d783b6c	0.060603544
154	0x3c0fa74c	0.008767914
155	0x3dcd786c	0.10032734
156	0xbb9fda21	-0.004878298
157	0xbc3285cb	-0.010896157
158	0xbc7486f5	-0.014924754
159	0x3daa4929	0.083147354
160	0x3d925cb2	0.071465865
161	0xbda917a0	-0.08256459
162	0x3c9cdaf3	0.019147372
163	0x3d4e7da6	0.050412796
164	0x3ca3868b	0.019961616
165	0xbd68163f	-0.05666184
166	0x3c31a265	0.0108419405
167	0x3c89e798	0.016834065
168	0xbd222030	-0.039581478
169	0x3b4031d5	0.0029326577
170	0x3dccbede	0.099973425
171	0x3d1785d3	0.03699286
172	0x3db78343	0.08960583
173	0xbc0aaa46	-0.008463448
174	0xbd532e66	-0.05155792
175	0x3d092dab	0.033490818
176	0xbd74c932	-0.059762187
177	0x3cc590bc	0.024116866
178	0x3db7e415	0.0897905
179	0x3d7f6ed7	0.062361564
180	0xbdb00d27	-0.085962586
181	0x3d8a7cf7	0.067621164
182	0x3dc66507	0.09687238
183	0xbd3f3c93	-0.046688627
184	0x3d0823fa	0.033237435
185	0x3d7d200b	0.061798137
186	0xbced78f8	-0.028988346
187	0x3df0c674	0.11756602
188	0xbdb1f86e	-0.08689962
189	0xbd8e1038	-0.06936687
190	0x3cdac61a	0.02670579
191	0xbdb157ae	-0.08659302
192	0x3b524ac1	0.0032088014
193	0x3d1daa98	0.03849277
194	0x3d9c221c	0.07623693
195	0xbd520cef	-0.051281866
196	0xbd0b90e9	-0.034073744
197	0x39a017d8	0.00030535343
198	0x3d767998	0.060174555
199	0xbd8f8f39	-0.070097394
200	0xbd29a404	-0.041416183
201	0x3d60e778	0.054908246
202	0x3d60b2eb	0.05485813
203	0xbc843059	-0.016136335
204	0xbb4286f7	-0.0029682496
205	0xbdc14210	-0.094364285
206	0xbd3783fa	-0.044803597
207	0x3cb3dabc	0.021954887
208	0x3d816a82	0.06319143
209	0x3d663bf2	0.056209512
210	0x3c93d369	0.018045144
211	0x3d4e2a7a	0.050333478
212	0xbdcc2c33	-0.09969368
213	0xbd5bcdfc	-0.05366324
214	0xbd31823b	-0.043337088
215	0xbd95a683	-0.0730715
216	0x3c90eb30	0.017690271
217	0x3d42a5cd	0.0475214
218	0x3d2d1e78	0.042265385
219	0xbd2c67e7	-0.042091276
220	0xbd7266b6	-0.059179984
221	0xba3b6d1c	-0.00071497425
222	0xbcb214b5	-0.02173839
223	0xbcf8f0bc	-0.030388229
224	0x3d19e823	0.0375749
225	0xbd5152d8	-0.051104397
226	0x3dc39b31	0.09551085
227	0xbd50b4c5	-0.050953645
228	0x3c8da0a9	0.017288523
229	0x3c8b1bd3	0.016981041
230	0x3dafd080	0.0858469
231	0xbd5c44ac	-0.053776428
232	0x3db29698	0.0872013
233	0xbce00ad3	-0.027348911
234	0x3ce3bd67	0.027800275
235	0xbd8ce384	-0.06879333
236	0x3da7e4bd	0.08197925
237	0x3d87fcf4	0.06640044
238	0x3d935758	0.07194394
239	0x3d7a3b52	0.06109173
240	0xbdd535a8	-0.10410625
241	0xbd8a106f	-0.06741416
242	0x3c8a7241	0.016900184
243	0xbd3f64ce	-0.046726994
244	0xbb767824	-0.003760823
245	0xbcd7a5ce	-0.026324179
246	0xbc0e7f00	-0.008697271
247	0x3c048756	0.008088907
248	0xbd9d3d5e	-0.076777205
249	0xbc15fb76	-0.009154191
250	0x3d017e6d	0.03161471
251	0xbd0244cd	-0.031803895
252	0xbd648a70	-0.055796087
253	0xbd870c84	-0.06594184
254	0xbcf7f1b5	-0.030266622
255	0xbcd8c99c	-0.026463322

bias f4 [20]
0	0xbc817c88	-0.015806451
1	0xbc74b541	-0.014935792
2	0xbc3c274e	-0.01148398
3	0xbce53b36	-0.027982336
4	0xbc6b4de0	-0.014361829
5	0xbca1defe	-0.019759651
6	0x3acbcb4f	0.0015548262
7	0xbbb3a98a	-0.005482857
8	0x3a68b140	0.000887651
9	0xbca50eac	-0.020148598
10	0xbb6a75e0	-0.0035775825
11	0xbc91eed0	-0.01781407
12	0xbca021b8	-0.019547328
13	0xbc659bcd	-0.014014197
14	0x3b3d4c5f	0.0028884632
15	0xbcaa0742	-0.020755414
16	0xbc5d6d0e	-0.01351477
17	0xbc54c8ef	-0.012987359
18	0xbc6332cd	-0.013867092
19	0xbc86d29a	-0.016457845

weight f4 [20, 41]
0	0xbe8d951d	-0.27652827
1	0x3e5dab29	0.21647324
2	0x3dc6b5f4	0.097026736
3	0xbe3bca25	-0.18338831
4	0xbe6b8bb5	-0.23002513
5	0xbe2bef1f	-0.16790436
6	0xbe4d13e7	-0.20027123
7	0xbe324486	-0.17408952
8	0x3d6df91c	0.058098897
9	0xbe9ee8a3	-0.31036863
10	0x3d3f4d6a	0.046704687
11	0xbe176d40	-0.1478777
12	0xbb21700f	-0.0024633443
13	0x3d00cd52	0.03144581
14	0xbe5b47d9	-0.21414126
15	0xbe570f43	-0.21001916
16	0x3df551b2	0.11978473
17	0x3dd5d8ef	0.104417674
18	0xbe8f9c7c	-0.28049076
19	0x3ea292a7	0.31752512
20	0xbea0fed7	-0.31444427
21	0x3e8f4167	0.27979586
22	0xbde268e6	-0.11055164
23	0xbe2a6274	-0.1663912
24	0x3d691814	0.05690773
25	0x3daed906	0.08537488
26	0x3e88fa1c	0.26753318
27	0xbe0fb1c7	-0.1403266
28	0xbccbc3d0	-0.024873644
29	0xbe6b644a	-0.22987476
30	0x3e65586a	0.22397009
31	0x3e3ac979	0.18240918
32	0x3ea69e54	0.3254267
33	0xbd63b304	-0.055590644
34	0xbe73a30a	-0.23792663
35	0xbd9d5e25	-0.07683972
36	0x3e412686	0.18862352
37	0x3e93c9f1	0.28865007
38	0x3e0decec	0.1385991
39	0x3e29a792	0.16567829
40	0xbac2022d	-0.0014801674
41	0x3e930c38	0.2872026
42	0xbe58d403	-0.21174626
43	0xbe4bc5ca	-0.1989967
44	0xbe7a674d	-0.24453469
45	0x3e135c92	0.14390782
46	0x3de00117	0.10937708
47	0x3dc2bb73	0.09508409
48	0x3dc8bfdd	0.0980222
49	0xbe6f7a09	-0.23386396
50	0xbd0f77c6	-0.035026334
51	0x3db0634a	0.08612688
52	0xbe29ab3b	-0.16569225
53	0xbdf75fdd	-0.12078831
54	0x3e9cef49	0.3065131
55	0x3e283836	0.16427693
56	0x3d72c1a7	0.059266713
57	0x3d5d07c5	0.053962488
58	0x3e2763ef	0.16346715
59	0xbe8cd629	-0.2750714
60	0x3e20e4d4	0.15712291
61	0xbe4f733f	-0.20258807
62	0x3d25e1ae	0.040498428
63	0x3dbfbd63	0.093622945
64	0xbe218f6d	-0.15777369
65	0xbea2035e	-0.31643194
66	0xbebf99b4	-0.37421954
67	0x3e84bc27	0.259248
68	0xbe32b1dc	-0.1745066
69	0xbe7b7552	-0.24556473
70	0xbe30e6d0	-0.17275548
71	0xbc019e88	-0.007911332
72	0xbd510033	-0.05102558
73	0xbd48e426	-0.049045704
74	0x3e8c9357	0.2745616
75	0x3e5c0255	0.21485265
76	0x3e431b6d	0.19053431
77	0x3e2b43c3	0.16725068
78	0x3d0fe309	0.035128627
79	0xbe6d1625	-0.23152979
80	0xbdbf415f	-0.093386404
81	0xbe4d0dc3	-0.20024781
82	0x3e1f7ad5	0.155742
83	0xbeabf18e	-0.3358273
84	0x3e92b16d	0.2865099
85	0xbe45cc71	-0.1931627
86	0xbdb7cb74	-0.089743525
87	0xbcae2822	-0.021259371
88	0x3e49cd0f	0.1970713
89	0x3e229665	0.15877683
90	0xbe63b5d2	-0.22237328
91	0xbe5ed759	-0.21761836
92	0x3d21f271	0.03953785
93	0xbddc2176	-0.1074857
94	0xbde4270b	-0.11140259
95	0x3e87c04b	0.26513895
96	0x3e4401c2	0.19141296
97	0xbb869b7b	-0.00410789
98	0xbd8da95a	-0.06917067
99	0x3e0d2859	0.13784923
100	0xbdc3f939	-0.0956902
101	0x3d9f471d	0.07777236
102	0xbe3bab89	-0.18327154
103	0xbdfe5b41	-0.12419749
104	0x3db3d0bc	0.08780047
105	0xbd80ba92	-0.062855855
106	0x3e2ca989	0.16861548
107	0x3e827dc8	0.25486588
108	0x3e4af659	0.19820537
109	0x3c7130cc	0.014721107
110	0x3e55d6f5	0.20882781
111	0x3ec2ad86	0.38023013
112	0x3dd59235	0.104282774
113	0xbd6f24d1	-0.05838472
114	0xbe0403bc	-0.1289205
115	0x3dd23586	0.10264115
116	0xbbc67eb7	-0.006057586
117	0x3e6db043	0.2321177
118	0x3e4829bb	0.19547169
119	0x3e3259f5	0.17417128
120	0xbd9ce33b	-0.07660528
121	0xbe94a14c	-0.2902931
122	0x3d8d65a6	0.069041535
123	0x3e938148	0.2880957
124	0x3e2240cc	0.1584503
125	0x3e80f56c	0.25187242
126	0xbe2df86a	-0.16989294
127	0x3e65c51a	0.2243847
128	0xbc9785be	-0.01849639
129	0xbde10b1a	-0.109884456
130	0x3e2728f2	0.16324213
131	0xbe0c62c7	-0.13709556
132	0xbbff54ff	-0.0077921147
133	0xbe7affa1	-0.24511577
134	0x3e06b444	0.13154703
135	0x3db9dc07	0.0907517
136	0xbe73b6e1	-0.23800232
137	0xbcae0172	-0.021240924
138	0x3d85b057	0.06527775
139	0xbde95dbc	-0.113948315
140	0x3da4dd46	0.08050017
141	0x3e8ed267	0.278949
142	0x3e07d54c	0.1326496
143	0x3e84b062	0.2591582
144	0x3e71c22a	0.23609224
145	0xbe1008d5	-0.14065869
146	0x3e756edd	0.23968072
147	0x3cb8739a	0.02251606
148	0x3e4c6982	0.19962123
149	0x3e44bb3d	0.1921205
150	0xbc870d30	-0.01648578
151	0x3e3c4207	0.18384562
152	0xbdbd5060	-0.09243846
153	0xbcf3f8d8	-0.029781744
154	0x3e14a672	0.14516619
155	0xbe10f3f4	-0.1415556
156	0x3e05fb0b	0.13084047
157	0xbd824c9c	-0.06362268
158	0xbe724575	-0.23659308
159	0x3d805020	0.06265283
160	0x3e1bbfbb	0.15209858
161	0xbe09f627	-0.13472806
162	0x3e6cbd30	0.23119044
163	0x3e6bd183	0.23029141
164	0xbe3d5910	-0.18491006
165	0xbe94df08	-0.2907641
166	0x3e5119bb	0.20419972
167	0xbe5aafce	-0.21356127
168	0x3e884307	0.26613638
169	0x39e2268e	0.00043134805
170	0xbe0eec37	-0.13957296
171	0xbe1269e7	-0.14298211
172	0xbea54a5c	-0.32283294
173	0x3ded1eb4	0.11578122
174	0x3db2cc68	0.08730394
175	0xbc8e4133	-0.017365074
176	0x3dc481e8	0.0959509
177	0x3e7d978e	0.24764845
178	0xbe0aad64	-0.13542706
179	0xbe4fa7fb	-0.20278923
180	0x3e108836	0.1411446
181	0xbdb5fae8	-0.08885747
182	0xbe260c75	-0.1621569
183	0xbe084e92	-0.13311222
184	0x3db36bb9	0.08760781
185	0x3e212a16	0.15738711
186	0xbd11c3cd	-0.03558712
187	0x3e95ee1f	0.29283234
188	0xbdbad083	-0.09121802
189	0xbd41795c	-0.047234878
190	0xbd9b8b5a	-0.075949386
191	0x3e5a26f9	0.2130393
192	0x3e999069	0.2999299
193	0xbe269bad	-0.16270323
194	0x3e4273e4	0.18989521
195	0xbe3097d2	-0.17245415
196	0x3e81d5e4	0.25358498
197	0x3d46a1ed	0.04849427
198	0xbde38859	-0.111099906
199	0xbd16edd4	-0.036847904
200	0xbc79159d	-0.015202907
201	0x3e79229b	0.24329607
202	0xbe77a7ed	-0.24185152
203	0xbdc71503	-0.097208045
204	0xbe8200bd	-0.25391188
205	0x3e5115d8	0.20418489
206	0x3e4909bc	0.1963262
207	0xbe850361	-0.2597914
208	0x3d97851c	0.073984355
209	0x3d9b4ed4	0.07583395
210	0x3d3f85b0	0.046758354
211	0x3d89c1da	0.067264274
212	0xbe4a30f4	-0.19745237
213	0x3e480bed	0.195358
214	0x3ce6033e	0.028077718
215	0x3db3efe9	0.087859936
216	0xbcb6a39e	-0.022294816
217	0xbe551845	-0.2081004
218	0x3ea83c85	0.32858673
219	0xbe8337be	-0.25628465
220	0x3caa73d3	0.020807182
221	0x3e903ab6	0.28169793
222	0x3e84efe0	0.2596426
223	0xbd55d55a	-0.05220542
224	0x3e3f8a20	0.18705034
225	0x3de548a4	0.11195496
226	0x3e7200e2	0.2363315
227	0x3f15b089	0.58472496
228	0x3e4b634f	0.19862102
229	0x3e1e8daf	0.15483736
230	0x3dcc44fe	0.09974097
231	0xbe1cef7c	-0.15325731
232	0x3ec4285f	0.3831205
233	0x3d219de4	0.039457217
234	0x3e34d683	0.17659955
235	0x3eac24d8	0.3362186
236	0xbe84d2cb	-0.25942072
237	0x3c1bff55	0.009521325
238	0xbdb90083	-0.09033301
239	0x3e0cb255	0.13739903
240	0xbe55dbd4	-0.20884639
241	0xbe1f304c	-0.15545768
242	0xbe35d553	-0.17757158
243	0x3e64a999	0.22330321
244	0x3d302df8	0.04301259
245	0xbe3ffc34	-0.18748552
246	0x3d48e3a5	0.049045224
247	0x3c04a071	0.008094893
248	0x3e76d89a	0.24106064
249	0x3e5ab497	0.21357952
250	0x3de25afc	0.1105251
251	0xbe30d796	-0.1726974
252	0x3e4e90fe	0.20172498
253	0x3e0ec2e1	0.13941528
254	0x3d7cd6de	0.06172835
255	0xbda22d12	-0.07918753

bias f4 [41]
0	0xbcbea427	-0.023271633
1	0x3bfa443e	0.0076375296
2	0x3ad03143	0.0015883822
3	0xbc29b9e8	-0.010359265
4	0x3c2ba714	0.010476846
5	0x3c1b5ae9	0.009482124
6	0x3b57fed5	0.0032958288
7	0x3d07929b	0.0330988
8	0xbce77aaa	-0.028256733
9	0x3d8be2d2	0.06830372
10	0xbd26265e	-0.040563934
11	0xbcc70827	-0.02429588
12	0xbc299950	-0.010351494
13	0x3cc5c6cd	0.024142647
14	0x3cfefa48	0.031125203
15	0x3d4358ec	0.047692224
16	0xbaefd461	-0.0018297547
17	0x3cc9bf92	0.02462748
18	0x3c31e70d	0.010858309
19	0x3cb644da	0.022249628
20	0x3cbc90b3	0.023018217
21	0xbced7c85	-0.02899004
22	0x3bc44201	0.0059893136
23	0xbd0fcd4c	-0.035107896
24	0xbb651cf4	-0.0034959884
25	0x3d2acd30	0.04169959
26	0x3c8f85e2	0.017519895
27	0x3cd99690	0.026561052
28	0xbcf32339	-0.029679881
29	0xba5f891b	-0.0008527205
30	0x3c231b90	0.009955302
31	0xbb043189	-0.0020171127
32	0xbac1d897	-0.001478928
33	0xbc75fb9f	-0.015013604
34	0x3d3086df	0.043097373
35	0x3d051c89	0.032497916
36	0x3d44d355	0.048053104
37	0x3838f9c9	4.410165e-05
38	0x3c4c8fe5	0.012485479
39	0x39f21fc0	0.00046181493
40	0x3d0186a9	0.031622563
